Exception in gpu::mlir_op: /src/AMDMIGraphX/src/targets/gpu/mlir.cpp:731: run_backend_pipeline: MLIR backend compilation failed: Error: 'rock.gemm' op K dimensions don't match k_a = 216 k_b = 6912
Note: see current operation: "rock.gemm"(%7, %10, %11) <{aTransposed, arch = "gfx908:sramecc+:xnack-", derivedBlockSize = 256 : i32, features = #rock<GemmFeatures mfma|dot|atomic_add>, gridSize = 48 : i32, numCU = 120 : i32, params = #rock.xdlops_gemm_params<kpackPerBlock = 8, mPerBlock = 16, nPerBlock = 64, kpack = 4, mPerWave = 16, nPerWave = 16, forceUnroll = true>, storeMethod = #rock<StoreMethod set>}> : (memref<1x216x768xf32>, memref<1x6912x49xf32>, memref<1x768x49xf32>) -> ()

Exception in gpu::mlir_op: /src/AMDMIGraphX/src/targets/gpu/mlir.cpp:731: run_backend_pipeline: MLIR backend compilation failed: Error: 'rock.gemm' op K dimensions don't match k_a = 54 k_b = 1728
Note: see current operation: "rock.gemm"(%7, %10, %11) <{aTransposed, arch = "gfx908:sramecc+:xnack-", derivedBlockSize = 256 : i32, features = #rock<GemmFeatures mfma|dot|atomic_add>, gridSize = 150 : i32, numCU = 120 : i32, params = #rock.xdlops_gemm_params<kpackPerBlock = 4, mPerBlock = 32, nPerBlock = 32, kpack = 8, mPerWave = 16, nPerWave = 16, forceUnroll = true>, storeMethod = #rock<StoreMethod set>}> : (memref<1x54x192xf32>, memref<1x1728x784xf32>, memref<1x192x784xf32>) -> ()

Exception in gpu::mlir_op: /src/AMDMIGraphX/src/targets/gpu/mlir.cpp:731: run_backend_pipeline: MLIR backend compilation failed: Error: 'rock.gemm' op K dimensions don't match k_a = 27 k_b = 864
Note: see current operation: "rock.gemm"(%7, %10, %11) <{aTransposed, arch = "gfx908:sramecc+:xnack-", derivedBlockSize = 128 : i32, features = #rock<GemmFeatures mfma|dot|atomic_add>, gridSize = 147 : i32, numCU = 120 : i32, params = #rock.xdlops_gemm_params<kpackPerBlock = 2, mPerBlock = 32, nPerBlock = 64, kpack = 8, mPerWave = 32, nPerWave = 32, forceUnroll = true>, storeMethod = #rock<StoreMethod set>}> : (memref<1x27x96xf32>, memref<1x864x3136xf32>, memref<1x96x3136xf32>) -> ()

Exception in gpu::mlir_op: /src/AMDMIGraphX/src/targets/gpu/mlir.cpp:731: run_backend_pipeline: MLIR backend compilation failed: Error: 'rock.gemm' op K dimensions don't match k_a = 54 k_b = 1728
Note: see current operation: "rock.gemm"(%7, %10, %11) <{aTransposed, arch = "gfx908:sramecc+:xnack-", derivedBlockSize = 256 : i32, features = #rock<GemmFeatures mfma|dot|atomic_add>, gridSize = 150 : i32, numCU = 120 : i32, params = #rock.xdlops_gemm_params<kpackPerBlock = 8, mPerBlock = 32, nPerBlock = 32, kpack = 8, mPerWave = 16, nPerWave = 16, forceUnroll = true>, storeMethod = #rock<StoreMethod set>}> : (memref<1x54x192xf32>, memref<1x1728x784xf32>, memref<1x192x784xf32>) -> ()

Exception in gpu::mlir_op: /src/AMDMIGraphX/src/targets/gpu/mlir.cpp:731: run_backend_pipeline: MLIR backend compilation failed: Error: 'rock.gemm' op K dimensions don't match k_a = 216 k_b = 6912
Note: see current operation: "rock.gemm"(%7, %10, %11) <{aTransposed, arch = "gfx908:sramecc+:xnack-", derivedBlockSize = 64 : i32, features = #rock<GemmFeatures mfma|dot|atomic_add>, gridSize = 192 : i32, numCU = 120 : i32, params = #rock.xdlops_gemm_params<kpackPerBlock = 4, mPerBlock = 16, nPerBlock = 16, kpack = 4, mPerWave = 16, nPerWave = 16, forceUnroll = true>, storeMethod = #rock<StoreMethod set>}> : (memref<1x216x768xf32>, memref<1x6912x49xf32>, memref<1x768x49xf32>) -> ()

Exception in gpu::mlir_op: /src/AMDMIGraphX/src/targets/gpu/mlir.cpp:731: run_backend_pipeline: MLIR backend compilation failed: Error: 'rock.gemm' op K dimensions don't match k_a = 216 k_b = 6912
Note: see current operation: "rock.gemm"(%7, %10, %11) <{aTransposed, arch = "gfx908:sramecc+:xnack-", derivedBlockSize = 128 : i32, features = #rock<GemmFeatures mfma|dot|atomic_add>, gridSize = 96 : i32, numCU = 120 : i32, params = #rock.xdlops_gemm_params<kpackPerBlock = 8, mPerBlock = 16, nPerBlock = 32, kpack = 4, mPerWave = 16, nPerWave = 16, forceUnroll = true>, storeMethod = #rock<StoreMethod set>}> : (memref<1x216x768xf32>, memref<1x6912x49xf32>, memref<1x768x49xf32>) -> ()

Exception in gpu::mlir_op: /src/AMDMIGraphX/src/targets/gpu/mlir.cpp:731: run_backend_pipeline: MLIR backend compilation failed: Error: 'rock.gemm' op K dimensions don't match k_a = 54 k_b = 1728
Note: see current operation: "rock.gemm"(%7, %10, %11) <{aTransposed, arch = "gfx908:sramecc+:xnack-", derivedBlockSize = 256 : i32, features = #rock<GemmFeatures mfma|dot|atomic_add>, gridSize = 150 : i32, numCU = 120 : i32, params = #rock.xdlops_gemm_params<kpackPerBlock = 8, mPerBlock = 32, nPerBlock = 32, kpack = 4, mPerWave = 16, nPerWave = 16, forceUnroll = true>, storeMethod = #rock<StoreMethod set>}> : (memref<1x54x192xf32>, memref<1x1728x784xf32>, memref<1x192x784xf32>) -> ()

Exception in gpu::mlir_op: /src/AMDMIGraphX/src/targets/gpu/mlir.cpp:731: run_backend_pipeline: MLIR backend compilation failed: Error: 'rock.gemm' op K dimensions don't match k_a = 54 k_b = 1728
Note: see current operation: "rock.gemm"(%7, %10, %11) <{aTransposed, arch = "gfx908:sramecc+:xnack-", derivedBlockSize = 128 : i32, features = #rock<GemmFeatures mfma|dot|atomic_add>, gridSize = 300 : i32, numCU = 120 : i32, params = #rock.xdlops_gemm_params<kpackPerBlock = 8, mPerBlock = 16, nPerBlock = 32, kpack = 8, mPerWave = 16, nPerWave = 16, forceUnroll = true>, storeMethod = #rock<StoreMethod set>}> : (memref<1x54x192xf32>, memref<1x1728x784xf32>, memref<1x192x784xf32>) -> ()

Exception in gpu::mlir_op: /src/AMDMIGraphX/src/targets/gpu/mlir.cpp:731: run_backend_pipeline: MLIR backend compilation failed: Error: 'rock.gemm' op K dimensions don't match k_a = 27 k_b = 864
Note: see current operation: "rock.gemm"(%7, %10, %11) <{aTransposed, arch = "gfx908:sramecc+:xnack-", derivedBlockSize = 256 : i32, features = #rock<GemmFeatures mfma|dot|atomic_add>, gridSize = 147 : i32, numCU = 120 : i32, params = #rock.xdlops_gemm_params<kpackPerBlock = 2, mPerBlock = 32, nPerBlock = 64, kpack = 4, mPerWave = 8, nPerWave = 64, forceUnroll = true>, storeMethod = #rock<StoreMethod set>}> : (memref<1x27x96xf32>, memref<1x864x3136xf32>, memref<1x96x3136xf32>) -> ()

Exception in gpu::mlir_op: /src/AMDMIGraphX/src/targets/gpu/mlir.cpp:731: run_backend_pipeline: MLIR backend compilation failed: Error: 'rock.gemm' op K dimensions don't match k_a = 216 k_b = 6912
Note: see current operation: "rock.gemm"(%7, %10, %11) <{aTransposed, arch = "gfx908:sramecc+:xnack-", derivedBlockSize = 64 : i32, features = #rock<GemmFeatures mfma|dot|atomic_add>, gridSize = 192 : i32, numCU = 120 : i32, params = #rock.xdlops_gemm_params<kpackPerBlock = 16, mPerBlock = 4, nPerBlock = 64, kpack = 1, mPerWave = 4, nPerWave = 64, forceUnroll = true>, storeMethod = #rock<StoreMethod set>}> : (memref<1x216x768xf32>, memref<1x6912x49xf32>, memref<1x768x49xf32>) -> ()

Exception in gpu::mlir_op: /src/AMDMIGraphX/src/targets/gpu/mlir.cpp:731: run_backend_pipeline: MLIR backend compilation failed: Error: 'rock.gemm' op K dimensions don't match k_a = 216 k_b = 6912
Note: see current operation: "rock.gemm"(%7, %10, %11) <{aTransposed, arch = "gfx908:sramecc+:xnack-", derivedBlockSize = 64 : i32, features = #rock<GemmFeatures mfma|dot|atomic_add>, gridSize = 192 : i32, numCU = 120 : i32, params = #rock.xdlops_gemm_params<kpackPerBlock = 4, mPerBlock = 16, nPerBlock = 16, kpack = 4, mPerWave = 16, nPerWave = 16, forceUnroll = true>, storeMethod = #rock<StoreMethod set>}> : (memref<1x216x768xf32>, memref<1x6912x49xf32>, memref<1x768x49xf32>) -> ()

Exception in gpu::mlir_op: /src/AMDMIGraphX/src/targets/gpu/mlir.cpp:731: run_backend_pipeline: MLIR backend compilation failed: Error: 'rock.gemm' op K dimensions don't match k_a = 54 k_b = 1728
Note: see current operation: "rock.gemm"(%7, %10, %11) <{aTransposed, arch = "gfx908:sramecc+:xnack-", derivedBlockSize = 256 : i32, features = #rock<GemmFeatures mfma|dot|atomic_add>, gridSize = 150 : i32, numCU = 120 : i32, params = #rock.xdlops_gemm_params<kpackPerBlock = 4, mPerBlock = 32, nPerBlock = 32, kpack = 8, mPerWave = 16, nPerWave = 16, forceUnroll = true>, storeMethod = #rock<StoreMethod set>}> : (memref<1x54x192xf32>, memref<1x1728x784xf32>, memref<1x192x784xf32>) -> ()

Exception in gpu::mlir_op: /src/AMDMIGraphX/src/targets/gpu/mlir.cpp:731: run_backend_pipeline: MLIR backend compilation failed: Error: 'rock.gemm' op K dimensions don't match k_a = 54 k_b = 1728
Note: see current operation: "rock.gemm"(%7, %10, %11) <{aTransposed, arch = "gfx908:sramecc+:xnack-", derivedBlockSize = 128 : i32, features = #rock<GemmFeatures mfma|dot|atomic_add>, gridSize = 300 : i32, numCU = 120 : i32, params = #rock.xdlops_gemm_params<kpackPerBlock = 8, mPerBlock = 16, nPerBlock = 32, kpack = 4, mPerWave = 16, nPerWave = 16, forceUnroll = true>, storeMethod = #rock<StoreMethod set>}> : (memref<1x54x192xf32>, memref<1x1728x784xf32>, memref<1x192x784xf32>) -> ()

Exception in gpu::mlir_op: /src/AMDMIGraphX/src/targets/gpu/mlir.cpp:731: run_backend_pipeline: MLIR backend compilation failed: Error: 'rock.gemm' op K dimensions don't match k_a = 27 k_b = 864
Note: see current operation: "rock.gemm"(%7, %10, %11) <{aTransposed, arch = "gfx908:sramecc+:xnack-", derivedBlockSize = 256 : i32, features = #rock<GemmFeatures mfma|dot|atomic_add>, gridSize = 294 : i32, numCU = 120 : i32, params = #rock.xdlops_gemm_params<kpackPerBlock = 8, mPerBlock = 32, nPerBlock = 32, kpack = 4, mPerWave = 16, nPerWave = 16, forceUnroll = true>, storeMethod = #rock<StoreMethod set>}> : (memref<1x27x96xf32>, memref<1x864x3136xf32>, memref<1x96x3136xf32>) -> ()

Exception in gpu::mlir_op: /src/AMDMIGraphX/src/targets/gpu/mlir.cpp:731: run_backend_pipeline: MLIR backend compilation failed: Error: 'rock.gemm' op K dimensions don't match k_a = 216 k_b = 6912
Note: see current operation: "rock.gemm"(%7, %10, %11) <{aTransposed, arch = "gfx908:sramecc+:xnack-", derivedBlockSize = 64 : i32, features = #rock<GemmFeatures mfma|dot|atomic_add>, gridSize = 192 : i32, numCU = 120 : i32, params = #rock.xdlops_gemm_params<kpackPerBlock = 2, mPerBlock = 4, nPerBlock = 64, kpack = 8, mPerWave = 4, nPerWave = 64, forceUnroll = true>, storeMethod = #rock<StoreMethod set>}> : (memref<1x216x768xf32>, memref<1x6912x49xf32>, memref<1x768x49xf32>) -> ()

Exception in gpu::mlir_op: /src/AMDMIGraphX/src/targets/gpu/mlir.cpp:731: run_backend_pipeline: MLIR backend compilation failed: Error: 'rock.gemm' op K dimensions don't match k_a = 216 k_b = 6912
Note: see current operation: "rock.gemm"(%7, %10, %11) <{aTransposed, arch = "gfx908:sramecc+:xnack-", derivedBlockSize = 64 : i32, features = #rock<GemmFeatures mfma|dot|atomic_add>, gridSize = 192 : i32, numCU = 120 : i32, params = #rock.xdlops_gemm_params<kpackPerBlock = 16, mPerBlock = 4, nPerBlock = 64, kpack = 1, mPerWave = 4, nPerWave = 64, forceUnroll = true>, storeMethod = #rock<StoreMethod set>}> : (memref<1x216x768xf32>, memref<1x6912x49xf32>, memref<1x768x49xf32>) -> ()

Exception in gpu::mlir_op: /src/AMDMIGraphX/src/targets/gpu/mlir.cpp:731: run_backend_pipeline: MLIR backend compilation failed: Error: 'rock.gemm' op K dimensions don't match k_a = 54 k_b = 1728
Note: see current operation: "rock.gemm"(%7, %10, %11) <{aTransposed, arch = "gfx908:sramecc+:xnack-", derivedBlockSize = 256 : i32, features = #rock<GemmFeatures mfma|dot|atomic_add>, gridSize = 39 : i32, numCU = 120 : i32, params = #rock.xdlops_gemm_params<kpackPerBlock = 8, mPerBlock = 64, nPerBlock = 64, kpack = 4, mPerWave = 32, nPerWave = 32, forceUnroll = true>, storeMethod = #rock<StoreMethod set>}> : (memref<1x54x192xf32>, memref<1x1728x784xf32>, memref<1x192x784xf32>) -> ()

Exception in gpu::mlir_op: /src/AMDMIGraphX/src/targets/gpu/mlir.cpp:731: run_backend_pipeline: MLIR backend compilation failed: Error: 'rock.gemm' op K dimensions don't match k_a = 54 k_b = 1728
Note: see current operation: "rock.gemm"(%7, %10, %11) <{aTransposed, arch = "gfx908:sramecc+:xnack-", derivedBlockSize = 128 : i32, features = #rock<GemmFeatures mfma|dot|atomic_add>, gridSize = 300 : i32, numCU = 120 : i32, params = #rock.xdlops_gemm_params<kpackPerBlock = 8, mPerBlock = 16, nPerBlock = 32, kpack = 8, mPerWave = 16, nPerWave = 16, forceUnroll = true>, storeMethod = #rock<StoreMethod set>}> : (memref<1x54x192xf32>, memref<1x1728x784xf32>, memref<1x192x784xf32>) -> ()

Exception in gpu::mlir_op: /src/AMDMIGraphX/src/targets/gpu/mlir.cpp:731: run_backend_pipeline: MLIR backend compilation failed: Error: 'rock.gemm' op K dimensions don't match k_a = 27 k_b = 864
Note: see current operation: "rock.gemm"(%7, %10, %11) <{aTransposed, arch = "gfx908:sramecc+:xnack-", derivedBlockSize = 256 : i32, features = #rock<GemmFeatures mfma|dot|atomic_add>, gridSize = 294 : i32, numCU = 120 : i32, params = #rock.xdlops_gemm_params<kpackPerBlock = 4, mPerBlock = 32, nPerBlock = 32, kpack = 8, mPerWave = 16, nPerWave = 16, forceUnroll = true>, storeMethod = #rock<StoreMethod set>}> : (memref<1x27x96xf32>, memref<1x864x3136xf32>, memref<1x96x3136xf32>) -> ()

Exception in gpu::mlir_op: /src/AMDMIGraphX/src/targets/gpu/mlir.cpp:731: run_backend_pipeline: MLIR backend compilation failed: Error: 'rock.gemm' op K dimensions don't match k_a = 216 k_b = 6912
Note: see current operation: "rock.gemm"(%7, %10, %11) <{aTransposed, arch = "gfx908:sramecc+:xnack-", derivedBlockSize = 256 : i32, features = #rock<GemmFeatures mfma|dot|atomic_add>, gridSize = 48 : i32, numCU = 120 : i32, params = #rock.xdlops_gemm_params<kpackPerBlock = 8, mPerBlock = 32, nPerBlock = 32, kpack = 8, mPerWave = 16, nPerWave = 16, forceUnroll = true>, storeMethod = #rock<StoreMethod set>}> : (memref<1x216x768xf32>, memref<1x6912x49xf32>, memref<1x768x49xf32>) -> ()

Exception in gpu::mlir_op: /src/AMDMIGraphX/src/targets/gpu/mlir.cpp:731: run_backend_pipeline: MLIR backend compilation failed: Error: 'rock.gemm' op K dimensions don't match k_a = 216 k_b = 6912
Note: see current operation: "rock.gemm"(%7, %10, %11) <{aTransposed, arch = "gfx908:sramecc+:xnack-", derivedBlockSize = 64 : i32, features = #rock<GemmFeatures mfma|dot|atomic_add>, gridSize = 192 : i32, numCU = 120 : i32, params = #rock.xdlops_gemm_params<kpackPerBlock = 2, mPerBlock = 4, nPerBlock = 64, kpack = 8, mPerWave = 4, nPerWave = 64, forceUnroll = true>, storeMethod = #rock<StoreMethod set>}> : (memref<1x216x768xf32>, memref<1x6912x49xf32>, memref<1x768x49xf32>) -> ()

Exception in gpu::mlir_op: /src/AMDMIGraphX/src/targets/gpu/mlir.cpp:731: run_backend_pipeline: MLIR backend compilation failed: Error: 'rock.gemm' op K dimensions don't match k_a = 54 k_b = 1728
Note: see current operation: "rock.gemm"(%7, %10, %11) <{aTransposed, arch = "gfx908:sramecc+:xnack-", derivedBlockSize = 256 : i32, features = #rock<GemmFeatures mfma|dot|atomic_add>, gridSize = 39 : i32, numCU = 120 : i32, params = #rock.xdlops_gemm_params<kpackPerBlock = 4, mPerBlock = 64, nPerBlock = 64, kpack = 8, mPerWave = 32, nPerWave = 32, forceUnroll = true>, storeMethod = #rock<StoreMethod set>}> : (memref<1x54x192xf32>, memref<1x1728x784xf32>, memref<1x192x784xf32>) -> ()

Exception in gpu::mlir_op: /src/AMDMIGraphX/src/targets/gpu/mlir.cpp:731: run_backend_pipeline: MLIR backend compilation failed: Error: 'rock.gemm' op K dimensions don't match k_a = 54 k_b = 1728
Note: see current operation: "rock.gemm"(%7, %10, %11) <{aTransposed, arch = "gfx908:sramecc+:xnack-", derivedBlockSize = 128 : i32, features = #rock<GemmFeatures mfma|dot|atomic_add>, gridSize = 300 : i32, numCU = 120 : i32, params = #rock.xdlops_gemm_params<kpackPerBlock = 8, mPerBlock = 16, nPerBlock = 32, kpack = 4, mPerWave = 16, nPerWave = 16, forceUnroll = true>, storeMethod = #rock<StoreMethod set>}> : (memref<1x54x192xf32>, memref<1x1728x784xf32>, memref<1x192x784xf32>) -> ()

Exception in gpu::mlir_op: /src/AMDMIGraphX/src/targets/gpu/mlir.cpp:731: run_backend_pipeline: MLIR backend compilation failed: Error: 'rock.gemm' op K dimensions don't match k_a = 27 k_b = 864
Note: see current operation: "rock.gemm"(%7, %10, %11) <{aTransposed, arch = "gfx908:sramecc+:xnack-", derivedBlockSize = 256 : i32, features = #rock<GemmFeatures mfma|dot|atomic_add>, gridSize = 294 : i32, numCU = 120 : i32, params = #rock.xdlops_gemm_params<kpackPerBlock = 8, mPerBlock = 16, nPerBlock = 64, kpack = 4, mPerWave = 16, nPerWave = 16, forceUnroll = true>, storeMethod = #rock<StoreMethod set>}> : (memref<1x27x96xf32>, memref<1x864x3136xf32>, memref<1x96x3136xf32>) -> ()

Exception in gpu::mlir_op: /src/AMDMIGraphX/src/targets/gpu/mlir.cpp:731: run_backend_pipeline: MLIR backend compilation failed: Error: 'rock.gemm' op K dimensions don't match k_a = 216 k_b = 6912
Note: see current operation: "rock.gemm"(%7, %10, %11) <{aTransposed, arch = "gfx908:sramecc+:xnack-", derivedBlockSize = 256 : i32, features = #rock<GemmFeatures mfma|dot|atomic_add>, gridSize = 48 : i32, numCU = 120 : i32, params = #rock.xdlops_gemm_params<kpackPerBlock = 8, mPerBlock = 16, nPerBlock = 64, kpack = 8, mPerWave = 16, nPerWave = 16, forceUnroll = true>, storeMethod = #rock<StoreMethod set>}> : (memref<1x216x768xf32>, memref<1x6912x49xf32>, memref<1x768x49xf32>) -> ()

Exception in gpu::mlir_op: /src/AMDMIGraphX/src/targets/gpu/mlir.cpp:731: run_backend_pipeline: MLIR backend compilation failed: Error: 'rock.gemm' op K dimensions don't match k_a = 216 k_b = 6912
Note: see current operation: "rock.gemm"(%7, %10, %11) <{aTransposed, arch = "gfx908:sramecc+:xnack-", derivedBlockSize = 256 : i32, features = #rock<GemmFeatures mfma|dot|atomic_add>, gridSize = 48 : i32, numCU = 120 : i32, params = #rock.xdlops_gemm_params<kpackPerBlock = 8, mPerBlock = 32, nPerBlock = 32, kpack = 8, mPerWave = 16, nPerWave = 16, forceUnroll = true>, storeMethod = #rock<StoreMethod set>}> : (memref<1x216x768xf32>, memref<1x6912x49xf32>, memref<1x768x49xf32>) -> ()

Exception in gpu::mlir_op: /src/AMDMIGraphX/src/targets/gpu/mlir.cpp:731: run_backend_pipeline: MLIR backend compilation failed: Error: 'rock.gemm' op K dimensions don't match k_a = 54 k_b = 1728
Note: see current operation: "rock.gemm"(%7, %10, %11) <{aTransposed, arch = "gfx908:sramecc+:xnack-", derivedBlockSize = 256 : i32, features = #rock<GemmFeatures mfma|dot|atomic_add>, gridSize = 39 : i32, numCU = 120 : i32, params = #rock.xdlops_gemm_params<kpackPerBlock = 4, mPerBlock = 64, nPerBlock = 64, kpack = 4, mPerWave = 32, nPerWave = 32, forceUnroll = true>, storeMethod = #rock<StoreMethod set>}> : (memref<1x54x192xf32>, memref<1x1728x784xf32>, memref<1x192x784xf32>) -> ()

Exception in gpu::mlir_op: /src/AMDMIGraphX/src/targets/gpu/mlir.cpp:731: run_backend_pipeline: MLIR backend compilation failed: Error: 'rock.gemm' op K dimensions don't match k_a = 54 k_b = 1728
Note: see current operation: "rock.gemm"(%7, %10, %11) <{aTransposed, arch = "gfx908:sramecc+:xnack-", derivedBlockSize = 256 : i32, features = #rock<GemmFeatures mfma|dot|atomic_add>, gridSize = 39 : i32, numCU = 120 : i32, params = #rock.xdlops_gemm_params<kpackPerBlock = 8, mPerBlock = 64, nPerBlock = 64, kpack = 4, mPerWave = 32, nPerWave = 32, forceUnroll = true>, storeMethod = #rock<StoreMethod set>}> : (memref<1x54x192xf32>, memref<1x1728x784xf32>, memref<1x192x784xf32>) -> ()

Exception in gpu::mlir_op: /src/AMDMIGraphX/src/targets/gpu/mlir.cpp:731: run_backend_pipeline: MLIR backend compilation failed: Error: 'rock.gemm' op K dimensions don't match k_a = 27 k_b = 864
Note: see current operation: "rock.gemm"(%7, %10, %11) <{aTransposed, arch = "gfx908:sramecc+:xnack-", derivedBlockSize = 128 : i32, features = #rock<GemmFeatures mfma|dot|atomic_add>, gridSize = 588 : i32, numCU = 120 : i32, params = #rock.xdlops_gemm_params<kpackPerBlock = 8, mPerBlock = 16, nPerBlock = 32, kpack = 4, mPerWave = 16, nPerWave = 16, forceUnroll = true>, storeMethod = #rock<StoreMethod set>}> : (memref<1x27x96xf32>, memref<1x864x3136xf32>, memref<1x96x3136xf32>) -> ()

Exception in gpu::mlir_op: /src/AMDMIGraphX/src/targets/gpu/mlir.cpp:731: run_backend_pipeline: MLIR backend compilation failed: Error: 'rock.gemm' op K dimensions don't match k_a = 216 k_b = 6912
Note: see current operation: "rock.gemm"(%7, %10, %11) <{aTransposed, arch = "gfx908:sramecc+:xnack-", derivedBlockSize = 128 : i32, features = #rock<GemmFeatures mfma|dot|atomic_add>, gridSize = 96 : i32, numCU = 120 : i32, params = #rock.xdlops_gemm_params<kpackPerBlock = 8, mPerBlock = 16, nPerBlock = 32, kpack = 8, mPerWave = 16, nPerWave = 16, forceUnroll = true>, storeMethod = #rock<StoreMethod set>}> : (memref<1x216x768xf32>, memref<1x6912x49xf32>, memref<1x768x49xf32>) -> ()

Exception in gpu::mlir_op: /src/AMDMIGraphX/src/targets/gpu/mlir.cpp:731: run_backend_pipeline: MLIR backend compilation failed: Error: 'rock.gemm' op K dimensions don't match k_a = 216 k_b = 6912
Note: see current operation: "rock.gemm"(%7, %10, %11) <{aTransposed, arch = "gfx908:sramecc+:xnack-", derivedBlockSize = 256 : i32, features = #rock<GemmFeatures mfma|dot|atomic_add>, gridSize = 48 : i32, numCU = 120 : i32, params = #rock.xdlops_gemm_params<kpackPerBlock = 8, mPerBlock = 16, nPerBlock = 64, kpack = 8, mPerWave = 16, nPerWave = 16, forceUnroll = true>, storeMethod = #rock<StoreMethod set>}> : (memref<1x216x768xf32>, memref<1x6912x49xf32>, memref<1x768x49xf32>) -> ()

Exception in gpu::mlir_op: /src/AMDMIGraphX/src/targets/gpu/mlir.cpp:731: run_backend_pipeline: MLIR backend compilation failed: Error: 'rock.gemm' op K dimensions don't match k_a = 54 k_b = 1728
Note: see current operation: "rock.gemm"(%7, %10, %11) <{aTransposed, arch = "gfx908:sramecc+:xnack-", derivedBlockSize = 256 : i32, features = #rock<GemmFeatures mfma|dot|atomic_add>, gridSize = 39 : i32, numCU = 120 : i32, params = #rock.xdlops_gemm_params<kpackPerBlock = 4, mPerBlock = 64, nPerBlock = 64, kpack = 8, mPerWave = 32, nPerWave = 32, forceUnroll = true>, storeMethod = #rock<StoreMethod set>}> : (memref<1x54x192xf32>, memref<1x1728x784xf32>, memref<1x192x784xf32>) -> ()

Exception in gpu::mlir_op: /src/AMDMIGraphX/src/targets/gpu/mlir.cpp:731: run_backend_pipeline: MLIR backend compilation failed: Error: 'rock.gemm' op K dimensions don't match k_a = 54 k_b = 1728
Note: see current operation: "rock.gemm"(%7, %10, %11) <{aTransposed, arch = "gfx908:sramecc+:xnack-", derivedBlockSize = 256 : i32, features = #rock<GemmFeatures mfma|dot|atomic_add>, gridSize = 39 : i32, numCU = 120 : i32, params = #rock.xdlops_gemm_params<kpackPerBlock = 4, mPerBlock = 64, nPerBlock = 64, kpack = 8, mPerWave = 16, nPerWave = 64, forceUnroll = true>, storeMethod = #rock<StoreMethod set>}> : (memref<1x54x192xf32>, memref<1x1728x784xf32>, memref<1x192x784xf32>) -> ()

Exception in gpu::mlir_op: /src/AMDMIGraphX/src/targets/gpu/mlir.cpp:731: run_backend_pipeline: MLIR backend compilation failed: Error: 'rock.gemm' op K dimensions don't match k_a = 27 k_b = 864
Note: see current operation: "rock.gemm"(%7, %10, %11) <{aTransposed, arch = "gfx908:sramecc+:xnack-", derivedBlockSize = 64 : i32, features = #rock<GemmFeatures mfma|dot|atomic_add>, gridSize = 1176 : i32, numCU = 120 : i32, params = #rock.xdlops_gemm_params<kpackPerBlock = 4, mPerBlock = 16, nPerBlock = 16, kpack = 4, mPerWave = 16, nPerWave = 16, forceUnroll = true>, storeMethod = #rock<StoreMethod set>}> : (memref<1x27x96xf32>, memref<1x864x3136xf32>, memref<1x96x3136xf32>) -> ()

Exception in gpu::mlir_op: /src/AMDMIGraphX/src/targets/gpu/mlir.cpp:731: run_backend_pipeline: MLIR backend compilation failed: Error: 'rock.gemm' op K dimensions don't match k_a = 216 k_b = 6912
Note: see current operation: "rock.gemm"(%7, %10, %11) <{aTransposed, arch = "gfx908:sramecc+:xnack-", derivedBlockSize = 64 : i32, features = #rock<GemmFeatures mfma|dot|atomic_add>, gridSize = 192 : i32, numCU = 120 : i32, params = #rock.xdlops_gemm_params<kpackPerBlock = 8, mPerBlock = 16, nPerBlock = 16, kpack = 8, mPerWave = 16, nPerWave = 16, forceUnroll = true>, storeMethod = #rock<StoreMethod set>}> : (memref<1x216x768xf32>, memref<1x6912x49xf32>, memref<1x768x49xf32>) -> ()

Exception in gpu::mlir_op: /src/AMDMIGraphX/src/targets/gpu/mlir.cpp:731: run_backend_pipeline: MLIR backend compilation failed: Error: 'rock.gemm' op K dimensions don't match k_a = 216 k_b = 6912
Note: see current operation: "rock.gemm"(%7, %10, %11) <{aTransposed, arch = "gfx908:sramecc+:xnack-", derivedBlockSize = 128 : i32, features = #rock<GemmFeatures mfma|dot|atomic_add>, gridSize = 96 : i32, numCU = 120 : i32, params = #rock.xdlops_gemm_params<kpackPerBlock = 8, mPerBlock = 16, nPerBlock = 32, kpack = 8, mPerWave = 16, nPerWave = 16, forceUnroll = true>, storeMethod = #rock<StoreMethod set>}> : (memref<1x216x768xf32>, memref<1x6912x49xf32>, memref<1x768x49xf32>) -> ()

Exception in gpu::mlir_op: /src/AMDMIGraphX/src/targets/gpu/mlir.cpp:731: run_backend_pipeline: MLIR backend compilation failed: Error: 'rock.gemm' op K dimensions don't match k_a = 54 k_b = 1728
Note: see current operation: "rock.gemm"(%7, %10, %11) <{aTransposed, arch = "gfx908:sramecc+:xnack-", derivedBlockSize = 256 : i32, features = #rock<GemmFeatures mfma|dot|atomic_add>, gridSize = 39 : i32, numCU = 120 : i32, params = #rock.xdlops_gemm_params<kpackPerBlock = 4, mPerBlock = 64, nPerBlock = 64, kpack = 4, mPerWave = 16, nPerWave = 64, forceUnroll = true>, storeMethod = #rock<StoreMethod set>}> : (memref<1x54x192xf32>, memref<1x1728x784xf32>, memref<1x192x784xf32>) -> ()

Exception in gpu::mlir_op: /src/AMDMIGraphX/src/targets/gpu/mlir.cpp:731: run_backend_pipeline: MLIR backend compilation failed: Error: 'rock.gemm' op K dimensions don't match k_a = 54 k_b = 1728
Note: see current operation: "rock.gemm"(%7, %10, %11) <{aTransposed, arch = "gfx908:sramecc+:xnack-", derivedBlockSize = 256 : i32, features = #rock<GemmFeatures mfma|dot|atomic_add>, gridSize = 39 : i32, numCU = 120 : i32, params = #rock.xdlops_gemm_params<kpackPerBlock = 4, mPerBlock = 64, nPerBlock = 64, kpack = 4, mPerWave = 32, nPerWave = 32, forceUnroll = true>, storeMethod = #rock<StoreMethod set>}> : (memref<1x54x192xf32>, memref<1x1728x784xf32>, memref<1x192x784xf32>) -> ()

Exception in gpu::mlir_op: /src/AMDMIGraphX/src/targets/gpu/mlir.cpp:731: run_backend_pipeline: MLIR backend compilation failed: Error: 'rock.gemm' op K dimensions don't match k_a = 27 k_b = 864
Note: see current operation: "rock.gemm"(%7, %10, %11) <{aTransposed, arch = "gfx908:sramecc+:xnack-", derivedBlockSize = 64 : i32, features = #rock<GemmFeatures mfma|dot|atomic_add>, gridSize = 1176 : i32, numCU = 120 : i32, params = #rock.xdlops_gemm_params<kpackPerBlock = 16, mPerBlock = 4, nPerBlock = 64, kpack = 1, mPerWave = 4, nPerWave = 64, forceUnroll = true>, storeMethod = #rock<StoreMethod set>}> : (memref<1x27x96xf32>, memref<1x864x3136xf32>, memref<1x96x3136xf32>) -> ()

Exception in gpu::mlir_op: /src/AMDMIGraphX/src/targets/gpu/mlir.cpp:731: run_backend_pipeline: MLIR backend compilation failed: Error: 'rock.gemm' op K dimensions don't match k_a = 216 k_b = 6912
Note: see current operation: "rock.gemm"(%7, %10, %11) <{aTransposed, arch = "gfx908:sramecc+:xnack-", derivedBlockSize = 128 : i32, features = #rock<GemmFeatures mfma|dot|atomic_add>, gridSize = 96 : i32, numCU = 120 : i32, params = #rock.xdlops_gemm_params<kpackPerBlock = 8, mPerBlock = 8, nPerBlock = 64, kpack = 8, mPerWave = 4, nPerWave = 64, forceUnroll = true>, storeMethod = #rock<StoreMethod set>}> : (memref<1x216x768xf32>, memref<1x6912x49xf32>, memref<1x768x49xf32>) -> ()

Exception in gpu::mlir_op: /src/AMDMIGraphX/src/targets/gpu/mlir.cpp:731: run_backend_pipeline: MLIR backend compilation failed: Error: 'rock.gemm' op K dimensions don't match k_a = 216 k_b = 6912
Note: see current operation: "rock.gemm"(%7, %10, %11) <{aTransposed, arch = "gfx908:sramecc+:xnack-", derivedBlockSize = 64 : i32, features = #rock<GemmFeatures mfma|dot|atomic_add>, gridSize = 192 : i32, numCU = 120 : i32, params = #rock.xdlops_gemm_params<kpackPerBlock = 8, mPerBlock = 16, nPerBlock = 16, kpack = 8, mPerWave = 16, nPerWave = 16, forceUnroll = true>, storeMethod = #rock<StoreMethod set>}> : (memref<1x216x768xf32>, memref<1x6912x49xf32>, memref<1x768x49xf32>) -> ()

Exception in gpu::mlir_op: /src/AMDMIGraphX/src/targets/gpu/mlir.cpp:731: run_backend_pipeline: MLIR backend compilation failed: Error: 'rock.gemm' op K dimensions don't match k_a = 54 k_b = 1728
Note: see current operation: "rock.gemm"(%7, %10, %11) <{aTransposed, arch = "gfx908:sramecc+:xnack-", derivedBlockSize = 256 : i32, features = #rock<GemmFeatures mfma|dot|atomic_add>, gridSize = 39 : i32, numCU = 120 : i32, params = #rock.xdlops_gemm_params<kpackPerBlock = 2, mPerBlock = 64, nPerBlock = 64, kpack = 8, mPerWave = 32, nPerWave = 32, forceUnroll = true>, storeMethod = #rock<StoreMethod set>}> : (memref<1x54x192xf32>, memref<1x1728x784xf32>, memref<1x192x784xf32>) -> ()

Exception in gpu::mlir_op: /src/AMDMIGraphX/src/targets/gpu/mlir.cpp:731: run_backend_pipeline: MLIR backend compilation failed: Error: 'rock.gemm' op K dimensions don't match k_a = 54 k_b = 1728
Note: see current operation: "rock.gemm"(%7, %10, %11) <{aTransposed, arch = "gfx908:sramecc+:xnack-", derivedBlockSize = 256 : i32, features = #rock<GemmFeatures mfma|dot|atomic_add>, gridSize = 39 : i32, numCU = 120 : i32, params = #rock.xdlops_gemm_params<kpackPerBlock = 4, mPerBlock = 64, nPerBlock = 64, kpack = 8, mPerWave = 16, nPerWave = 64, forceUnroll = true>, storeMethod = #rock<StoreMethod set>}> : (memref<1x54x192xf32>, memref<1x1728x784xf32>, memref<1x192x784xf32>) -> ()

Exception in gpu::mlir_op: /src/AMDMIGraphX/src/targets/gpu/mlir.cpp:731: run_backend_pipeline: MLIR backend compilation failed: Error: 'rock.gemm' op K dimensions don't match k_a = 27 k_b = 864
Note: see current operation: "rock.gemm"(%7, %10, %11) <{aTransposed, arch = "gfx908:sramecc+:xnack-", derivedBlockSize = 64 : i32, features = #rock<GemmFeatures mfma|dot|atomic_add>, gridSize = 1176 : i32, numCU = 120 : i32, params = #rock.xdlops_gemm_params<kpackPerBlock = 2, mPerBlock = 4, nPerBlock = 64, kpack = 8, mPerWave = 4, nPerWave = 64, forceUnroll = true>, storeMethod = #rock<StoreMethod set>}> : (memref<1x27x96xf32>, memref<1x864x3136xf32>, memref<1x96x3136xf32>) -> ()

Exception in gpu::mlir_op: /src/AMDMIGraphX/src/targets/gpu/mlir.cpp:731: run_backend_pipeline: MLIR backend compilation failed: Error: 'rock.gemm' op K dimensions don't match k_a = 216 k_b = 6912
Note: see current operation: "rock.gemm"(%7, %10, %11) <{aTransposed, arch = "gfx908:sramecc+:xnack-", derivedBlockSize = 128 : i32, features = #rock<GemmFeatures mfma|dot|atomic_add>, gridSize = 6 : i32, numCU = 120 : i32, params = #rock.xdlops_gemm_params<kpackPerBlock = 8, mPerBlock = 128, nPerBlock = 128, kpack = 1, mPerWave = 64, nPerWave = 128, forceUnroll = true>, storeMethod = #rock<StoreMethod set>}> : (memref<1x216x768xf32>, memref<1x6912x49xf32>, memref<1x768x49xf32>) -> ()

Exception in gpu::mlir_op: /src/AMDMIGraphX/src/targets/gpu/mlir.cpp:731: run_backend_pipeline: MLIR backend compilation failed: Error: 'rock.gemm' op K dimensions don't match k_a = 54 k_b = 1728
Note: see current operation: "rock.gemm"(%7, %10, %11) <{aTransposed, arch = "gfx908:sramecc+:xnack-", derivedBlockSize = 256 : i32, features = #rock<GemmFeatures mfma|dot|atomic_add>, gridSize = 39 : i32, numCU = 120 : i32, params = #rock.xdlops_gemm_params<kpackPerBlock = 4, mPerBlock = 64, nPerBlock = 64, kpack = 4, mPerWave = 16, nPerWave = 64, forceUnroll = true>, storeMethod = #rock<StoreMethod set>}> : (memref<1x54x192xf32>, memref<1x1728x784xf32>, memref<1x192x784xf32>) -> ()

Exception in gpu::mlir_op: /src/AMDMIGraphX/src/targets/gpu/mlir.cpp:731: run_backend_pipeline: MLIR backend compilation failed: Error: 'rock.gemm' op K dimensions don't match k_a = 216 k_b = 6912
Note: see current operation: "rock.gemm"(%7, %10, %11) <{aTransposed, arch = "gfx908:sramecc+:xnack-", derivedBlockSize = 128 : i32, features = #rock<GemmFeatures mfma|dot|atomic_add>, gridSize = 96 : i32, numCU = 120 : i32, params = #rock.xdlops_gemm_params<kpackPerBlock = 8, mPerBlock = 8, nPerBlock = 64, kpack = 8, mPerWave = 4, nPerWave = 64, forceUnroll = true>, storeMethod = #rock<StoreMethod set>}> : (memref<1x216x768xf32>, memref<1x6912x49xf32>, memref<1x768x49xf32>) -> ()

Exception in gpu::mlir_op: /src/AMDMIGraphX/src/targets/gpu/mlir.cpp:731: run_backend_pipeline: MLIR backend compilation failed: Error: 'rock.gemm' op K dimensions don't match k_a = 54 k_b = 1728
Note: see current operation: "rock.gemm"(%7, %10, %11) <{aTransposed, arch = "gfx908:sramecc+:xnack-", derivedBlockSize = 64 : i32, features = #rock<GemmFeatures mfma|dot|atomic_add>, gridSize = 78 : i32, numCU = 120 : i32, params = #rock.xdlops_gemm_params<kpackPerBlock = 4, mPerBlock = 32, nPerBlock = 64, kpack = 4, mPerWave = 32, nPerWave = 64, forceUnroll = true>, storeMethod = #rock<StoreMethod set>}> : (memref<1x54x192xf32>, memref<1x1728x784xf32>, memref<1x192x784xf32>) -> ()

Exception in gpu::mlir_op: /src/AMDMIGraphX/src/targets/gpu/mlir.cpp:731: run_backend_pipeline: MLIR backend compilation failed: Error: 'rock.gemm' op K dimensions don't match k_a = 216 k_b = 6912
Note: see current operation: "rock.gemm"(%7, %10, %11) <{aTransposed, arch = "gfx908:sramecc+:xnack-", derivedBlockSize = 256 : i32, features = #rock<GemmFeatures mfma|dot|atomic_add>, gridSize = 6 : i32, numCU = 120 : i32, params = #rock.xdlops_gemm_params<kpackPerBlock = 8, mPerBlock = 128, nPerBlock = 128, kpack = 1, mPerWave = 64, nPerWave = 64, forceUnroll = true>, storeMethod = #rock<StoreMethod set>}> : (memref<1x216x768xf32>, memref<1x6912x49xf32>, memref<1x768x49xf32>) -> ()

Exception in gpu::mlir_op: /src/AMDMIGraphX/src/targets/gpu/mlir.cpp:731: run_backend_pipeline: MLIR backend compilation failed: Error: 'rock.gemm' op K dimensions don't match k_a = 27 k_b = 864
Note: see current operation: "rock.gemm"(%7, %10, %11) <{aTransposed, arch = "gfx908:sramecc+:xnack-", derivedBlockSize = 256 : i32, features = #rock<GemmFeatures mfma|dot|atomic_add>, gridSize = 75 : i32, numCU = 120 : i32, params = #rock.xdlops_gemm_params<kpackPerBlock = 4, mPerBlock = 32, nPerBlock = 128, kpack = 4, mPerWave = 32, nPerWave = 32, forceUnroll = true>, storeMethod = #rock<StoreMethod set>}> : (memref<1x27x96xf32>, memref<1x864x3136xf32>, memref<1x96x3136xf32>) -> ()

Exception in gpu::mlir_op: /src/AMDMIGraphX/src/targets/gpu/mlir.cpp:731: run_backend_pipeline: MLIR backend compilation failed: Error: 'rock.gemm' op K dimensions don't match k_a = 54 k_b = 1728
Note: see current operation: "rock.gemm"(%7, %10, %11) <{aTransposed, arch = "gfx908:sramecc+:xnack-", derivedBlockSize = 256 : i32, features = #rock<GemmFeatures mfma|dot|atomic_add>, gridSize = 39 : i32, numCU = 120 : i32, params = #rock.xdlops_gemm_params<kpackPerBlock = 2, mPerBlock = 64, nPerBlock = 64, kpack = 8, mPerWave = 32, nPerWave = 32, forceUnroll = true>, storeMethod = #rock<StoreMethod set>}> : (memref<1x54x192xf32>, memref<1x1728x784xf32>, memref<1x192x784xf32>) -> ()

Exception in gpu::mlir_op: /src/AMDMIGraphX/src/targets/gpu/mlir.cpp:731: run_backend_pipeline: MLIR backend compilation failed: Error: 'rock.gemm' op K dimensions don't match k_a = 54 k_b = 1728
Note: see current operation: "rock.gemm"(%7, %10, %11) <{aTransposed, arch = "gfx908:sramecc+:xnack-", derivedBlockSize = 256 : i32, features = #rock<GemmFeatures mfma|dot|atomic_add>, gridSize = 78 : i32, numCU = 120 : i32, params = #rock.xdlops_gemm_params<kpackPerBlock = 4, mPerBlock = 32, nPerBlock = 64, kpack = 4, mPerWave = 8, nPerWave = 64, forceUnroll = true>, storeMethod = #rock<StoreMethod set>}> : (memref<1x54x192xf32>, memref<1x1728x784xf32>, memref<1x192x784xf32>) -> ()

Exception in gpu::mlir_op: /src/AMDMIGraphX/src/targets/gpu/mlir.cpp:731: run_backend_pipeline: MLIR backend compilation failed: Error: 'rock.gemm' op K dimensions don't match k_a = 216 k_b = 6912
Note: see current operation: "rock.gemm"(%7, %10, %11) <{aTransposed, arch = "gfx908:sramecc+:xnack-", derivedBlockSize = 128 : i32, features = #rock<GemmFeatures mfma|dot|atomic_add>, gridSize = 6 : i32, numCU = 120 : i32, params = #rock.xdlops_gemm_params<kpackPerBlock = 8, mPerBlock = 128, nPerBlock = 128, kpack = 1, mPerWave = 64, nPerWave = 128, forceUnroll = true>, storeMethod = #rock<StoreMethod set>}> : (memref<1x216x768xf32>, memref<1x6912x49xf32>, memref<1x768x49xf32>) -> ()

Exception in gpu::mlir_op: /src/AMDMIGraphX/src/targets/gpu/mlir.cpp:731: run_backend_pipeline: MLIR backend compilation failed: Error: 'rock.gemm' op K dimensions don't match k_a = 216 k_b = 6912
Note: see current operation: "rock.gemm"(%7, %10, %11) <{aTransposed, arch = "gfx908:sramecc+:xnack-", derivedBlockSize = 256 : i32, features = #rock<GemmFeatures mfma|dot|atomic_add>, gridSize = 6 : i32, numCU = 120 : i32, params = #rock.xdlops_gemm_params<kpackPerBlock = 2, mPerBlock = 128, nPerBlock = 128, kpack = 4, mPerWave = 64, nPerWave = 64, forceUnroll = true>, storeMethod = #rock<StoreMethod set>}> : (memref<1x216x768xf32>, memref<1x6912x49xf32>, memref<1x768x49xf32>) -> ()

Exception in gpu::mlir_op: /src/AMDMIGraphX/src/targets/gpu/mlir.cpp:731: run_backend_pipeline: MLIR backend compilation failed: Error: 'rock.gemm' op K dimensions don't match k_a = 27 k_b = 864
Note: see current operation: "rock.gemm"(%7, %10, %11) <{aTransposed, arch = "gfx908:sramecc+:xnack-", derivedBlockSize = 256 : i32, features = #rock<GemmFeatures mfma|dot|atomic_add>, gridSize = 98 : i32, numCU = 120 : i32, params = #rock.xdlops_gemm_params<kpackPerBlock = 8, mPerBlock = 64, nPerBlock = 64, kpack = 4, mPerWave = 32, nPerWave = 32, forceUnroll = true>, storeMethod = #rock<StoreMethod set>}> : (memref<1x27x96xf32>, memref<1x864x3136xf32>, memref<1x96x3136xf32>) -> ()

Exception in gpu::mlir_op: /src/AMDMIGraphX/src/targets/gpu/mlir.cpp:731: run_backend_pipeline: MLIR backend compilation failed: Error: 'rock.gemm' op K dimensions don't match k_a = 54 k_b = 1728
Note: see current operation: "rock.gemm"(%7, %10, %11) <{aTransposed, arch = "gfx908:sramecc+:xnack-", derivedBlockSize = 128 : i32, features = #rock<GemmFeatures mfma|dot|atomic_add>, gridSize = 78 : i32, numCU = 120 : i32, params = #rock.xdlops_gemm_params<kpackPerBlock = 8, mPerBlock = 32, nPerBlock = 64, kpack = 4, mPerWave = 32, nPerWave = 32, forceUnroll = true>, storeMethod = #rock<StoreMethod set>}> : (memref<1x54x192xf32>, memref<1x1728x784xf32>, memref<1x192x784xf32>) -> ()

Exception in gpu::mlir_op: /src/AMDMIGraphX/src/targets/gpu/mlir.cpp:731: run_backend_pipeline: MLIR backend compilation failed: Error: 'rock.gemm' op K dimensions don't match k_a = 54 k_b = 1728
Note: see current operation: "rock.gemm"(%7, %10, %11) <{aTransposed, arch = "gfx908:sramecc+:xnack-", derivedBlockSize = 64 : i32, features = #rock<GemmFeatures mfma|dot|atomic_add>, gridSize = 78 : i32, numCU = 120 : i32, params = #rock.xdlops_gemm_params<kpackPerBlock = 4, mPerBlock = 32, nPerBlock = 64, kpack = 4, mPerWave = 32, nPerWave = 64, forceUnroll = true>, storeMethod = #rock<StoreMethod set>}> : (memref<1x54x192xf32>, memref<1x1728x784xf32>, memref<1x192x784xf32>) -> ()

Exception in gpu::mlir_op: /src/AMDMIGraphX/src/targets/gpu/mlir.cpp:731: run_backend_pipeline: MLIR backend compilation failed: Error: 'rock.gemm' op K dimensions don't match k_a = 216 k_b = 6912
Note: see current operation: "rock.gemm"(%7, %10, %11) <{aTransposed, arch = "gfx908:sramecc+:xnack-", derivedBlockSize = 256 : i32, features = #rock<GemmFeatures mfma|dot|atomic_add>, gridSize = 6 : i32, numCU = 120 : i32, params = #rock.xdlops_gemm_params<kpackPerBlock = 8, mPerBlock = 128, nPerBlock = 128, kpack = 1, mPerWave = 64, nPerWave = 64, forceUnroll = true>, storeMethod = #rock<StoreMethod set>}> : (memref<1x216x768xf32>, memref<1x6912x49xf32>, memref<1x768x49xf32>) -> ()

Exception in gpu::mlir_op: /src/AMDMIGraphX/src/targets/gpu/mlir.cpp:731: run_backend_pipeline: MLIR backend compilation failed: Error: 'rock.gemm' op K dimensions don't match k_a = 216 k_b = 6912
Note: see current operation: "rock.gemm"(%7, %10, %11) <{aTransposed, arch = "gfx908:sramecc+:xnack-", derivedBlockSize = 256 : i32, features = #rock<GemmFeatures mfma|dot|atomic_add>, gridSize = 12 : i32, numCU = 120 : i32, params = #rock.xdlops_gemm_params<kpackPerBlock = 2, mPerBlock = 64, nPerBlock = 128, kpack = 4, mPerWave = 32, nPerWave = 64, forceUnroll = true>, storeMethod = #rock<StoreMethod set>}> : (memref<1x216x768xf32>, memref<1x6912x49xf32>, memref<1x768x49xf32>) -> ()

Exception in gpu::mlir_op: /src/AMDMIGraphX/src/targets/gpu/mlir.cpp:731: run_backend_pipeline: MLIR backend compilation failed: Error: 'rock.gemm' op K dimensions don't match k_a = 27 k_b = 864
Note: see current operation: "rock.gemm"(%7, %10, %11) <{aTransposed, arch = "gfx908:sramecc+:xnack-", derivedBlockSize = 256 : i32, features = #rock<GemmFeatures mfma|dot|atomic_add>, gridSize = 98 : i32, numCU = 120 : i32, params = #rock.xdlops_gemm_params<kpackPerBlock = 4, mPerBlock = 64, nPerBlock = 64, kpack = 8, mPerWave = 32, nPerWave = 32, forceUnroll = true>, storeMethod = #rock<StoreMethod set>}> : (memref<1x27x96xf32>, memref<1x864x3136xf32>, memref<1x96x3136xf32>) -> ()

Exception in gpu::mlir_op: /src/AMDMIGraphX/src/targets/gpu/mlir.cpp:731: run_backend_pipeline: MLIR backend compilation failed: Error: 'rock.gemm' op K dimensions don't match k_a = 54 k_b = 1728
Note: see current operation: "rock.gemm"(%7, %10, %11) <{aTransposed, arch = "gfx908:sramecc+:xnack-", derivedBlockSize = 256 : i32, features = #rock<GemmFeatures mfma|dot|atomic_add>, gridSize = 78 : i32, numCU = 120 : i32, params = #rock.xdlops_gemm_params<kpackPerBlock = 8, mPerBlock = 32, nPerBlock = 64, kpack = 4, mPerWave = 8, nPerWave = 64, forceUnroll = true>, storeMethod = #rock<StoreMethod set>}> : (memref<1x54x192xf32>, memref<1x1728x784xf32>, memref<1x192x784xf32>) -> ()

Exception in gpu::mlir_op: /src/AMDMIGraphX/src/targets/gpu/mlir.cpp:731: run_backend_pipeline: MLIR backend compilation failed: Error: 'rock.gemm' op K dimensions don't match k_a = 54 k_b = 1728
Note: see current operation: "rock.gemm"(%7, %10, %11) <{aTransposed, arch = "gfx908:sramecc+:xnack-", derivedBlockSize = 256 : i32, features = #rock<GemmFeatures mfma|dot|atomic_add>, gridSize = 78 : i32, numCU = 120 : i32, params = #rock.xdlops_gemm_params<kpackPerBlock = 4, mPerBlock = 32, nPerBlock = 64, kpack = 4, mPerWave = 8, nPerWave = 64, forceUnroll = true>, storeMethod = #rock<StoreMethod set>}> : (memref<1x54x192xf32>, memref<1x1728x784xf32>, memref<1x192x784xf32>) -> ()

Exception in gpu::mlir_op: /src/AMDMIGraphX/src/targets/gpu/mlir.cpp:731: run_backend_pipeline: MLIR backend compilation failed: Error: 'rock.gemm' op K dimensions don't match k_a = 216 k_b = 6912
Note: see current operation: "rock.gemm"(%7, %10, %11) <{aTransposed, arch = "gfx908:sramecc+:xnack-", derivedBlockSize = 256 : i32, features = #rock<GemmFeatures mfma|dot|atomic_add>, gridSize = 6 : i32, numCU = 120 : i32, params = #rock.xdlops_gemm_params<kpackPerBlock = 2, mPerBlock = 128, nPerBlock = 128, kpack = 4, mPerWave = 64, nPerWave = 64, forceUnroll = true>, storeMethod = #rock<StoreMethod set>}> : (memref<1x216x768xf32>, memref<1x6912x49xf32>, memref<1x768x49xf32>) -> ()

Exception in gpu::mlir_op: /src/AMDMIGraphX/src/targets/gpu/mlir.cpp:731: run_backend_pipeline: MLIR backend compilation failed: Error: 'rock.gemm' op K dimensions don't match k_a = 216 k_b = 6912
Note: see current operation: "rock.gemm"(%7, %10, %11) <{aTransposed, arch = "gfx908:sramecc+:xnack-", derivedBlockSize = 256 : i32, features = #rock<GemmFeatures mfma|dot|atomic_add>, gridSize = 6 : i32, numCU = 120 : i32, params = #rock.xdlops_gemm_params<kpackPerBlock = 8, mPerBlock = 128, nPerBlock = 128, kpack = 4, mPerWave = 64, nPerWave = 64, forceUnroll = true>, storeMethod = #rock<StoreMethod set>}> : (memref<1x216x768xf32>, memref<1x6912x49xf32>, memref<1x768x49xf32>) -> ()

Exception in gpu::mlir_op: /src/AMDMIGraphX/src/targets/gpu/mlir.cpp:731: run_backend_pipeline: MLIR backend compilation failed: Error: 'rock.gemm' op K dimensions don't match k_a = 27 k_b = 864
Note: see current operation: "rock.gemm"(%7, %10, %11) <{aTransposed, arch = "gfx908:sramecc+:xnack-", derivedBlockSize = 256 : i32, features = #rock<GemmFeatures mfma|dot|atomic_add>, gridSize = 98 : i32, numCU = 120 : i32, params = #rock.xdlops_gemm_params<kpackPerBlock = 4, mPerBlock = 64, nPerBlock = 64, kpack = 4, mPerWave = 32, nPerWave = 32, forceUnroll = true>, storeMethod = #rock<StoreMethod set>}> : (memref<1x27x96xf32>, memref<1x864x3136xf32>, memref<1x96x3136xf32>) -> ()

Exception in gpu::mlir_op: /src/AMDMIGraphX/src/targets/gpu/mlir.cpp:731: run_backend_pipeline: MLIR backend compilation failed: Error: 'rock.gemm' op K dimensions don't match k_a = 54 k_b = 1728
Note: see current operation: "rock.gemm"(%7, %10, %11) <{aTransposed, arch = "gfx908:sramecc+:xnack-", derivedBlockSize = 128 : i32, features = #rock<GemmFeatures mfma|dot|atomic_add>, gridSize = 78 : i32, numCU = 120 : i32, params = #rock.xdlops_gemm_params<kpackPerBlock = 2, mPerBlock = 32, nPerBlock = 64, kpack = 8, mPerWave = 32, nPerWave = 32, forceUnroll = true>, storeMethod = #rock<StoreMethod set>}> : (memref<1x54x192xf32>, memref<1x1728x784xf32>, memref<1x192x784xf32>) -> ()

Exception in gpu::mlir_op: /src/AMDMIGraphX/src/targets/gpu/mlir.cpp:731: run_backend_pipeline: MLIR backend compilation failed: Error: 'rock.gemm' op K dimensions don't match k_a = 54 k_b = 1728
Note: see current operation: "rock.gemm"(%7, %10, %11) <{aTransposed, arch = "gfx908:sramecc+:xnack-", derivedBlockSize = 128 : i32, features = #rock<GemmFeatures mfma|dot|atomic_add>, gridSize = 78 : i32, numCU = 120 : i32, params = #rock.xdlops_gemm_params<kpackPerBlock = 8, mPerBlock = 32, nPerBlock = 64, kpack = 4, mPerWave = 32, nPerWave = 32, forceUnroll = true>, storeMethod = #rock<StoreMethod set>}> : (memref<1x54x192xf32>, memref<1x1728x784xf32>, memref<1x192x784xf32>) -> ()

Exception in gpu::mlir_op: /src/AMDMIGraphX/src/targets/gpu/mlir.cpp:731: run_backend_pipeline: MLIR backend compilation failed: Error: 'rock.gemm' op K dimensions don't match k_a = 216 k_b = 6912
Note: see current operation: "rock.gemm"(%7, %10, %11) <{aTransposed, arch = "gfx908:sramecc+:xnack-", derivedBlockSize = 256 : i32, features = #rock<GemmFeatures mfma|dot|atomic_add>, gridSize = 12 : i32, numCU = 120 : i32, params = #rock.xdlops_gemm_params<kpackPerBlock = 2, mPerBlock = 64, nPerBlock = 128, kpack = 4, mPerWave = 32, nPerWave = 64, forceUnroll = true>, storeMethod = #rock<StoreMethod set>}> : (memref<1x216x768xf32>, memref<1x6912x49xf32>, memref<1x768x49xf32>) -> ()

Exception in gpu::mlir_op: /src/AMDMIGraphX/src/targets/gpu/mlir.cpp:731: run_backend_pipeline: MLIR backend compilation failed: Error: 'rock.gemm' op K dimensions don't match k_a = 216 k_b = 6912
Note: see current operation: "rock.gemm"(%7, %10, %11) <{aTransposed, arch = "gfx908:sramecc+:xnack-", derivedBlockSize = 128 : i32, features = #rock<GemmFeatures mfma|dot|atomic_add>, gridSize = 6 : i32, numCU = 120 : i32, params = #rock.xdlops_gemm_params<kpackPerBlock = 4, mPerBlock = 128, nPerBlock = 128, kpack = 4, mPerWave = 64, nPerWave = 128, forceUnroll = true>, storeMethod = #rock<StoreMethod set>}> : (memref<1x216x768xf32>, memref<1x6912x49xf32>, memref<1x768x49xf32>) -> ()

Exception in gpu::mlir_op: /src/AMDMIGraphX/src/targets/gpu/mlir.cpp:731: run_backend_pipeline: MLIR backend compilation failed: Error: 'rock.gemm' op K dimensions don't match k_a = 27 k_b = 864
Note: see current operation: "rock.gemm"(%7, %10, %11) <{aTransposed, arch = "gfx908:sramecc+:xnack-", derivedBlockSize = 256 : i32, features = #rock<GemmFeatures mfma|dot|atomic_add>, gridSize = 98 : i32, numCU = 120 : i32, params = #rock.xdlops_gemm_params<kpackPerBlock = 4, mPerBlock = 64, nPerBlock = 64, kpack = 8, mPerWave = 16, nPerWave = 64, forceUnroll = true>, storeMethod = #rock<StoreMethod set>}> : (memref<1x27x96xf32>, memref<1x864x3136xf32>, memref<1x96x3136xf32>) -> ()

Exception in gpu::mlir_op: /src/AMDMIGraphX/src/targets/gpu/mlir.cpp:731: run_backend_pipeline: MLIR backend compilation failed: Error: 'rock.gemm' op K dimensions don't match k_a = 54 k_b = 1728
Note: see current operation: "rock.gemm"(%7, %10, %11) <{aTransposed, arch = "gfx908:sramecc+:xnack-", derivedBlockSize = 256 : i32, features = #rock<GemmFeatures mfma|dot|atomic_add>, gridSize = 156 : i32, numCU = 120 : i32, params = #rock.xdlops_gemm_params<kpackPerBlock = 8, mPerBlock = 16, nPerBlock = 64, kpack = 8, mPerWave = 16, nPerWave = 16, forceUnroll = true>, storeMethod = #rock<StoreMethod set>}> : (memref<1x54x192xf32>, memref<1x1728x784xf32>, memref<1x192x784xf32>) -> ()

Exception in gpu::mlir_op: /src/AMDMIGraphX/src/targets/gpu/mlir.cpp:731: run_backend_pipeline: MLIR backend compilation failed: Error: 'rock.gemm' op K dimensions don't match k_a = 54 k_b = 1728
Note: see current operation: "rock.gemm"(%7, %10, %11) <{aTransposed, arch = "gfx908:sramecc+:xnack-", derivedBlockSize = 256 : i32, features = #rock<GemmFeatures mfma|dot|atomic_add>, gridSize = 78 : i32, numCU = 120 : i32, params = #rock.xdlops_gemm_params<kpackPerBlock = 8, mPerBlock = 32, nPerBlock = 64, kpack = 4, mPerWave = 8, nPerWave = 64, forceUnroll = true>, storeMethod = #rock<StoreMethod set>}> : (memref<1x54x192xf32>, memref<1x1728x784xf32>, memref<1x192x784xf32>) -> ()

Exception in gpu::mlir_op: /src/AMDMIGraphX/src/targets/gpu/mlir.cpp:731: run_backend_pipeline: MLIR backend compilation failed: Error: 'rock.gemm' op K dimensions don't match k_a = 216 k_b = 6912
Note: see current operation: "rock.gemm"(%7, %10, %11) <{aTransposed, arch = "gfx908:sramecc+:xnack-", derivedBlockSize = 256 : i32, features = #rock<GemmFeatures mfma|dot|atomic_add>, gridSize = 6 : i32, numCU = 120 : i32, params = #rock.xdlops_gemm_params<kpackPerBlock = 8, mPerBlock = 128, nPerBlock = 128, kpack = 4, mPerWave = 64, nPerWave = 64, forceUnroll = true>, storeMethod = #rock<StoreMethod set>}> : (memref<1x216x768xf32>, memref<1x6912x49xf32>, memref<1x768x49xf32>) -> ()

Exception in gpu::mlir_op: /src/AMDMIGraphX/src/targets/gpu/mlir.cpp:731: run_backend_pipeline: MLIR backend compilation failed: Error: 'rock.gemm' op K dimensions don't match k_a = 216 k_b = 6912
Note: see current operation: "rock.gemm"(%7, %10, %11) <{aTransposed, arch = "gfx908:sramecc+:xnack-", derivedBlockSize = 256 : i32, features = #rock<GemmFeatures mfma|dot|atomic_add>, gridSize = 6 : i32, numCU = 120 : i32, params = #rock.xdlops_gemm_params<kpackPerBlock = 4, mPerBlock = 128, nPerBlock = 128, kpack = 8, mPerWave = 64, nPerWave = 64, forceUnroll = true>, storeMethod = #rock<StoreMethod set>}> : (memref<1x216x768xf32>, memref<1x6912x49xf32>, memref<1x768x49xf32>) -> ()

Exception in gpu::mlir_op: /src/AMDMIGraphX/src/targets/gpu/mlir.cpp:731: run_backend_pipeline: MLIR backend compilation failed: Error: 'rock.gemm' op K dimensions don't match k_a = 27 k_b = 864
Note: see current operation: "rock.gemm"(%7, %10, %11) <{aTransposed, arch = "gfx908:sramecc+:xnack-", derivedBlockSize = 256 : i32, features = #rock<GemmFeatures mfma|dot|atomic_add>, gridSize = 98 : i32, numCU = 120 : i32, params = #rock.xdlops_gemm_params<kpackPerBlock = 4, mPerBlock = 64, nPerBlock = 64, kpack = 4, mPerWave = 16, nPerWave = 64, forceUnroll = true>, storeMethod = #rock<StoreMethod set>}> : (memref<1x27x96xf32>, memref<1x864x3136xf32>, memref<1x96x3136xf32>) -> ()

Exception in gpu::mlir_op: /src/AMDMIGraphX/src/targets/gpu/mlir.cpp:731: run_backend_pipeline: MLIR backend compilation failed: Error: 'rock.gemm' op K dimensions don't match k_a = 54 k_b = 1728
Note: see current operation: "rock.gemm"(%7, %10, %11) <{aTransposed, arch = "gfx908:sramecc+:xnack-", derivedBlockSize = 256 : i32, features = #rock<GemmFeatures mfma|dot|atomic_add>, gridSize = 156 : i32, numCU = 120 : i32, params = #rock.xdlops_gemm_params<kpackPerBlock = 8, mPerBlock = 16, nPerBlock = 64, kpack = 4, mPerWave = 16, nPerWave = 16, forceUnroll = true>, storeMethod = #rock<StoreMethod set>}> : (memref<1x54x192xf32>, memref<1x1728x784xf32>, memref<1x192x784xf32>) -> ()

Exception in gpu::mlir_op: /src/AMDMIGraphX/src/targets/gpu/mlir.cpp:731: run_backend_pipeline: MLIR backend compilation failed: Error: 'rock.gemm' op K dimensions don't match k_a = 54 k_b = 1728
Note: see current operation: "rock.gemm"(%7, %10, %11) <{aTransposed, arch = "gfx908:sramecc+:xnack-", derivedBlockSize = 128 : i32, features = #rock<GemmFeatures mfma|dot|atomic_add>, gridSize = 78 : i32, numCU = 120 : i32, params = #rock.xdlops_gemm_params<kpackPerBlock = 2, mPerBlock = 32, nPerBlock = 64, kpack = 8, mPerWave = 32, nPerWave = 32, forceUnroll = true>, storeMethod = #rock<StoreMethod set>}> : (memref<1x54x192xf32>, memref<1x1728x784xf32>, memref<1x192x784xf32>) -> ()

Exception in gpu::mlir_op: /src/AMDMIGraphX/src/targets/gpu/mlir.cpp:731: run_backend_pipeline: MLIR backend compilation failed: Error: 'rock.gemm' op K dimensions don't match k_a = 216 k_b = 6912
Note: see current operation: "rock.gemm"(%7, %10, %11) <{aTransposed, arch = "gfx908:sramecc+:xnack-", derivedBlockSize = 128 : i32, features = #rock<GemmFeatures mfma|dot|atomic_add>, gridSize = 6 : i32, numCU = 120 : i32, params = #rock.xdlops_gemm_params<kpackPerBlock = 4, mPerBlock = 128, nPerBlock = 128, kpack = 4, mPerWave = 64, nPerWave = 128, forceUnroll = true>, storeMethod = #rock<StoreMethod set>}> : (memref<1x216x768xf32>, memref<1x6912x49xf32>, memref<1x768x49xf32>) -> ()

Exception in gpu::mlir_op: /src/AMDMIGraphX/src/targets/gpu/mlir.cpp:731: run_backend_pipeline: MLIR backend compilation failed: Error: 'rock.gemm' op K dimensions don't match k_a = 216 k_b = 6912
Note: see current operation: "rock.gemm"(%7, %10, %11) <{aTransposed, arch = "gfx908:sramecc+:xnack-", derivedBlockSize = 256 : i32, features = #rock<GemmFeatures mfma|dot|atomic_add>, gridSize = 6 : i32, numCU = 120 : i32, params = #rock.xdlops_gemm_params<kpackPerBlock = 4, mPerBlock = 128, nPerBlock = 128, kpack = 4, mPerWave = 64, nPerWave = 64, forceUnroll = true>, storeMethod = #rock<StoreMethod set>}> : (memref<1x216x768xf32>, memref<1x6912x49xf32>, memref<1x768x49xf32>) -> ()

Exception in gpu::mlir_op: /src/AMDMIGraphX/src/targets/gpu/mlir.cpp:731: run_backend_pipeline: MLIR backend compilation failed: Error: 'rock.gemm' op K dimensions don't match k_a = 27 k_b = 864
Note: see current operation: "rock.gemm"(%7, %10, %11) <{aTransposed, arch = "gfx908:sramecc+:xnack-", derivedBlockSize = 256 : i32, features = #rock<GemmFeatures mfma|dot|atomic_add>, gridSize = 98 : i32, numCU = 120 : i32, params = #rock.xdlops_gemm_params<kpackPerBlock = 2, mPerBlock = 64, nPerBlock = 64, kpack = 8, mPerWave = 32, nPerWave = 32, forceUnroll = true>, storeMethod = #rock<StoreMethod set>}> : (memref<1x27x96xf32>, memref<1x864x3136xf32>, memref<1x96x3136xf32>) -> ()

Exception in gpu::mlir_op: /src/AMDMIGraphX/src/targets/gpu/mlir.cpp:731: run_backend_pipeline: MLIR backend compilation failed: Error: 'rock.gemm' op K dimensions don't match k_a = 54 k_b = 1728
Note: see current operation: "rock.gemm"(%7, %10, %11) <{aTransposed, arch = "gfx908:sramecc+:xnack-", derivedBlockSize = 128 : i32, features = #rock<GemmFeatures mfma|dot|atomic_add>, gridSize = 312 : i32, numCU = 120 : i32, params = #rock.xdlops_gemm_params<kpackPerBlock = 8, mPerBlock = 8, nPerBlock = 64, kpack = 8, mPerWave = 4, nPerWave = 64, forceUnroll = true>, storeMethod = #rock<StoreMethod set>}> : (memref<1x54x192xf32>, memref<1x1728x784xf32>, memref<1x192x784xf32>) -> ()

Exception in gpu::mlir_op: /src/AMDMIGraphX/src/targets/gpu/mlir.cpp:731: run_backend_pipeline: MLIR backend compilation failed: Error: 'rock.gemm' op K dimensions don't match k_a = 216 k_b = 6912
Note: see current operation: "rock.gemm"(%7, %10, %11) <{aTransposed, arch = "gfx908:sramecc+:xnack-", derivedBlockSize = 256 : i32, features = #rock<GemmFeatures mfma|dot|atomic_add>, gridSize = 6 : i32, numCU = 120 : i32, params = #rock.xdlops_gemm_params<kpackPerBlock = 4, mPerBlock = 128, nPerBlock = 128, kpack = 8, mPerWave = 64, nPerWave = 64, forceUnroll = true>, storeMethod = #rock<StoreMethod set>}> : (memref<1x216x768xf32>, memref<1x6912x49xf32>, memref<1x768x49xf32>) -> ()

Exception in gpu::mlir_op: /src/AMDMIGraphX/src/targets/gpu/mlir.cpp:731: run_backend_pipeline: MLIR backend compilation failed: Error: 'rock.gemm' op K dimensions don't match k_a = 54 k_b = 1728
Note: see current operation: "rock.gemm"(%7, %10, %11) <{aTransposed, arch = "gfx908:sramecc+:xnack-", derivedBlockSize = 256 : i32, features = #rock<GemmFeatures mfma|dot|atomic_add>, gridSize = 156 : i32, numCU = 120 : i32, params = #rock.xdlops_gemm_params<kpackPerBlock = 8, mPerBlock = 16, nPerBlock = 64, kpack = 8, mPerWave = 16, nPerWave = 16, forceUnroll = true>, storeMethod = #rock<StoreMethod set>}> : (memref<1x54x192xf32>, memref<1x1728x784xf32>, memref<1x192x784xf32>) -> ()

Exception in gpu::mlir_op: /src/AMDMIGraphX/src/targets/gpu/mlir.cpp:731: run_backend_pipeline: MLIR backend compilation failed: Error: 'rock.gemm' op K dimensions don't match k_a = 216 k_b = 6912
Note: see current operation: "rock.gemm"(%7, %10, %11) <{aTransposed, arch = "gfx908:sramecc+:xnack-", derivedBlockSize = 128 : i32, features = #rock<GemmFeatures mfma|dot|atomic_add>, gridSize = 6 : i32, numCU = 120 : i32, params = #rock.xdlops_gemm_params<kpackPerBlock = 2, mPerBlock = 128, nPerBlock = 128, kpack = 8, mPerWave = 64, nPerWave = 128, forceUnroll = true>, storeMethod = #rock<StoreMethod set>}> : (memref<1x216x768xf32>, memref<1x6912x49xf32>, memref<1x768x49xf32>) -> ()

Exception in gpu::mlir_op: /src/AMDMIGraphX/src/targets/gpu/mlir.cpp:731: run_backend_pipeline: MLIR backend compilation failed: Error: 'rock.gemm' op K dimensions don't match k_a = 27 k_b = 864
Note: see current operation: "rock.gemm"(%7, %10, %11) <{aTransposed, arch = "gfx908:sramecc+:xnack-", derivedBlockSize = 128 : i32, features = #rock<GemmFeatures mfma|dot|atomic_add>, gridSize = 25 : i32, numCU = 120 : i32, params = #rock.xdlops_gemm_params<kpackPerBlock = 8, mPerBlock = 128, nPerBlock = 128, kpack = 1, mPerWave = 64, nPerWave = 128, forceUnroll = true>, storeMethod = #rock<StoreMethod set>}> : (memref<1x27x96xf32>, memref<1x864x3136xf32>, memref<1x96x3136xf32>) -> ()

Exception in gpu::mlir_op: /src/AMDMIGraphX/src/targets/gpu/mlir.cpp:731: run_backend_pipeline: MLIR backend compilation failed: Error: 'rock.gemm' op K dimensions don't match k_a = 54 k_b = 1728
Note: see current operation: "rock.gemm"(%7, %10, %11) <{aTransposed, arch = "gfx908:sramecc+:xnack-", derivedBlockSize = 64 : i32, features = #rock<GemmFeatures mfma|dot|atomic_add>, gridSize = 624 : i32, numCU = 120 : i32, params = #rock.xdlops_gemm_params<kpackPerBlock = 16, mPerBlock = 4, nPerBlock = 64, kpack = 1, mPerWave = 4, nPerWave = 64, forceUnroll = true>, storeMethod = #rock<StoreMethod set>}> : (memref<1x54x192xf32>, memref<1x1728x784xf32>, memref<1x192x784xf32>) -> ()

Exception in gpu::mlir_op: /src/AMDMIGraphX/src/targets/gpu/mlir.cpp:731: run_backend_pipeline: MLIR backend compilation failed: Error: 'rock.gemm' op K dimensions don't match k_a = 216 k_b = 6912
Note: see current operation: "rock.gemm"(%7, %10, %11) <{aTransposed, arch = "gfx908:sramecc+:xnack-", derivedBlockSize = 256 : i32, features = #rock<GemmFeatures mfma|dot|atomic_add>, gridSize = 6 : i32, numCU = 120 : i32, params = #rock.xdlops_gemm_params<kpackPerBlock = 4, mPerBlock = 128, nPerBlock = 128, kpack = 4, mPerWave = 64, nPerWave = 64, forceUnroll = true>, storeMethod = #rock<StoreMethod set>}> : (memref<1x216x768xf32>, memref<1x6912x49xf32>, memref<1x768x49xf32>) -> ()

Exception in gpu::mlir_op: /src/AMDMIGraphX/src/targets/gpu/mlir.cpp:731: run_backend_pipeline: MLIR backend compilation failed: Error: 'rock.gemm' op K dimensions don't match k_a = 54 k_b = 1728
Note: see current operation: "rock.gemm"(%7, %10, %11) <{aTransposed, arch = "gfx908:sramecc+:xnack-", derivedBlockSize = 256 : i32, features = #rock<GemmFeatures mfma|dot|atomic_add>, gridSize = 156 : i32, numCU = 120 : i32, params = #rock.xdlops_gemm_params<kpackPerBlock = 8, mPerBlock = 16, nPerBlock = 64, kpack = 4, mPerWave = 16, nPerWave = 16, forceUnroll = true>, storeMethod = #rock<StoreMethod set>}> : (memref<1x54x192xf32>, memref<1x1728x784xf32>, memref<1x192x784xf32>) -> ()

Exception in gpu::mlir_op: /src/AMDMIGraphX/src/targets/gpu/mlir.cpp:731: run_backend_pipeline: MLIR backend compilation failed: Error: 'rock.gemm' op K dimensions don't match k_a = 216 k_b = 6912
Note: see current operation: "rock.gemm"(%7, %10, %11) <{aTransposed, arch = "gfx908:sramecc+:xnack-", derivedBlockSize = 256 : i32, features = #rock<GemmFeatures mfma|dot|atomic_add>, gridSize = 6 : i32, numCU = 120 : i32, params = #rock.xdlops_gemm_params<kpackPerBlock = 2, mPerBlock = 128, nPerBlock = 128, kpack = 8, mPerWave = 64, nPerWave = 64, forceUnroll = true>, storeMethod = #rock<StoreMethod set>}> : (memref<1x216x768xf32>, memref<1x6912x49xf32>, memref<1x768x49xf32>) -> ()

Exception in gpu::mlir_op: /src/AMDMIGraphX/src/targets/gpu/mlir.cpp:731: run_backend_pipeline: MLIR backend compilation failed: Error: 'rock.gemm' op K dimensions don't match k_a = 27 k_b = 864
Note: see current operation: "rock.gemm"(%7, %10, %11) <{aTransposed, arch = "gfx908:sramecc+:xnack-", derivedBlockSize = 256 : i32, features = #rock<GemmFeatures mfma|dot|atomic_add>, gridSize = 25 : i32, numCU = 120 : i32, params = #rock.xdlops_gemm_params<kpackPerBlock = 8, mPerBlock = 128, nPerBlock = 128, kpack = 1, mPerWave = 64, nPerWave = 64, forceUnroll = true>, storeMethod = #rock<StoreMethod set>}> : (memref<1x27x96xf32>, memref<1x864x3136xf32>, memref<1x96x3136xf32>) -> ()

Exception in gpu::mlir_op: /src/AMDMIGraphX/src/targets/gpu/mlir.cpp:731: run_backend_pipeline: MLIR backend compilation failed: Error: 'rock.gemm' op K dimensions don't match k_a = 216 k_b = 6912
Note: see current operation: "rock.gemm"(%7, %10, %11) <{aTransposed, arch = "gfx908:sramecc+:xnack-", derivedBlockSize = 128 : i32, features = #rock<GemmFeatures mfma|dot|atomic_add>, gridSize = 6 : i32, numCU = 120 : i32, params = #rock.xdlops_gemm_params<kpackPerBlock = 2, mPerBlock = 128, nPerBlock = 128, kpack = 8, mPerWave = 64, nPerWave = 128, forceUnroll = true>, storeMethod = #rock<StoreMethod set>}> : (memref<1x216x768xf32>, memref<1x6912x49xf32>, memref<1x768x49xf32>) -> ()

Exception in gpu::mlir_op: /src/AMDMIGraphX/src/targets/gpu/mlir.cpp:731: run_backend_pipeline: MLIR backend compilation failed: Error: 'rock.gemm' op K dimensions don't match k_a = 54 k_b = 1728
Note: see current operation: "rock.gemm"(%7, %10, %11) <{aTransposed, arch = "gfx908:sramecc+:xnack-", derivedBlockSize = 64 : i32, features = #rock<GemmFeatures mfma|dot|atomic_add>, gridSize = 624 : i32, numCU = 120 : i32, params = #rock.xdlops_gemm_params<kpackPerBlock = 2, mPerBlock = 4, nPerBlock = 64, kpack = 8, mPerWave = 4, nPerWave = 64, forceUnroll = true>, storeMethod = #rock<StoreMethod set>}> : (memref<1x54x192xf32>, memref<1x1728x784xf32>, memref<1x192x784xf32>) -> ()

Exception in gpu::mlir_op: /src/AMDMIGraphX/src/targets/gpu/mlir.cpp:731: run_backend_pipeline: MLIR backend compilation failed: Error: 'rock.gemm' op K dimensions don't match k_a = 54 k_b = 1728
Note: see current operation: "rock.gemm"(%7, %10, %11) <{aTransposed, arch = "gfx908:sramecc+:xnack-", derivedBlockSize = 128 : i32, features = #rock<GemmFeatures mfma|dot|atomic_add>, gridSize = 312 : i32, numCU = 120 : i32, params = #rock.xdlops_gemm_params<kpackPerBlock = 8, mPerBlock = 8, nPerBlock = 64, kpack = 8, mPerWave = 4, nPerWave = 64, forceUnroll = true>, storeMethod = #rock<StoreMethod set>}> : (memref<1x54x192xf32>, memref<1x1728x784xf32>, memref<1x192x784xf32>) -> ()

Exception in gpu::mlir_op: /src/AMDMIGraphX/src/targets/gpu/mlir.cpp:731: run_backend_pipeline: MLIR backend compilation failed: Error: 'rock.gemm' op K dimensions don't match k_a = 216 k_b = 6912
Note: see current operation: "rock.gemm"(%7, %10, %11) <{aTransposed, arch = "gfx908:sramecc+:xnack-", derivedBlockSize = 256 : i32, features = #rock<GemmFeatures mfma|dot|atomic_add>, gridSize = 12 : i32, numCU = 120 : i32, params = #rock.xdlops_gemm_params<kpackPerBlock = 4, mPerBlock = 64, nPerBlock = 128, kpack = 4, mPerWave = 32, nPerWave = 64, forceUnroll = true>, storeMethod = #rock<StoreMethod set>}> : (memref<1x216x768xf32>, memref<1x6912x49xf32>, memref<1x768x49xf32>) -> ()

Exception in gpu::mlir_op: /src/AMDMIGraphX/src/targets/gpu/mlir.cpp:731: run_backend_pipeline: MLIR backend compilation failed: Error: 'rock.gemm' op K dimensions don't match k_a = 27 k_b = 864
Note: see current operation: "rock.gemm"(%7, %10, %11) <{aTransposed, arch = "gfx908:sramecc+:xnack-", derivedBlockSize = 256 : i32, features = #rock<GemmFeatures mfma|dot|atomic_add>, gridSize = 25 : i32, numCU = 120 : i32, params = #rock.xdlops_gemm_params<kpackPerBlock = 8, mPerBlock = 128, nPerBlock = 128, kpack = 4, mPerWave = 64, nPerWave = 64, forceUnroll = true>, storeMethod = #rock<StoreMethod set>}> : (memref<1x27x96xf32>, memref<1x864x3136xf32>, memref<1x96x3136xf32>) -> ()

Exception in gpu::mlir_op: /src/AMDMIGraphX/src/targets/gpu/mlir.cpp:731: run_backend_pipeline: MLIR backend compilation failed: Error: 'rock.gemm' op K dimensions don't match k_a = 216 k_b = 6912
Note: see current operation: "rock.gemm"(%7, %10, %11) <{aTransposed, arch = "gfx908:sramecc+:xnack-", derivedBlockSize = 256 : i32, features = #rock<GemmFeatures mfma|dot|atomic_add>, gridSize = 6 : i32, numCU = 120 : i32, params = #rock.xdlops_gemm_params<kpackPerBlock = 2, mPerBlock = 128, nPerBlock = 128, kpack = 8, mPerWave = 64, nPerWave = 64, forceUnroll = true>, storeMethod = #rock<StoreMethod set>}> : (memref<1x216x768xf32>, memref<1x6912x49xf32>, memref<1x768x49xf32>) -> ()

Exception in gpu::mlir_op: /src/AMDMIGraphX/src/targets/gpu/mlir.cpp:731: run_backend_pipeline: MLIR backend compilation failed: Error: 'rock.gemm' op K dimensions don't match k_a = 54 k_b = 1728
Note: see current operation: "rock.gemm"(%7, %10, %11) <{aTransposed, arch = "gfx908:sramecc+:xnack-", derivedBlockSize = 256 : i32, features = #rock<GemmFeatures mfma|dot|atomic_add>, gridSize = 12 : i32, numCU = 120 : i32, params = #rock.xdlops_gemm_params<kpackPerBlock = 8, mPerBlock = 64, nPerBlock = 256, kpack = 1, mPerWave = 64, nPerWave = 64, forceUnroll = true>, storeMethod = #rock<StoreMethod set>}> : (memref<1x54x192xf32>, memref<1x1728x784xf32>, memref<1x192x784xf32>) -> ()

Exception in gpu::mlir_op: /src/AMDMIGraphX/src/targets/gpu/mlir.cpp:731: run_backend_pipeline: MLIR backend compilation failed: Error: 'rock.gemm' op K dimensions don't match k_a = 54 k_b = 1728
Note: see current operation: "rock.gemm"(%7, %10, %11) <{aTransposed, arch = "gfx908:sramecc+:xnack-", derivedBlockSize = 64 : i32, features = #rock<GemmFeatures mfma|dot|atomic_add>, gridSize = 624 : i32, numCU = 120 : i32, params = #rock.xdlops_gemm_params<kpackPerBlock = 16, mPerBlock = 4, nPerBlock = 64, kpack = 1, mPerWave = 4, nPerWave = 64, forceUnroll = true>, storeMethod = #rock<StoreMethod set>}> : (memref<1x54x192xf32>, memref<1x1728x784xf32>, memref<1x192x784xf32>) -> ()

Exception in gpu::mlir_op: /src/AMDMIGraphX/src/targets/gpu/mlir.cpp:731: run_backend_pipeline: MLIR backend compilation failed: Error: 'rock.gemm' op K dimensions don't match k_a = 216 k_b = 6912
Note: see current operation: "rock.gemm"(%7, %10, %11) <{aTransposed, arch = "gfx908:sramecc+:xnack-", derivedBlockSize = 256 : i32, features = #rock<GemmFeatures mfma|dot|atomic_add>, gridSize = 12 : i32, numCU = 120 : i32, params = #rock.xdlops_gemm_params<kpackPerBlock = 2, mPerBlock = 64, nPerBlock = 128, kpack = 8, mPerWave = 32, nPerWave = 64, forceUnroll = true>, storeMethod = #rock<StoreMethod set>}> : (memref<1x216x768xf32>, memref<1x6912x49xf32>, memref<1x768x49xf32>) -> ()

Exception in gpu::mlir_op: /src/AMDMIGraphX/src/targets/gpu/mlir.cpp:731: run_backend_pipeline: MLIR backend compilation failed: Error: 'rock.gemm' op K dimensions don't match k_a = 27 k_b = 864
Note: see current operation: "rock.gemm"(%7, %10, %11) <{aTransposed, arch = "gfx908:sramecc+:xnack-", derivedBlockSize = 128 : i32, features = #rock<GemmFeatures mfma|dot|atomic_add>, gridSize = 25 : i32, numCU = 120 : i32, params = #rock.xdlops_gemm_params<kpackPerBlock = 4, mPerBlock = 128, nPerBlock = 128, kpack = 4, mPerWave = 64, nPerWave = 128, forceUnroll = true>, storeMethod = #rock<StoreMethod set>}> : (memref<1x27x96xf32>, memref<1x864x3136xf32>, memref<1x96x3136xf32>) -> ()

Exception in gpu::mlir_op: /src/AMDMIGraphX/src/targets/gpu/mlir.cpp:731: run_backend_pipeline: MLIR backend compilation failed: Error: 'rock.gemm' op K dimensions don't match k_a = 216 k_b = 6912
Note: see current operation: "rock.gemm"(%7, %10, %11) <{aTransposed, arch = "gfx908:sramecc+:xnack-", derivedBlockSize = 256 : i32, features = #rock<GemmFeatures mfma|dot|atomic_add>, gridSize = 12 : i32, numCU = 120 : i32, params = #rock.xdlops_gemm_params<kpackPerBlock = 4, mPerBlock = 64, nPerBlock = 128, kpack = 4, mPerWave = 32, nPerWave = 64, forceUnroll = true>, storeMethod = #rock<StoreMethod set>}> : (memref<1x216x768xf32>, memref<1x6912x49xf32>, memref<1x768x49xf32>) -> ()

Exception in gpu::mlir_op: /src/AMDMIGraphX/src/targets/gpu/mlir.cpp:731: run_backend_pipeline: MLIR backend compilation failed: Error: 'rock.gemm' op K dimensions don't match k_a = 54 k_b = 1728
Note: see current operation: "rock.gemm"(%7, %10, %11) <{aTransposed, arch = "gfx908:sramecc+:xnack-", derivedBlockSize = 256 : i32, features = #rock<GemmFeatures mfma|dot|atomic_add>, gridSize = 21 : i32, numCU = 120 : i32, params = #rock.xdlops_gemm_params<kpackPerBlock = 4, mPerBlock = 64, nPerBlock = 128, kpack = 4, mPerWave = 32, nPerWave = 64, forceUnroll = true>, storeMethod = #rock<StoreMethod set>}> : (memref<1x54x192xf32>, memref<1x1728x784xf32>, memref<1x192x784xf32>) -> ()

Exception in gpu::mlir_op: /src/AMDMIGraphX/src/targets/gpu/mlir.cpp:731: run_backend_pipeline: MLIR backend compilation failed: Error: 'rock.gemm' op K dimensions don't match k_a = 54 k_b = 1728
Note: see current operation: "rock.gemm"(%7, %10, %11) <{aTransposed, arch = "gfx908:sramecc+:xnack-", derivedBlockSize = 64 : i32, features = #rock<GemmFeatures mfma|dot|atomic_add>, gridSize = 624 : i32, numCU = 120 : i32, params = #rock.xdlops_gemm_params<kpackPerBlock = 2, mPerBlock = 4, nPerBlock = 64, kpack = 8, mPerWave = 4, nPerWave = 64, forceUnroll = true>, storeMethod = #rock<StoreMethod set>}> : (memref<1x54x192xf32>, memref<1x1728x784xf32>, memref<1x192x784xf32>) -> ()

Exception in gpu::mlir_op: /src/AMDMIGraphX/src/targets/gpu/mlir.cpp:731: run_backend_pipeline: MLIR backend compilation failed: Error: 'rock.gemm' op K dimensions don't match k_a = 216 k_b = 6912
Note: see current operation: "rock.gemm"(%7, %10, %11) <{aTransposed, arch = "gfx908:sramecc+:xnack-", derivedBlockSize = 256 : i32, features = #rock<GemmFeatures mfma|dot|atomic_add>, gridSize = 24 : i32, numCU = 120 : i32, params = #rock.xdlops_gemm_params<kpackPerBlock = 4, mPerBlock = 32, nPerBlock = 128, kpack = 4, mPerWave = 32, nPerWave = 32, forceUnroll = true>, storeMethod = #rock<StoreMethod set>}> : (memref<1x216x768xf32>, memref<1x6912x49xf32>, memref<1x768x49xf32>) -> ()

Exception in gpu::mlir_op: /src/AMDMIGraphX/src/targets/gpu/mlir.cpp:731: run_backend_pipeline: MLIR backend compilation failed: Error: 'rock.gemm' op K dimensions don't match k_a = 27 k_b = 864
Note: see current operation: "rock.gemm"(%7, %10, %11) <{aTransposed, arch = "gfx908:sramecc+:xnack-", derivedBlockSize = 256 : i32, features = #rock<GemmFeatures mfma|dot|atomic_add>, gridSize = 25 : i32, numCU = 120 : i32, params = #rock.xdlops_gemm_params<kpackPerBlock = 4, mPerBlock = 128, nPerBlock = 128, kpack = 8, mPerWave = 64, nPerWave = 64, forceUnroll = true>, storeMethod = #rock<StoreMethod set>}> : (memref<1x27x96xf32>, memref<1x864x3136xf32>, memref<1x96x3136xf32>) -> ()

Exception in gpu::mlir_op: /src/AMDMIGraphX/src/targets/gpu/mlir.cpp:731: run_backend_pipeline: MLIR backend compilation failed: Error: 'rock.gemm' op K dimensions don't match k_a = 216 k_b = 6912
Note: see current operation: "rock.gemm"(%7, %10, %11) <{aTransposed, arch = "gfx908:sramecc+:xnack-", derivedBlockSize = 256 : i32, features = #rock<GemmFeatures mfma|dot|atomic_add>, gridSize = 12 : i32, numCU = 120 : i32, params = #rock.xdlops_gemm_params<kpackPerBlock = 2, mPerBlock = 64, nPerBlock = 128, kpack = 8, mPerWave = 32, nPerWave = 64, forceUnroll = true>, storeMethod = #rock<StoreMethod set>}> : (memref<1x216x768xf32>, memref<1x6912x49xf32>, memref<1x768x49xf32>) -> ()

Exception in gpu::mlir_op: /src/AMDMIGraphX/src/targets/gpu/mlir.cpp:731: run_backend_pipeline: MLIR backend compilation failed: Error: 'rock.gemm' op K dimensions don't match k_a = 54 k_b = 1728
Note: see current operation: "rock.gemm"(%7, %10, %11) <{aTransposed, arch = "gfx908:sramecc+:xnack-", derivedBlockSize = 256 : i32, features = #rock<GemmFeatures mfma|dot|atomic_add>, gridSize = 21 : i32, numCU = 120 : i32, params = #rock.xdlops_gemm_params<kpackPerBlock = 2, mPerBlock = 64, nPerBlock = 128, kpack = 8, mPerWave = 32, nPerWave = 64, forceUnroll = true>, storeMethod = #rock<StoreMethod set>}> : (memref<1x54x192xf32>, memref<1x1728x784xf32>, memref<1x192x784xf32>) -> ()

Exception in gpu::mlir_op: /src/AMDMIGraphX/src/targets/gpu/mlir.cpp:731: run_backend_pipeline: MLIR backend compilation failed: Error: 'rock.gemm' op K dimensions don't match k_a = 54 k_b = 1728
Note: see current operation: "rock.gemm"(%7, %10, %11) <{aTransposed, arch = "gfx908:sramecc+:xnack-", derivedBlockSize = 256 : i32, features = #rock<GemmFeatures mfma|dot|atomic_add>, gridSize = 12 : i32, numCU = 120 : i32, params = #rock.xdlops_gemm_params<kpackPerBlock = 8, mPerBlock = 64, nPerBlock = 256, kpack = 1, mPerWave = 64, nPerWave = 64, forceUnroll = true>, storeMethod = #rock<StoreMethod set>}> : (memref<1x54x192xf32>, memref<1x1728x784xf32>, memref<1x192x784xf32>) -> ()

Exception in gpu::mlir_op: /src/AMDMIGraphX/src/targets/gpu/mlir.cpp:731: run_backend_pipeline: MLIR backend compilation failed: Error: 'rock.gemm' op K dimensions don't match k_a = 216 k_b = 6912
Note: see current operation: "rock.gemm"(%7, %10, %11) <{aTransposed, arch = "gfx908:sramecc+:xnack-", derivedBlockSize = 256 : i32, features = #rock<GemmFeatures mfma|dot|atomic_add>, gridSize = 12 : i32, numCU = 120 : i32, params = #rock.xdlops_gemm_params<kpackPerBlock = 8, mPerBlock = 64, nPerBlock = 256, kpack = 1, mPerWave = 64, nPerWave = 64, forceUnroll = true>, storeMethod = #rock<StoreMethod set>}> : (memref<1x216x768xf32>, memref<1x6912x49xf32>, memref<1x768x49xf32>) -> ()

Exception in gpu::mlir_op: /src/AMDMIGraphX/src/targets/gpu/mlir.cpp:731: run_backend_pipeline: MLIR backend compilation failed: Error: 'rock.gemm' op K dimensions don't match k_a = 216 k_b = 6912
Note: see current operation: "rock.gemm"(%7, %10, %11) <{aTransposed, arch = "gfx908:sramecc+:xnack-", derivedBlockSize = 256 : i32, features = #rock<GemmFeatures mfma|dot|atomic_add>, gridSize = 24 : i32, numCU = 120 : i32, params = #rock.xdlops_gemm_params<kpackPerBlock = 4, mPerBlock = 32, nPerBlock = 128, kpack = 4, mPerWave = 32, nPerWave = 32, forceUnroll = true>, storeMethod = #rock<StoreMethod set>}> : (memref<1x216x768xf32>, memref<1x6912x49xf32>, memref<1x768x49xf32>) -> ()

Exception in gpu::mlir_op: /src/AMDMIGraphX/src/targets/gpu/mlir.cpp:731: run_backend_pipeline: MLIR backend compilation failed: Error: 'rock.gemm' op K dimensions don't match k_a = 27 k_b = 864
Note: see current operation: "rock.gemm"(%7, %10, %11) <{aTransposed, arch = "gfx908:sramecc+:xnack-", derivedBlockSize = 256 : i32, features = #rock<GemmFeatures mfma|dot|atomic_add>, gridSize = 25 : i32, numCU = 120 : i32, params = #rock.xdlops_gemm_params<kpackPerBlock = 4, mPerBlock = 128, nPerBlock = 128, kpack = 4, mPerWave = 64, nPerWave = 64, forceUnroll = true>, storeMethod = #rock<StoreMethod set>}> : (memref<1x27x96xf32>, memref<1x864x3136xf32>, memref<1x96x3136xf32>) -> ()

Exception in gpu::mlir_op: /src/AMDMIGraphX/src/targets/gpu/mlir.cpp:731: run_backend_pipeline: MLIR backend compilation failed: Error: 'rock.gemm' op K dimensions don't match k_a = 54 k_b = 1728
Note: see current operation: "rock.gemm"(%7, %10, %11) <{aTransposed, arch = "gfx908:sramecc+:xnack-", derivedBlockSize = 256 : i32, features = #rock<GemmFeatures mfma|dot|atomic_add>, gridSize = 42 : i32, numCU = 120 : i32, params = #rock.xdlops_gemm_params<kpackPerBlock = 4, mPerBlock = 32, nPerBlock = 128, kpack = 4, mPerWave = 32, nPerWave = 32, forceUnroll = true>, storeMethod = #rock<StoreMethod set>}> : (memref<1x54x192xf32>, memref<1x1728x784xf32>, memref<1x192x784xf32>) -> ()

Exception in gpu::mlir_op: /src/AMDMIGraphX/src/targets/gpu/mlir.cpp:731: run_backend_pipeline: MLIR backend compilation failed: Error: 'rock.gemm' op K dimensions don't match k_a = 216 k_b = 6912
Note: see current operation: "rock.gemm"(%7, %10, %11) <{aTransposed, arch = "gfx908:sramecc+:xnack-", derivedBlockSize = 256 : i32, features = #rock<GemmFeatures mfma|dot|atomic_add>, gridSize = 12 : i32, numCU = 120 : i32, params = #rock.xdlops_gemm_params<kpackPerBlock = 8, mPerBlock = 64, nPerBlock = 256, kpack = 1, mPerWave = 64, nPerWave = 64, forceUnroll = true>, storeMethod = #rock<StoreMethod set>}> : (memref<1x216x768xf32>, memref<1x6912x49xf32>, memref<1x768x49xf32>) -> ()

Exception in gpu::mlir_op: /src/AMDMIGraphX/src/targets/gpu/mlir.cpp:731: run_backend_pipeline: MLIR backend compilation failed: Error: 'rock.gemm' op K dimensions don't match k_a = 27 k_b = 864
Note: see current operation: "rock.gemm"(%7, %10, %11) <{aTransposed, arch = "gfx908:sramecc+:xnack-", derivedBlockSize = 128 : i32, features = #rock<GemmFeatures mfma|dot|atomic_add>, gridSize = 25 : i32, numCU = 120 : i32, params = #rock.xdlops_gemm_params<kpackPerBlock = 2, mPerBlock = 128, nPerBlock = 128, kpack = 8, mPerWave = 64, nPerWave = 128, forceUnroll = true>, storeMethod = #rock<StoreMethod set>}> : (memref<1x27x96xf32>, memref<1x864x3136xf32>, memref<1x96x3136xf32>) -> ()

Exception in gpu::mlir_op: /src/AMDMIGraphX/src/targets/gpu/mlir.cpp:731: run_backend_pipeline: MLIR backend compilation failed: Error: 'rock.gemm' op K dimensions don't match k_a = 54 k_b = 1728
Note: see current operation: "rock.gemm"(%7, %10, %11) <{aTransposed, arch = "gfx908:sramecc+:xnack-", derivedBlockSize = 256 : i32, features = #rock<GemmFeatures mfma|dot|atomic_add>, gridSize = 21 : i32, numCU = 120 : i32, params = #rock.xdlops_gemm_params<kpackPerBlock = 4, mPerBlock = 64, nPerBlock = 128, kpack = 4, mPerWave = 32, nPerWave = 64, forceUnroll = true>, storeMethod = #rock<StoreMethod set>}> : (memref<1x54x192xf32>, memref<1x1728x784xf32>, memref<1x192x784xf32>) -> ()

Exception in gpu::mlir_op: /src/AMDMIGraphX/src/targets/gpu/mlir.cpp:731: run_backend_pipeline: MLIR backend compilation failed: Error: 'rock.gemm' op K dimensions don't match k_a = 216 k_b = 6912
Note: see current operation: "rock.gemm"(%7, %10, %11) <{aTransposed, arch = "gfx908:sramecc+:xnack-", derivedBlockSize = 256 : i32, features = #rock<GemmFeatures mfma|dot|atomic_add>, gridSize = 6 : i32, numCU = 120 : i32, params = #rock.xdlops_gemm_params<kpackPerBlock = 4, mPerBlock = 128, nPerBlock = 256, kpack = 4, mPerWave = 64, nPerWave = 128, forceUnroll = true>, storeMethod = #rock<StoreMethod set>}> : (memref<1x216x768xf32>, memref<1x6912x49xf32>, memref<1x768x49xf32>) -> ()

Exception in gpu::mlir_op: /src/AMDMIGraphX/src/targets/gpu/mlir.cpp:731: run_backend_pipeline: MLIR backend compilation failed: Error: 'rock.gemm' op K dimensions don't match k_a = 54 k_b = 1728
Note: see current operation: "rock.gemm"(%7, %10, %11) <{aTransposed, arch = "gfx908:sramecc+:xnack-", derivedBlockSize = 256 : i32, features = #rock<GemmFeatures mfma|dot|atomic_add>, gridSize = 12 : i32, numCU = 120 : i32, params = #rock.xdlops_gemm_params<kpackPerBlock = 4, mPerBlock = 64, nPerBlock = 256, kpack = 4, mPerWave = 64, nPerWave = 64, forceUnroll = true>, storeMethod = #rock<StoreMethod set>}> : (memref<1x54x192xf32>, memref<1x1728x784xf32>, memref<1x192x784xf32>) -> ()

Exception in gpu::mlir_op: /src/AMDMIGraphX/src/targets/gpu/mlir.cpp:731: run_backend_pipeline: MLIR backend compilation failed: Error: 'rock.gemm' op K dimensions don't match k_a = 216 k_b = 6912
Note: see current operation: "rock.gemm"(%7, %10, %11) <{aTransposed, arch = "gfx908:sramecc+:xnack-", derivedBlockSize = 256 : i32, features = #rock<GemmFeatures mfma|dot|atomic_add>, gridSize = 12 : i32, numCU = 120 : i32, params = #rock.xdlops_gemm_params<kpackPerBlock = 4, mPerBlock = 64, nPerBlock = 256, kpack = 4, mPerWave = 64, nPerWave = 64, forceUnroll = true>, storeMethod = #rock<StoreMethod set>}> : (memref<1x216x768xf32>, memref<1x6912x49xf32>, memref<1x768x49xf32>) -> ()

Exception in gpu::mlir_op: /src/AMDMIGraphX/src/targets/gpu/mlir.cpp:731: run_backend_pipeline: MLIR backend compilation failed: Error: 'rock.gemm' op K dimensions don't match k_a = 216 k_b = 6912
Note: see current operation: "rock.gemm"(%7, %10, %11) <{aTransposed, arch = "gfx908:sramecc+:xnack-", derivedBlockSize = 256 : i32, features = #rock<GemmFeatures mfma|dot|atomic_add>, gridSize = 6 : i32, numCU = 120 : i32, params = #rock.xdlops_gemm_params<kpackPerBlock = 4, mPerBlock = 128, nPerBlock = 256, kpack = 4, mPerWave = 64, nPerWave = 128, forceUnroll = true>, storeMethod = #rock<StoreMethod set>}> : (memref<1x216x768xf32>, memref<1x6912x49xf32>, memref<1x768x49xf32>) -> ()

Exception in gpu::mlir_op: /src/AMDMIGraphX/src/targets/gpu/mlir.cpp:731: run_backend_pipeline: MLIR backend compilation failed: Error: 'rock.gemm' op K dimensions don't match k_a = 27 k_b = 864
Note: see current operation: "rock.gemm"(%7, %10, %11) <{aTransposed, arch = "gfx908:sramecc+:xnack-", derivedBlockSize = 256 : i32, features = #rock<GemmFeatures mfma|dot|atomic_add>, gridSize = 25 : i32, numCU = 120 : i32, params = #rock.xdlops_gemm_params<kpackPerBlock = 2, mPerBlock = 128, nPerBlock = 128, kpack = 8, mPerWave = 64, nPerWave = 64, forceUnroll = true>, storeMethod = #rock<StoreMethod set>}> : (memref<1x27x96xf32>, memref<1x864x3136xf32>, memref<1x96x3136xf32>) -> ()

Exception in gpu::mlir_op: /src/AMDMIGraphX/src/targets/gpu/mlir.cpp:731: run_backend_pipeline: MLIR backend compilation failed: Error: 'rock.gemm' op K dimensions don't match k_a = 54 k_b = 1728
Note: see current operation: "rock.gemm"(%7, %10, %11) <{aTransposed, arch = "gfx908:sramecc+:xnack-", derivedBlockSize = 256 : i32, features = #rock<GemmFeatures mfma|dot|atomic_add>, gridSize = 21 : i32, numCU = 120 : i32, params = #rock.xdlops_gemm_params<kpackPerBlock = 2, mPerBlock = 64, nPerBlock = 128, kpack = 8, mPerWave = 32, nPerWave = 64, forceUnroll = true>, storeMethod = #rock<StoreMethod set>}> : (memref<1x54x192xf32>, memref<1x1728x784xf32>, memref<1x192x784xf32>) -> ()

Exception in gpu::mlir_op: /src/AMDMIGraphX/src/targets/gpu/mlir.cpp:731: run_backend_pipeline: MLIR backend compilation failed: Error: 'rock.gemm' op K dimensions don't match k_a = 54 k_b = 1728
Note: see current operation: "rock.gemm"(%7, %10, %11) <{aTransposed, arch = "gfx908:sramecc+:xnack-", derivedBlockSize = 128 : i32, features = #rock<GemmFeatures mfma|dot|atomic_add>, gridSize = 14 : i32, numCU = 120 : i32, params = #rock.xdlops_gemm_params<kpackPerBlock = 8, mPerBlock = 128, nPerBlock = 128, kpack = 1, mPerWave = 64, nPerWave = 128, forceUnroll = true>, storeMethod = #rock<StoreMethod set>}> : (memref<1x54x192xf32>, memref<1x1728x784xf32>, memref<1x192x784xf32>) -> ()

Exception in gpu::mlir_op: /src/AMDMIGraphX/src/targets/gpu/mlir.cpp:731: run_backend_pipeline: MLIR backend compilation failed: Error: 'rock.gemm' op K dimensions don't match k_a = 216 k_b = 6912
Note: see current operation: "rock.gemm"(%7, %10, %11) <{aTransposed, arch = "gfx908:sramecc+:xnack-", derivedBlockSize = 256 : i32, features = #rock<GemmFeatures mfma|dot|atomic_add>, gridSize = 12 : i32, numCU = 120 : i32, params = #rock.xdlops_gemm_params<kpackPerBlock = 4, mPerBlock = 64, nPerBlock = 256, kpack = 4, mPerWave = 64, nPerWave = 64, forceUnroll = true>, storeMethod = #rock<StoreMethod set>}> : (memref<1x216x768xf32>, memref<1x6912x49xf32>, memref<1x768x49xf32>) -> ()

Exception in gpu::mlir_op: /src/AMDMIGraphX/src/targets/gpu/mlir.cpp:731: run_backend_pipeline: MLIR backend compilation failed: Error: 'rock.gemm' op K dimensions don't match k_a = 27 k_b = 864
Note: see current operation: "rock.gemm"(%7, %10, %11) <{aTransposed, arch = "gfx908:sramecc+:xnack-", derivedBlockSize = 256 : i32, features = #rock<GemmFeatures mfma|dot|atomic_add>, gridSize = 25 : i32, numCU = 120 : i32, params = #rock.xdlops_gemm_params<kpackPerBlock = 2, mPerBlock = 128, nPerBlock = 128, kpack = 4, mPerWave = 64, nPerWave = 64, forceUnroll = true>, storeMethod = #rock<StoreMethod set>}> : (memref<1x27x96xf32>, memref<1x864x3136xf32>, memref<1x96x3136xf32>) -> ()

Exception in gpu::mlir_op: /src/AMDMIGraphX/src/targets/gpu/mlir.cpp:731: run_backend_pipeline: MLIR backend compilation failed: Error: 'rock.gemm' op K dimensions don't match k_a = 54 k_b = 1728
Note: see current operation: "rock.gemm"(%7, %10, %11) <{aTransposed, arch = "gfx908:sramecc+:xnack-", derivedBlockSize = 256 : i32, features = #rock<GemmFeatures mfma|dot|atomic_add>, gridSize = 42 : i32, numCU = 120 : i32, params = #rock.xdlops_gemm_params<kpackPerBlock = 4, mPerBlock = 32, nPerBlock = 128, kpack = 4, mPerWave = 32, nPerWave = 32, forceUnroll = true>, storeMethod = #rock<StoreMethod set>}> : (memref<1x54x192xf32>, memref<1x1728x784xf32>, memref<1x192x784xf32>) -> ()

Exception in gpu::mlir_op: /src/AMDMIGraphX/src/targets/gpu/mlir.cpp:731: run_backend_pipeline: MLIR backend compilation failed: Error: 'rock.gemm' op K dimensions don't match k_a = 54 k_b = 1728
Note: see current operation: "rock.gemm"(%7, %10, %11) <{aTransposed, arch = "gfx908:sramecc+:xnack-", derivedBlockSize = 256 : i32, features = #rock<GemmFeatures mfma|dot|atomic_add>, gridSize = 14 : i32, numCU = 120 : i32, params = #rock.xdlops_gemm_params<kpackPerBlock = 8, mPerBlock = 128, nPerBlock = 128, kpack = 1, mPerWave = 64, nPerWave = 64, forceUnroll = true>, storeMethod = #rock<StoreMethod set>}> : (memref<1x54x192xf32>, memref<1x1728x784xf32>, memref<1x192x784xf32>) -> ()

Exception in gpu::mlir_op: /src/AMDMIGraphX/src/targets/gpu/mlir.cpp:731: run_backend_pipeline: MLIR backend compilation failed: Error: 'rock.gemm' op K dimensions don't match k_a = 27 k_b = 864
Note: see current operation: "rock.gemm"(%7, %10, %11) <{aTransposed, arch = "gfx908:sramecc+:xnack-", derivedBlockSize = 256 : i32, features = #rock<GemmFeatures mfma|dot|atomic_add>, gridSize = 50 : i32, numCU = 120 : i32, params = #rock.xdlops_gemm_params<kpackPerBlock = 4, mPerBlock = 64, nPerBlock = 128, kpack = 4, mPerWave = 32, nPerWave = 64, forceUnroll = true>, storeMethod = #rock<StoreMethod set>}> : (memref<1x27x96xf32>, memref<1x864x3136xf32>, memref<1x96x3136xf32>) -> ()

Exception in gpu::mlir_op: /src/AMDMIGraphX/src/targets/gpu/mlir.cpp:731: run_backend_pipeline: MLIR backend compilation failed: Error: 'rock.gemm' op K dimensions don't match k_a = 54 k_b = 1728
Note: see current operation: "rock.gemm"(%7, %10, %11) <{aTransposed, arch = "gfx908:sramecc+:xnack-", derivedBlockSize = 256 : i32, features = #rock<GemmFeatures mfma|dot|atomic_add>, gridSize = 12 : i32, numCU = 120 : i32, params = #rock.xdlops_gemm_params<kpackPerBlock = 4, mPerBlock = 64, nPerBlock = 256, kpack = 4, mPerWave = 64, nPerWave = 64, forceUnroll = true>, storeMethod = #rock<StoreMethod set>}> : (memref<1x54x192xf32>, memref<1x1728x784xf32>, memref<1x192x784xf32>) -> ()

Exception in gpu::mlir_op: /src/AMDMIGraphX/src/targets/gpu/mlir.cpp:731: run_backend_pipeline: MLIR backend compilation failed: Error: 'rock.gemm' op K dimensions don't match k_a = 54 k_b = 1728
Note: see current operation: "rock.gemm"(%7, %10, %11) <{aTransposed, arch = "gfx908:sramecc+:xnack-", derivedBlockSize = 256 : i32, features = #rock<GemmFeatures mfma|dot|atomic_add>, gridSize = 14 : i32, numCU = 120 : i32, params = #rock.xdlops_gemm_params<kpackPerBlock = 2, mPerBlock = 128, nPerBlock = 128, kpack = 4, mPerWave = 64, nPerWave = 64, forceUnroll = true>, storeMethod = #rock<StoreMethod set>}> : (memref<1x54x192xf32>, memref<1x1728x784xf32>, memref<1x192x784xf32>) -> ()

Exception in gpu::mlir_op: /src/AMDMIGraphX/src/targets/gpu/mlir.cpp:731: run_backend_pipeline: MLIR backend compilation failed: Error: 'rock.gemm' op K dimensions don't match k_a = 27 k_b = 864
Note: see current operation: "rock.gemm"(%7, %10, %11) <{aTransposed, arch = "gfx908:sramecc+:xnack-", derivedBlockSize = 256 : i32, features = #rock<GemmFeatures mfma|dot|atomic_add>, gridSize = 50 : i32, numCU = 120 : i32, params = #rock.xdlops_gemm_params<kpackPerBlock = 2, mPerBlock = 64, nPerBlock = 128, kpack = 8, mPerWave = 32, nPerWave = 64, forceUnroll = true>, storeMethod = #rock<StoreMethod set>}> : (memref<1x27x96xf32>, memref<1x864x3136xf32>, memref<1x96x3136xf32>) -> ()

Exception in gpu::mlir_op: /src/AMDMIGraphX/src/targets/gpu/mlir.cpp:731: run_backend_pipeline: MLIR backend compilation failed: Error: 'rock.gemm' op K dimensions don't match k_a = 54 k_b = 1728
Note: see current operation: "rock.gemm"(%7, %10, %11) <{aTransposed, arch = "gfx908:sramecc+:xnack-", derivedBlockSize = 128 : i32, features = #rock<GemmFeatures mfma|dot|atomic_add>, gridSize = 14 : i32, numCU = 120 : i32, params = #rock.xdlops_gemm_params<kpackPerBlock = 8, mPerBlock = 128, nPerBlock = 128, kpack = 1, mPerWave = 64, nPerWave = 128, forceUnroll = true>, storeMethod = #rock<StoreMethod set>}> : (memref<1x54x192xf32>, memref<1x1728x784xf32>, memref<1x192x784xf32>) -> ()

Exception in gpu::mlir_op: /src/AMDMIGraphX/src/targets/gpu/mlir.cpp:731: run_backend_pipeline: MLIR backend compilation failed: Error: 'rock.gemm' op K dimensions don't match k_a = 54 k_b = 1728
Note: see current operation: "rock.gemm"(%7, %10, %11) <{aTransposed, arch = "gfx908:sramecc+:xnack-", derivedBlockSize = 256 : i32, features = #rock<GemmFeatures mfma|dot|atomic_add>, gridSize = 14 : i32, numCU = 120 : i32, params = #rock.xdlops_gemm_params<kpackPerBlock = 8, mPerBlock = 128, nPerBlock = 128, kpack = 4, mPerWave = 64, nPerWave = 64, forceUnroll = true>, storeMethod = #rock<StoreMethod set>}> : (memref<1x54x192xf32>, memref<1x1728x784xf32>, memref<1x192x784xf32>) -> ()

Exception in gpu::mlir_op: /src/AMDMIGraphX/src/targets/gpu/mlir.cpp:731: run_backend_pipeline: MLIR backend compilation failed: Error: 'rock.gemm' op K dimensions don't match k_a = 27 k_b = 864
Note: see current operation: "rock.gemm"(%7, %10, %11) <{aTransposed, arch = "gfx908:sramecc+:xnack-", derivedBlockSize = 256 : i32, features = #rock<GemmFeatures mfma|dot|atomic_add>, gridSize = 50 : i32, numCU = 120 : i32, params = #rock.xdlops_gemm_params<kpackPerBlock = 2, mPerBlock = 64, nPerBlock = 128, kpack = 4, mPerWave = 32, nPerWave = 64, forceUnroll = true>, storeMethod = #rock<StoreMethod set>}> : (memref<1x27x96xf32>, memref<1x864x3136xf32>, memref<1x96x3136xf32>) -> ()

Exception in gpu::mlir_op: /src/AMDMIGraphX/src/targets/gpu/mlir.cpp:731: run_backend_pipeline: MLIR backend compilation failed: Error: 'rock.gemm' op K dimensions don't match k_a = 54 k_b = 1728
Note: see current operation: "rock.gemm"(%7, %10, %11) <{aTransposed, arch = "gfx908:sramecc+:xnack-", derivedBlockSize = 256 : i32, features = #rock<GemmFeatures mfma|dot|atomic_add>, gridSize = 14 : i32, numCU = 120 : i32, params = #rock.xdlops_gemm_params<kpackPerBlock = 8, mPerBlock = 128, nPerBlock = 128, kpack = 1, mPerWave = 64, nPerWave = 64, forceUnroll = true>, storeMethod = #rock<StoreMethod set>}> : (memref<1x54x192xf32>, memref<1x1728x784xf32>, memref<1x192x784xf32>) -> ()

Exception in gpu::mlir_op: /src/AMDMIGraphX/src/targets/gpu/mlir.cpp:731: run_backend_pipeline: MLIR backend compilation failed: Error: 'rock.gemm' op K dimensions don't match k_a = 54 k_b = 1728
Note: see current operation: "rock.gemm"(%7, %10, %11) <{aTransposed, arch = "gfx908:sramecc+:xnack-", derivedBlockSize = 128 : i32, features = #rock<GemmFeatures mfma|dot|atomic_add>, gridSize = 14 : i32, numCU = 120 : i32, params = #rock.xdlops_gemm_params<kpackPerBlock = 4, mPerBlock = 128, nPerBlock = 128, kpack = 4, mPerWave = 64, nPerWave = 128, forceUnroll = true>, storeMethod = #rock<StoreMethod set>}> : (memref<1x54x192xf32>, memref<1x1728x784xf32>, memref<1x192x784xf32>) -> ()

Exception in gpu::mlir_op: /src/AMDMIGraphX/src/targets/gpu/mlir.cpp:731: run_backend_pipeline: MLIR backend compilation failed: Error: 'rock.gemm' op K dimensions don't match k_a = 27 k_b = 864
Note: see current operation: "rock.gemm"(%7, %10, %11) <{aTransposed, arch = "gfx908:sramecc+:xnack-", derivedBlockSize = 256 : i32, features = #rock<GemmFeatures mfma|dot|atomic_add>, gridSize = 13 : i32, numCU = 120 : i32, params = #rock.xdlops_gemm_params<kpackPerBlock = 4, mPerBlock = 128, nPerBlock = 256, kpack = 4, mPerWave = 64, nPerWave = 128, forceUnroll = true>, storeMethod = #rock<StoreMethod set>}> : (memref<1x27x96xf32>, memref<1x864x3136xf32>, memref<1x96x3136xf32>) -> ()

Exception in gpu::mlir_op: /src/AMDMIGraphX/src/targets/gpu/mlir.cpp:731: run_backend_pipeline: MLIR backend compilation failed: Error: 'rock.gemm' op K dimensions don't match k_a = 54 k_b = 1728
Note: see current operation: "rock.gemm"(%7, %10, %11) <{aTransposed, arch = "gfx908:sramecc+:xnack-", derivedBlockSize = 256 : i32, features = #rock<GemmFeatures mfma|dot|atomic_add>, gridSize = 14 : i32, numCU = 120 : i32, params = #rock.xdlops_gemm_params<kpackPerBlock = 2, mPerBlock = 128, nPerBlock = 128, kpack = 4, mPerWave = 64, nPerWave = 64, forceUnroll = true>, storeMethod = #rock<StoreMethod set>}> : (memref<1x54x192xf32>, memref<1x1728x784xf32>, memref<1x192x784xf32>) -> ()

Exception in gpu::mlir_op: /src/AMDMIGraphX/src/targets/gpu/mlir.cpp:731: run_backend_pipeline: MLIR backend compilation failed: Error: 'rock.gemm' op K dimensions don't match k_a = 54 k_b = 1728
Note: see current operation: "rock.gemm"(%7, %10, %11) <{aTransposed, arch = "gfx908:sramecc+:xnack-", derivedBlockSize = 256 : i32, features = #rock<GemmFeatures mfma|dot|atomic_add>, gridSize = 14 : i32, numCU = 120 : i32, params = #rock.xdlops_gemm_params<kpackPerBlock = 4, mPerBlock = 128, nPerBlock = 128, kpack = 8, mPerWave = 64, nPerWave = 64, forceUnroll = true>, storeMethod = #rock<StoreMethod set>}> : (memref<1x54x192xf32>, memref<1x1728x784xf32>, memref<1x192x784xf32>) -> ()

Exception in gpu::mlir_op: /src/AMDMIGraphX/src/targets/gpu/mlir.cpp:731: run_backend_pipeline: MLIR backend compilation failed: Error: 'rock.gemm' op K dimensions don't match k_a = 27 k_b = 864
Note: see current operation: "rock.gemm"(%7, %10, %11) <{aTransposed, arch = "gfx908:sramecc+:xnack-", derivedBlockSize = 256 : i32, features = #rock<GemmFeatures mfma|dot|atomic_add>, gridSize = 26 : i32, numCU = 120 : i32, params = #rock.xdlops_gemm_params<kpackPerBlock = 8, mPerBlock = 64, nPerBlock = 256, kpack = 1, mPerWave = 64, nPerWave = 64, forceUnroll = true>, storeMethod = #rock<StoreMethod set>}> : (memref<1x27x96xf32>, memref<1x864x3136xf32>, memref<1x96x3136xf32>) -> ()

Exception in gpu::mlir_op: /src/AMDMIGraphX/src/targets/gpu/mlir.cpp:731: run_backend_pipeline: MLIR backend compilation failed: Error: 'rock.gemm' op K dimensions don't match k_a = 54 k_b = 1728
Note: see current operation: "rock.gemm"(%7, %10, %11) <{aTransposed, arch = "gfx908:sramecc+:xnack-", derivedBlockSize = 256 : i32, features = #rock<GemmFeatures mfma|dot|atomic_add>, gridSize = 14 : i32, numCU = 120 : i32, params = #rock.xdlops_gemm_params<kpackPerBlock = 8, mPerBlock = 128, nPerBlock = 128, kpack = 4, mPerWave = 64, nPerWave = 64, forceUnroll = true>, storeMethod = #rock<StoreMethod set>}> : (memref<1x54x192xf32>, memref<1x1728x784xf32>, memref<1x192x784xf32>) -> ()

Exception in gpu::mlir_op: /src/AMDMIGraphX/src/targets/gpu/mlir.cpp:731: run_backend_pipeline: MLIR backend compilation failed: Error: 'rock.gemm' op K dimensions don't match k_a = 54 k_b = 1728
Note: see current operation: "rock.gemm"(%7, %10, %11) <{aTransposed, arch = "gfx908:sramecc+:xnack-", derivedBlockSize = 256 : i32, features = #rock<GemmFeatures mfma|dot|atomic_add>, gridSize = 14 : i32, numCU = 120 : i32, params = #rock.xdlops_gemm_params<kpackPerBlock = 4, mPerBlock = 128, nPerBlock = 128, kpack = 4, mPerWave = 64, nPerWave = 64, forceUnroll = true>, storeMethod = #rock<StoreMethod set>}> : (memref<1x54x192xf32>, memref<1x1728x784xf32>, memref<1x192x784xf32>) -> ()

Exception in gpu::mlir_op: /src/AMDMIGraphX/src/targets/gpu/mlir.cpp:731: run_backend_pipeline: MLIR backend compilation failed: Error: 'rock.gemm' op K dimensions don't match k_a = 27 k_b = 864
Note: see current operation: "rock.gemm"(%7, %10, %11) <{aTransposed, arch = "gfx908:sramecc+:xnack-", derivedBlockSize = 256 : i32, features = #rock<GemmFeatures mfma|dot|atomic_add>, gridSize = 26 : i32, numCU = 120 : i32, params = #rock.xdlops_gemm_params<kpackPerBlock = 4, mPerBlock = 64, nPerBlock = 256, kpack = 4, mPerWave = 64, nPerWave = 64, forceUnroll = true>, storeMethod = #rock<StoreMethod set>}> : (memref<1x27x96xf32>, memref<1x864x3136xf32>, memref<1x96x3136xf32>) -> ()

Exception in gpu::mlir_op: /src/AMDMIGraphX/src/targets/gpu/mlir.cpp:731: run_backend_pipeline: MLIR backend compilation failed: Error: 'rock.gemm' op K dimensions don't match k_a = 54 k_b = 1728
Note: see current operation: "rock.gemm"(%7, %10, %11) <{aTransposed, arch = "gfx908:sramecc+:xnack-", derivedBlockSize = 128 : i32, features = #rock<GemmFeatures mfma|dot|atomic_add>, gridSize = 14 : i32, numCU = 120 : i32, params = #rock.xdlops_gemm_params<kpackPerBlock = 4, mPerBlock = 128, nPerBlock = 128, kpack = 4, mPerWave = 64, nPerWave = 128, forceUnroll = true>, storeMethod = #rock<StoreMethod set>}> : (memref<1x54x192xf32>, memref<1x1728x784xf32>, memref<1x192x784xf32>) -> ()

Exception in gpu::mlir_op: /src/AMDMIGraphX/src/targets/gpu/mlir.cpp:731: run_backend_pipeline: MLIR backend compilation failed: Error: 'rock.gemm' op K dimensions don't match k_a = 54 k_b = 1728
Note: see current operation: "rock.gemm"(%7, %10, %11) <{aTransposed, arch = "gfx908:sramecc+:xnack-", derivedBlockSize = 128 : i32, features = #rock<GemmFeatures mfma|dot|atomic_add>, gridSize = 14 : i32, numCU = 120 : i32, params = #rock.xdlops_gemm_params<kpackPerBlock = 2, mPerBlock = 128, nPerBlock = 128, kpack = 8, mPerWave = 64, nPerWave = 128, forceUnroll = true>, storeMethod = #rock<StoreMethod set>}> : (memref<1x54x192xf32>, memref<1x1728x784xf32>, memref<1x192x784xf32>) -> ()

Exception in gpu::mlir_op: /src/AMDMIGraphX/src/targets/gpu/mlir.cpp:731: run_backend_pipeline: MLIR backend compilation failed: Error: 'rock.gemm' op K dimensions don't match k_a = 54 k_b = 1728
Note: see current operation: "rock.gemm"(%7, %10, %11) <{aTransposed, arch = "gfx908:sramecc+:xnack-", derivedBlockSize = 256 : i32, features = #rock<GemmFeatures mfma|dot|atomic_add>, gridSize = 14 : i32, numCU = 120 : i32, params = #rock.xdlops_gemm_params<kpackPerBlock = 4, mPerBlock = 128, nPerBlock = 128, kpack = 8, mPerWave = 64, nPerWave = 64, forceUnroll = true>, storeMethod = #rock<StoreMethod set>}> : (memref<1x54x192xf32>, memref<1x1728x784xf32>, memref<1x192x784xf32>) -> ()

Exception in gpu::mlir_op: /src/AMDMIGraphX/src/targets/gpu/mlir.cpp:731: run_backend_pipeline: MLIR backend compilation failed: Error: 'rock.gemm' op K dimensions don't match k_a = 27 k_b = 864
Note: see current operation: "rock.gemm"(%7, %10, %11) <{aTransposed, arch = "gfx908:sramecc+:xnack-", derivedBlockSize = 256 : i32, features = #rock<GemmFeatures mfma|dot|atomic_add>, gridSize = 294 : i32, numCU = 120 : i32, params = #rock.xdlops_gemm_params<kpackPerBlock = 8, mPerBlock = 32, nPerBlock = 32, kpack = 8, mPerWave = 16, nPerWave = 16, forceUnroll = true>, storeMethod = #rock<StoreMethod set>}> : (memref<1x27x96xf32>, memref<1x864x3136xf32>, memref<1x96x3136xf32>) -> ()

Exception in gpu::mlir_op: /src/AMDMIGraphX/src/targets/gpu/mlir.cpp:731: run_backend_pipeline: MLIR backend compilation failed: Error: 'rock.gemm' op K dimensions don't match k_a = 54 k_b = 1728
Note: see current operation: "rock.gemm"(%7, %10, %11) <{aTransposed, arch = "gfx908:sramecc+:xnack-", derivedBlockSize = 256 : i32, features = #rock<GemmFeatures mfma|dot|atomic_add>, gridSize = 14 : i32, numCU = 120 : i32, params = #rock.xdlops_gemm_params<kpackPerBlock = 2, mPerBlock = 128, nPerBlock = 128, kpack = 8, mPerWave = 64, nPerWave = 64, forceUnroll = true>, storeMethod = #rock<StoreMethod set>}> : (memref<1x54x192xf32>, memref<1x1728x784xf32>, memref<1x192x784xf32>) -> ()

Exception in gpu::mlir_op: /src/AMDMIGraphX/src/targets/gpu/mlir.cpp:731: run_backend_pipeline: MLIR backend compilation failed: Error: 'rock.gemm' op K dimensions don't match k_a = 54 k_b = 1728
Note: see current operation: "rock.gemm"(%7, %10, %11) <{aTransposed, arch = "gfx908:sramecc+:xnack-", derivedBlockSize = 256 : i32, features = #rock<GemmFeatures mfma|dot|atomic_add>, gridSize = 14 : i32, numCU = 120 : i32, params = #rock.xdlops_gemm_params<kpackPerBlock = 4, mPerBlock = 128, nPerBlock = 128, kpack = 4, mPerWave = 64, nPerWave = 64, forceUnroll = true>, storeMethod = #rock<StoreMethod set>}> : (memref<1x54x192xf32>, memref<1x1728x784xf32>, memref<1x192x784xf32>) -> ()

Exception in gpu::mlir_op: /src/AMDMIGraphX/src/targets/gpu/mlir.cpp:731: run_backend_pipeline: MLIR backend compilation failed: Error: 'rock.gemm' op K dimensions don't match k_a = 27 k_b = 864
Note: see current operation: "rock.gemm"(%7, %10, %11) <{aTransposed, arch = "gfx908:sramecc+:xnack-", derivedBlockSize = 256 : i32, features = #rock<GemmFeatures mfma|dot|atomic_add>, gridSize = 294 : i32, numCU = 120 : i32, params = #rock.xdlops_gemm_params<kpackPerBlock = 8, mPerBlock = 16, nPerBlock = 64, kpack = 8, mPerWave = 16, nPerWave = 16, forceUnroll = true>, storeMethod = #rock<StoreMethod set>}> : (memref<1x27x96xf32>, memref<1x864x3136xf32>, memref<1x96x3136xf32>) -> ()

Exception in gpu::mlir_op: /src/AMDMIGraphX/src/targets/gpu/mlir.cpp:731: run_backend_pipeline: MLIR backend compilation failed: Error: 'rock.gemm' op K dimensions don't match k_a = 54 k_b = 1728
Note: see current operation: "rock.gemm"(%7, %10, %11) <{aTransposed, arch = "gfx908:sramecc+:xnack-", derivedBlockSize = 256 : i32, features = #rock<GemmFeatures mfma|dot|atomic_add>, gridSize = 8 : i32, numCU = 120 : i32, params = #rock.xdlops_gemm_params<kpackPerBlock = 4, mPerBlock = 128, nPerBlock = 256, kpack = 4, mPerWave = 64, nPerWave = 128, forceUnroll = true>, storeMethod = #rock<StoreMethod set>}> : (memref<1x54x192xf32>, memref<1x1728x784xf32>, memref<1x192x784xf32>) -> ()

Exception in gpu::mlir_op: /src/AMDMIGraphX/src/targets/gpu/mlir.cpp:731: run_backend_pipeline: MLIR backend compilation failed: Error: 'rock.gemm' op K dimensions don't match k_a = 54 k_b = 1728
Note: see current operation: "rock.gemm"(%7, %10, %11) <{aTransposed, arch = "gfx908:sramecc+:xnack-", derivedBlockSize = 128 : i32, features = #rock<GemmFeatures mfma|dot|atomic_add>, gridSize = 14 : i32, numCU = 120 : i32, params = #rock.xdlops_gemm_params<kpackPerBlock = 2, mPerBlock = 128, nPerBlock = 128, kpack = 8, mPerWave = 64, nPerWave = 128, forceUnroll = true>, storeMethod = #rock<StoreMethod set>}> : (memref<1x54x192xf32>, memref<1x1728x784xf32>, memref<1x192x784xf32>) -> ()

Exception in gpu::mlir_op: /src/AMDMIGraphX/src/targets/gpu/mlir.cpp:731: run_backend_pipeline: MLIR backend compilation failed: Error: 'rock.gemm' op K dimensions don't match k_a = 27 k_b = 864
Note: see current operation: "rock.gemm"(%7, %10, %11) <{aTransposed, arch = "gfx908:sramecc+:xnack-", derivedBlockSize = 128 : i32, features = #rock<GemmFeatures mfma|dot|atomic_add>, gridSize = 588 : i32, numCU = 120 : i32, params = #rock.xdlops_gemm_params<kpackPerBlock = 8, mPerBlock = 16, nPerBlock = 32, kpack = 8, mPerWave = 16, nPerWave = 16, forceUnroll = true>, storeMethod = #rock<StoreMethod set>}> : (memref<1x27x96xf32>, memref<1x864x3136xf32>, memref<1x96x3136xf32>) -> ()

Exception in gpu::mlir_op: /src/AMDMIGraphX/src/targets/gpu/mlir.cpp:731: run_backend_pipeline: MLIR backend compilation failed: Error: 'rock.gemm' op K dimensions don't match k_a = 54 k_b = 1728
Note: see current operation: "rock.gemm"(%7, %10, %11) <{aTransposed, arch = "gfx908:sramecc+:xnack-", derivedBlockSize = 256 : i32, features = #rock<GemmFeatures mfma|dot|atomic_add>, gridSize = 14 : i32, numCU = 120 : i32, params = #rock.xdlops_gemm_params<kpackPerBlock = 2, mPerBlock = 128, nPerBlock = 128, kpack = 8, mPerWave = 64, nPerWave = 64, forceUnroll = true>, storeMethod = #rock<StoreMethod set>}> : (memref<1x54x192xf32>, memref<1x1728x784xf32>, memref<1x192x784xf32>) -> ()

Exception in gpu::mlir_op: /src/AMDMIGraphX/src/targets/gpu/mlir.cpp:731: run_backend_pipeline: MLIR backend compilation failed: Error: 'rock.gemm' op K dimensions don't match k_a = 27 k_b = 864
Note: see current operation: "rock.gemm"(%7, %10, %11) <{aTransposed, arch = "gfx908:sramecc+:xnack-", derivedBlockSize = 64 : i32, features = #rock<GemmFeatures mfma|dot|atomic_add>, gridSize = 1176 : i32, numCU = 120 : i32, params = #rock.xdlops_gemm_params<kpackPerBlock = 8, mPerBlock = 16, nPerBlock = 16, kpack = 8, mPerWave = 16, nPerWave = 16, forceUnroll = true>, storeMethod = #rock<StoreMethod set>}> : (memref<1x27x96xf32>, memref<1x864x3136xf32>, memref<1x96x3136xf32>) -> ()

Exception in gpu::mlir_op: /src/AMDMIGraphX/src/targets/gpu/mlir.cpp:731: run_backend_pipeline: MLIR backend compilation failed: Error: 'rock.gemm' op K dimensions don't match k_a = 54 k_b = 1728
Note: see current operation: "rock.gemm"(%7, %10, %11) <{aTransposed, arch = "gfx908:sramecc+:xnack-", derivedBlockSize = 256 : i32, features = #rock<GemmFeatures mfma|dot|atomic_add>, gridSize = 8 : i32, numCU = 120 : i32, params = #rock.xdlops_gemm_params<kpackPerBlock = 4, mPerBlock = 128, nPerBlock = 256, kpack = 4, mPerWave = 64, nPerWave = 128, forceUnroll = true>, storeMethod = #rock<StoreMethod set>}> : (memref<1x54x192xf32>, memref<1x1728x784xf32>, memref<1x192x784xf32>) -> ()

Exception in gpu::mlir_op: /src/AMDMIGraphX/src/targets/gpu/mlir.cpp:731: run_backend_pipeline: MLIR backend compilation failed: Error: 'rock.gemm' op K dimensions don't match k_a = 27 k_b = 864
Note: see current operation: "rock.gemm"(%7, %10, %11) <{aTransposed, arch = "gfx908:sramecc+:xnack-", derivedBlockSize = 128 : i32, features = #rock<GemmFeatures mfma|dot|atomic_add>, gridSize = 588 : i32, numCU = 120 : i32, params = #rock.xdlops_gemm_params<kpackPerBlock = 8, mPerBlock = 8, nPerBlock = 64, kpack = 8, mPerWave = 4, nPerWave = 64, forceUnroll = true>, storeMethod = #rock<StoreMethod set>}> : (memref<1x27x96xf32>, memref<1x864x3136xf32>, memref<1x96x3136xf32>) -> ()

Exception in gpu::mlir_op: /src/AMDMIGraphX/src/targets/gpu/mlir.cpp:731: run_backend_pipeline: MLIR backend compilation failed: Error: 'rock.gemm' op K dimensions don't match k_a = 108 k_b = 3456
Note: see current operation: "rock.gemm"(%7, %10, %11) <{aTransposed, arch = "gfx908:sramecc+:xnack-", derivedBlockSize = 64 : i32, features = #rock<GemmFeatures mfma|dot|atomic_add>, gridSize = 312 : i32, numCU = 120 : i32, params = #rock.xdlops_gemm_params<kpackPerBlock = 4, mPerBlock = 16, nPerBlock = 16, kpack = 4, mPerWave = 16, nPerWave = 16, forceUnroll = true>, storeMethod = #rock<StoreMethod set>}> : (memref<1x108x384xf32>, memref<1x3456x196xf32>, memref<1x384x196xf32>) -> ()

Exception in gpu::mlir_op: /src/AMDMIGraphX/src/targets/gpu/mlir.cpp:731: run_backend_pipeline: MLIR backend compilation failed: Error: 'rock.gemm' op K dimensions don't match k_a = 108 k_b = 3456
Note: see current operation: "rock.gemm"(%7, %10, %11) <{aTransposed, arch = "gfx908:sramecc+:xnack-", derivedBlockSize = 64 : i32, features = #rock<GemmFeatures mfma|dot|atomic_add>, gridSize = 312 : i32, numCU = 120 : i32, params = #rock.xdlops_gemm_params<kpackPerBlock = 8, mPerBlock = 16, nPerBlock = 16, kpack = 8, mPerWave = 16, nPerWave = 16, forceUnroll = true>, storeMethod = #rock<StoreMethod set>}> : (memref<1x108x384xf32>, memref<1x3456x196xf32>, memref<1x384x196xf32>) -> ()

Exception in gpu::mlir_op: /src/AMDMIGraphX/src/targets/gpu/mlir.cpp:731: run_backend_pipeline: MLIR backend compilation failed: Error: 'rock.gemm' op K dimensions don't match k_a = 108 k_b = 3456
Note: see current operation: "rock.gemm"(%7, %10, %11) <{aTransposed, arch = "gfx908:sramecc+:xnack-", derivedBlockSize = 256 : i32, features = #rock<GemmFeatures mfma|dot|atomic_add>, gridSize = 3 : i32, numCU = 120 : i32, params = #rock.xdlops_gemm_params<kpackPerBlock = 4, mPerBlock = 128, nPerBlock = 256, kpack = 4, mPerWave = 64, nPerWave = 128, forceUnroll = true>, storeMethod = #rock<StoreMethod set>}> : (memref<1x108x384xf32>, memref<1x3456x196xf32>, memref<1x384x196xf32>) -> ()

Exception in gpu::mlir_op: /src/AMDMIGraphX/src/targets/gpu/mlir.cpp:731: run_backend_pipeline: MLIR backend compilation failed: Error: 'rock.gemm' op K dimensions don't match k_a = 108 k_b = 3456
Note: see current operation: "rock.gemm"(%7, %10, %11) <{aTransposed, arch = "gfx908:sramecc+:xnack-", derivedBlockSize = 128 : i32, features = #rock<GemmFeatures mfma|dot|atomic_add>, gridSize = 6 : i32, numCU = 120 : i32, params = #rock.xdlops_gemm_params<kpackPerBlock = 8, mPerBlock = 128, nPerBlock = 128, kpack = 1, mPerWave = 64, nPerWave = 128, forceUnroll = true>, storeMethod = #rock<StoreMethod set>}> : (memref<1x108x384xf32>, memref<1x3456x196xf32>, memref<1x384x196xf32>) -> ()

Exception in gpu::mlir_op: /src/AMDMIGraphX/src/targets/gpu/mlir.cpp:731: run_backend_pipeline: MLIR backend compilation failed: Error: 'rock.gemm' op K dimensions don't match k_a = 108 k_b = 3456
Note: see current operation: "rock.gemm"(%7, %10, %11) <{aTransposed, arch = "gfx908:sramecc+:xnack-", derivedBlockSize = 256 : i32, features = #rock<GemmFeatures mfma|dot|atomic_add>, gridSize = 6 : i32, numCU = 120 : i32, params = #rock.xdlops_gemm_params<kpackPerBlock = 8, mPerBlock = 128, nPerBlock = 128, kpack = 1, mPerWave = 64, nPerWave = 64, forceUnroll = true>, storeMethod = #rock<StoreMethod set>}> : (memref<1x108x384xf32>, memref<1x3456x196xf32>, memref<1x384x196xf32>) -> ()

Exception in gpu::mlir_op: /src/AMDMIGraphX/src/targets/gpu/mlir.cpp:731: run_backend_pipeline: MLIR backend compilation failed: Error: 'rock.gemm' op K dimensions don't match k_a = 108 k_b = 3456
Note: see current operation: "rock.gemm"(%7, %10, %11) <{aTransposed, arch = "gfx908:sramecc+:xnack-", derivedBlockSize = 128 : i32, features = #rock<GemmFeatures mfma|dot|atomic_add>, gridSize = 6 : i32, numCU = 120 : i32, params = #rock.xdlops_gemm_params<kpackPerBlock = 4, mPerBlock = 128, nPerBlock = 128, kpack = 4, mPerWave = 64, nPerWave = 128, forceUnroll = true>, storeMethod = #rock<StoreMethod set>}> : (memref<1x108x384xf32>, memref<1x3456x196xf32>, memref<1x384x196xf32>) -> ()

Exception in gpu::mlir_op: /src/AMDMIGraphX/src/targets/gpu/mlir.cpp:731: run_backend_pipeline: MLIR backend compilation failed: Error: 'rock.gemm' op K dimensions don't match k_a = 108 k_b = 3456
Note: see current operation: "rock.gemm"(%7, %10, %11) <{aTransposed, arch = "gfx908:sramecc+:xnack-", derivedBlockSize = 256 : i32, features = #rock<GemmFeatures mfma|dot|atomic_add>, gridSize = 6 : i32, numCU = 120 : i32, params = #rock.xdlops_gemm_params<kpackPerBlock = 4, mPerBlock = 128, nPerBlock = 128, kpack = 4, mPerWave = 64, nPerWave = 64, forceUnroll = true>, storeMethod = #rock<StoreMethod set>}> : (memref<1x108x384xf32>, memref<1x3456x196xf32>, memref<1x384x196xf32>) -> ()

Exception in gpu::mlir_op: /src/AMDMIGraphX/src/targets/gpu/mlir.cpp:731: run_backend_pipeline: MLIR backend compilation failed: Error: 'rock.gemm' op K dimensions don't match k_a = 108 k_b = 3456
Note: see current operation: "rock.gemm"(%7, %10, %11) <{aTransposed, arch = "gfx908:sramecc+:xnack-", derivedBlockSize = 128 : i32, features = #rock<GemmFeatures mfma|dot|atomic_add>, gridSize = 6 : i32, numCU = 120 : i32, params = #rock.xdlops_gemm_params<kpackPerBlock = 2, mPerBlock = 128, nPerBlock = 128, kpack = 8, mPerWave = 64, nPerWave = 128, forceUnroll = true>, storeMethod = #rock<StoreMethod set>}> : (memref<1x108x384xf32>, memref<1x3456x196xf32>, memref<1x384x196xf32>) -> ()

Exception in gpu::mlir_op: /src/AMDMIGraphX/src/targets/gpu/mlir.cpp:731: run_backend_pipeline: MLIR backend compilation failed: Error: 'rock.gemm' op K dimensions don't match k_a = 108 k_b = 3456
Note: see current operation: "rock.gemm"(%7, %10, %11) <{aTransposed, arch = "gfx908:sramecc+:xnack-", derivedBlockSize = 256 : i32, features = #rock<GemmFeatures mfma|dot|atomic_add>, gridSize = 6 : i32, numCU = 120 : i32, params = #rock.xdlops_gemm_params<kpackPerBlock = 2, mPerBlock = 128, nPerBlock = 128, kpack = 8, mPerWave = 64, nPerWave = 64, forceUnroll = true>, storeMethod = #rock<StoreMethod set>}> : (memref<1x108x384xf32>, memref<1x3456x196xf32>, memref<1x384x196xf32>) -> ()

Exception in gpu::mlir_op: /src/AMDMIGraphX/src/targets/gpu/mlir.cpp:731: run_backend_pipeline: MLIR backend compilation failed: Error: 'rock.gemm' op K dimensions don't match k_a = 108 k_b = 3456
Note: see current operation: "rock.gemm"(%7, %10, %11) <{aTransposed, arch = "gfx908:sramecc+:xnack-", derivedBlockSize = 256 : i32, features = #rock<GemmFeatures mfma|dot|atomic_add>, gridSize = 6 : i32, numCU = 120 : i32, params = #rock.xdlops_gemm_params<kpackPerBlock = 2, mPerBlock = 128, nPerBlock = 128, kpack = 4, mPerWave = 64, nPerWave = 64, forceUnroll = true>, storeMethod = #rock<StoreMethod set>}> : (memref<1x108x384xf32>, memref<1x3456x196xf32>, memref<1x384x196xf32>) -> ()

Exception in gpu::mlir_op: /src/AMDMIGraphX/src/targets/gpu/mlir.cpp:731: run_backend_pipeline: MLIR backend compilation failed: Error: 'rock.gemm' op K dimensions don't match k_a = 108 k_b = 3456
Note: see current operation: "rock.gemm"(%7, %10, %11) <{aTransposed, arch = "gfx908:sramecc+:xnack-", derivedBlockSize = 256 : i32, features = #rock<GemmFeatures mfma|dot|atomic_add>, gridSize = 6 : i32, numCU = 120 : i32, params = #rock.xdlops_gemm_params<kpackPerBlock = 8, mPerBlock = 64, nPerBlock = 256, kpack = 1, mPerWave = 64, nPerWave = 64, forceUnroll = true>, storeMethod = #rock<StoreMethod set>}> : (memref<1x108x384xf32>, memref<1x3456x196xf32>, memref<1x384x196xf32>) -> ()

Exception in gpu::mlir_op: /src/AMDMIGraphX/src/targets/gpu/mlir.cpp:731: run_backend_pipeline: MLIR backend compilation failed: Error: 'rock.gemm' op K dimensions don't match k_a = 108 k_b = 3456
Note: see current operation: "rock.gemm"(%7, %10, %11) <{aTransposed, arch = "gfx908:sramecc+:xnack-", derivedBlockSize = 256 : i32, features = #rock<GemmFeatures mfma|dot|atomic_add>, gridSize = 6 : i32, numCU = 120 : i32, params = #rock.xdlops_gemm_params<kpackPerBlock = 4, mPerBlock = 64, nPerBlock = 256, kpack = 4, mPerWave = 64, nPerWave = 64, forceUnroll = true>, storeMethod = #rock<StoreMethod set>}> : (memref<1x108x384xf32>, memref<1x3456x196xf32>, memref<1x384x196xf32>) -> ()

Exception in gpu::mlir_op: /src/AMDMIGraphX/src/targets/gpu/mlir.cpp:731: run_backend_pipeline: MLIR backend compilation failed: Error: 'rock.gemm' op K dimensions don't match k_a = 108 k_b = 3456
Note: see current operation: "rock.gemm"(%7, %10, %11) <{aTransposed, arch = "gfx908:sramecc+:xnack-", derivedBlockSize = 256 : i32, features = #rock<GemmFeatures mfma|dot|atomic_add>, gridSize = 12 : i32, numCU = 120 : i32, params = #rock.xdlops_gemm_params<kpackPerBlock = 4, mPerBlock = 64, nPerBlock = 128, kpack = 4, mPerWave = 32, nPerWave = 64, forceUnroll = true>, storeMethod = #rock<StoreMethod set>}> : (memref<1x108x384xf32>, memref<1x3456x196xf32>, memref<1x384x196xf32>) -> ()

Exception in gpu::mlir_op: /src/AMDMIGraphX/src/targets/gpu/mlir.cpp:731: run_backend_pipeline: MLIR backend compilation failed: Error: 'rock.gemm' op K dimensions don't match k_a = 108 k_b = 3456
Note: see current operation: "rock.gemm"(%7, %10, %11) <{aTransposed, arch = "gfx908:sramecc+:xnack-", derivedBlockSize = 256 : i32, features = #rock<GemmFeatures mfma|dot|atomic_add>, gridSize = 12 : i32, numCU = 120 : i32, params = #rock.xdlops_gemm_params<kpackPerBlock = 2, mPerBlock = 64, nPerBlock = 128, kpack = 8, mPerWave = 32, nPerWave = 64, forceUnroll = true>, storeMethod = #rock<StoreMethod set>}> : (memref<1x108x384xf32>, memref<1x3456x196xf32>, memref<1x384x196xf32>) -> ()

Exception in gpu::mlir_op: /src/AMDMIGraphX/src/targets/gpu/mlir.cpp:731: run_backend_pipeline: MLIR backend compilation failed: Error: 'rock.gemm' op K dimensions don't match k_a = 108 k_b = 3456
Note: see current operation: "rock.gemm"(%7, %10, %11) <{aTransposed, arch = "gfx908:sramecc+:xnack-", derivedBlockSize = 256 : i32, features = #rock<GemmFeatures mfma|dot|atomic_add>, gridSize = 12 : i32, numCU = 120 : i32, params = #rock.xdlops_gemm_params<kpackPerBlock = 2, mPerBlock = 64, nPerBlock = 128, kpack = 4, mPerWave = 32, nPerWave = 64, forceUnroll = true>, storeMethod = #rock<StoreMethod set>}> : (memref<1x108x384xf32>, memref<1x3456x196xf32>, memref<1x384x196xf32>) -> ()

Exception in gpu::mlir_op: /src/AMDMIGraphX/src/targets/gpu/mlir.cpp:731: run_backend_pipeline: MLIR backend compilation failed: Error: 'rock.gemm' op K dimensions don't match k_a = 108 k_b = 3456
Note: see current operation: "rock.gemm"(%7, %10, %11) <{aTransposed, arch = "gfx908:sramecc+:xnack-", derivedBlockSize = 256 : i32, features = #rock<GemmFeatures mfma|dot|atomic_add>, gridSize = 24 : i32, numCU = 120 : i32, params = #rock.xdlops_gemm_params<kpackPerBlock = 4, mPerBlock = 64, nPerBlock = 64, kpack = 4, mPerWave = 32, nPerWave = 32, forceUnroll = true>, storeMethod = #rock<StoreMethod set>}> : (memref<1x108x384xf32>, memref<1x3456x196xf32>, memref<1x384x196xf32>) -> ()

Exception in gpu::mlir_op: /src/AMDMIGraphX/src/targets/gpu/mlir.cpp:731: run_backend_pipeline: MLIR backend compilation failed: Error: 'rock.gemm' op K dimensions don't match k_a = 108 k_b = 3456
Note: see current operation: "rock.gemm"(%7, %10, %11) <{aTransposed, arch = "gfx908:sramecc+:xnack-", derivedBlockSize = 256 : i32, features = #rock<GemmFeatures mfma|dot|atomic_add>, gridSize = 24 : i32, numCU = 120 : i32, params = #rock.xdlops_gemm_params<kpackPerBlock = 4, mPerBlock = 64, nPerBlock = 64, kpack = 4, mPerWave = 16, nPerWave = 64, forceUnroll = true>, storeMethod = #rock<StoreMethod set>}> : (memref<1x108x384xf32>, memref<1x3456x196xf32>, memref<1x384x196xf32>) -> ()

Exception in gpu::mlir_op: /src/AMDMIGraphX/src/targets/gpu/mlir.cpp:731: run_backend_pipeline: MLIR backend compilation failed: Error: 'rock.gemm' op K dimensions don't match k_a = 108 k_b = 3456
Note: see current operation: "rock.gemm"(%7, %10, %11) <{aTransposed, arch = "gfx908:sramecc+:xnack-", derivedBlockSize = 256 : i32, features = #rock<GemmFeatures mfma|dot|atomic_add>, gridSize = 24 : i32, numCU = 120 : i32, params = #rock.xdlops_gemm_params<kpackPerBlock = 2, mPerBlock = 64, nPerBlock = 64, kpack = 8, mPerWave = 32, nPerWave = 32, forceUnroll = true>, storeMethod = #rock<StoreMethod set>}> : (memref<1x108x384xf32>, memref<1x3456x196xf32>, memref<1x384x196xf32>) -> ()

Exception in gpu::mlir_op: /src/AMDMIGraphX/src/targets/gpu/mlir.cpp:731: run_backend_pipeline: MLIR backend compilation failed: Error: 'rock.gemm' op K dimensions don't match k_a = 108 k_b = 3456
Note: see current operation: "rock.gemm"(%7, %10, %11) <{aTransposed, arch = "gfx908:sramecc+:xnack-", derivedBlockSize = 256 : i32, features = #rock<GemmFeatures mfma|dot|atomic_add>, gridSize = 24 : i32, numCU = 120 : i32, params = #rock.xdlops_gemm_params<kpackPerBlock = 4, mPerBlock = 32, nPerBlock = 128, kpack = 4, mPerWave = 32, nPerWave = 32, forceUnroll = true>, storeMethod = #rock<StoreMethod set>}> : (memref<1x108x384xf32>, memref<1x3456x196xf32>, memref<1x384x196xf32>) -> ()

Exception in gpu::mlir_op: /src/AMDMIGraphX/src/targets/gpu/mlir.cpp:731: run_backend_pipeline: MLIR backend compilation failed: Error: 'rock.gemm' op K dimensions don't match k_a = 108 k_b = 3456
Note: see current operation: "rock.gemm"(%7, %10, %11) <{aTransposed, arch = "gfx908:sramecc+:xnack-", derivedBlockSize = 64 : i32, features = #rock<GemmFeatures mfma|dot|atomic_add>, gridSize = 48 : i32, numCU = 120 : i32, params = #rock.xdlops_gemm_params<kpackPerBlock = 4, mPerBlock = 32, nPerBlock = 64, kpack = 4, mPerWave = 32, nPerWave = 64, forceUnroll = true>, storeMethod = #rock<StoreMethod set>}> : (memref<1x108x384xf32>, memref<1x3456x196xf32>, memref<1x384x196xf32>) -> ()

Exception in gpu::mlir_op: /src/AMDMIGraphX/src/targets/gpu/mlir.cpp:731: run_backend_pipeline: MLIR backend compilation failed: Error: 'rock.gemm' op K dimensions don't match k_a = 108 k_b = 3456
Note: see current operation: "rock.gemm"(%7, %10, %11) <{aTransposed, arch = "gfx908:sramecc+:xnack-", derivedBlockSize = 256 : i32, features = #rock<GemmFeatures mfma|dot|atomic_add>, gridSize = 48 : i32, numCU = 120 : i32, params = #rock.xdlops_gemm_params<kpackPerBlock = 4, mPerBlock = 32, nPerBlock = 64, kpack = 4, mPerWave = 8, nPerWave = 64, forceUnroll = true>, storeMethod = #rock<StoreMethod set>}> : (memref<1x108x384xf32>, memref<1x3456x196xf32>, memref<1x384x196xf32>) -> ()

Exception in gpu::mlir_op: /src/AMDMIGraphX/src/targets/gpu/mlir.cpp:731: run_backend_pipeline: MLIR backend compilation failed: Error: 'rock.gemm' op K dimensions don't match k_a = 108 k_b = 3456
Note: see current operation: "rock.gemm"(%7, %10, %11) <{aTransposed, arch = "gfx908:sramecc+:xnack-", derivedBlockSize = 128 : i32, features = #rock<GemmFeatures mfma|dot|atomic_add>, gridSize = 48 : i32, numCU = 120 : i32, params = #rock.xdlops_gemm_params<kpackPerBlock = 2, mPerBlock = 32, nPerBlock = 64, kpack = 8, mPerWave = 32, nPerWave = 32, forceUnroll = true>, storeMethod = #rock<StoreMethod set>}> : (memref<1x108x384xf32>, memref<1x3456x196xf32>, memref<1x384x196xf32>) -> ()

Exception in gpu::mlir_op: /src/AMDMIGraphX/src/targets/gpu/mlir.cpp:731: run_backend_pipeline: MLIR backend compilation failed: Error: 'rock.gemm' op K dimensions don't match k_a = 108 k_b = 3456
Note: see current operation: "rock.gemm"(%7, %10, %11) <{aTransposed, arch = "gfx908:sramecc+:xnack-", derivedBlockSize = 256 : i32, features = #rock<GemmFeatures mfma|dot|atomic_add>, gridSize = 48 : i32, numCU = 120 : i32, params = #rock.xdlops_gemm_params<kpackPerBlock = 2, mPerBlock = 32, nPerBlock = 64, kpack = 4, mPerWave = 8, nPerWave = 64, forceUnroll = true>, storeMethod = #rock<StoreMethod set>}> : (memref<1x108x384xf32>, memref<1x3456x196xf32>, memref<1x384x196xf32>) -> ()

Exception in gpu::mlir_op: /src/AMDMIGraphX/src/targets/gpu/mlir.cpp:731: run_backend_pipeline: MLIR backend compilation failed: Error: 'rock.gemm' op K dimensions don't match k_a = 108 k_b = 3456
Note: see current operation: "rock.gemm"(%7, %10, %11) <{aTransposed, arch = "gfx908:sramecc+:xnack-", derivedBlockSize = 256 : i32, features = #rock<GemmFeatures mfma|dot|atomic_add>, gridSize = 84 : i32, numCU = 120 : i32, params = #rock.xdlops_gemm_params<kpackPerBlock = 8, mPerBlock = 32, nPerBlock = 32, kpack = 8, mPerWave = 16, nPerWave = 16, forceUnroll = true>, storeMethod = #rock<StoreMethod set>}> : (memref<1x108x384xf32>, memref<1x3456x196xf32>, memref<1x384x196xf32>) -> ()

Exception in gpu::mlir_op: /src/AMDMIGraphX/src/targets/gpu/mlir.cpp:731: run_backend_pipeline: MLIR backend compilation failed: Error: 'rock.gemm' op K dimensions don't match k_a = 108 k_b = 3456
Note: see current operation: "rock.gemm"(%7, %10, %11) <{aTransposed, arch = "gfx908:sramecc+:xnack-", derivedBlockSize = 256 : i32, features = #rock<GemmFeatures mfma|dot|atomic_add>, gridSize = 84 : i32, numCU = 120 : i32, params = #rock.xdlops_gemm_params<kpackPerBlock = 8, mPerBlock = 32, nPerBlock = 32, kpack = 4, mPerWave = 16, nPerWave = 16, forceUnroll = true>, storeMethod = #rock<StoreMethod set>}> : (memref<1x108x384xf32>, memref<1x3456x196xf32>, memref<1x384x196xf32>) -> ()

Exception in gpu::mlir_op: /src/AMDMIGraphX/src/targets/gpu/mlir.cpp:731: run_backend_pipeline: MLIR backend compilation failed: Error: 'rock.gemm' op K dimensions don't match k_a = 108 k_b = 3456
Note: see current operation: "rock.gemm"(%7, %10, %11) <{aTransposed, arch = "gfx908:sramecc+:xnack-", derivedBlockSize = 256 : i32, features = #rock<GemmFeatures mfma|dot|atomic_add>, gridSize = 84 : i32, numCU = 120 : i32, params = #rock.xdlops_gemm_params<kpackPerBlock = 4, mPerBlock = 32, nPerBlock = 32, kpack = 8, mPerWave = 16, nPerWave = 16, forceUnroll = true>, storeMethod = #rock<StoreMethod set>}> : (memref<1x108x384xf32>, memref<1x3456x196xf32>, memref<1x384x196xf32>) -> ()

Exception in gpu::mlir_op: /src/AMDMIGraphX/src/targets/gpu/mlir.cpp:731: run_backend_pipeline: MLIR backend compilation failed: Error: 'rock.gemm' op K dimensions don't match k_a = 108 k_b = 3456
Note: see current operation: "rock.gemm"(%7, %10, %11) <{aTransposed, arch = "gfx908:sramecc+:xnack-", derivedBlockSize = 128 : i32, features = #rock<GemmFeatures mfma|dot|atomic_add>, gridSize = 168 : i32, numCU = 120 : i32, params = #rock.xdlops_gemm_params<kpackPerBlock = 8, mPerBlock = 16, nPerBlock = 32, kpack = 8, mPerWave = 16, nPerWave = 16, forceUnroll = true>, storeMethod = #rock<StoreMethod set>}> : (memref<1x108x384xf32>, memref<1x3456x196xf32>, memref<1x384x196xf32>) -> ()

Exception in gpu::mlir_op: /src/AMDMIGraphX/src/targets/gpu/mlir.cpp:731: run_backend_pipeline: MLIR backend compilation failed: Error: 'rock.gemm' op K dimensions don't match k_a = 108 k_b = 3456
Note: see current operation: "rock.gemm"(%7, %10, %11) <{aTransposed, arch = "gfx908:sramecc+:xnack-", derivedBlockSize = 128 : i32, features = #rock<GemmFeatures mfma|dot|atomic_add>, gridSize = 168 : i32, numCU = 120 : i32, params = #rock.xdlops_gemm_params<kpackPerBlock = 8, mPerBlock = 16, nPerBlock = 32, kpack = 4, mPerWave = 16, nPerWave = 16, forceUnroll = true>, storeMethod = #rock<StoreMethod set>}> : (memref<1x108x384xf32>, memref<1x3456x196xf32>, memref<1x384x196xf32>) -> ()

Exception in gpu::mlir_op: /src/AMDMIGraphX/src/targets/gpu/mlir.cpp:731: run_backend_pipeline: MLIR backend compilation failed: Error: 'rock.gemm' op K dimensions don't match k_a = 108 k_b = 3456
Note: see current operation: "rock.gemm"(%7, %10, %11) <{aTransposed, arch = "gfx908:sramecc+:xnack-", derivedBlockSize = 64 : i32, features = #rock<GemmFeatures mfma|dot|atomic_add>, gridSize = 384 : i32, numCU = 120 : i32, params = #rock.xdlops_gemm_params<kpackPerBlock = 16, mPerBlock = 4, nPerBlock = 64, kpack = 1, mPerWave = 4, nPerWave = 64, forceUnroll = true>, storeMethod = #rock<StoreMethod set>}> : (memref<1x108x384xf32>, memref<1x3456x196xf32>, memref<1x384x196xf32>) -> ()

Exception in gpu::mlir_op: /src/AMDMIGraphX/src/targets/gpu/mlir.cpp:731: run_backend_pipeline: MLIR backend compilation failed: Error: 'rock.gemm' op K dimensions don't match k_a = 108 k_b = 3456
Note: see current operation: "rock.gemm"(%7, %10, %11) <{aTransposed, arch = "gfx908:sramecc+:xnack-", derivedBlockSize = 64 : i32, features = #rock<GemmFeatures mfma|dot|atomic_add>, gridSize = 384 : i32, numCU = 120 : i32, params = #rock.xdlops_gemm_params<kpackPerBlock = 2, mPerBlock = 4, nPerBlock = 64, kpack = 8, mPerWave = 4, nPerWave = 64, forceUnroll = true>, storeMethod = #rock<StoreMethod set>}> : (memref<1x108x384xf32>, memref<1x3456x196xf32>, memref<1x384x196xf32>) -> ()

Exception in gpu::mlir_op: /src/AMDMIGraphX/src/targets/gpu/mlir.cpp:731: run_backend_pipeline: MLIR backend compilation failed: Error: 'rock.gemm' op K dimensions don't match k_a = 108 k_b = 3456
Note: see current operation: "rock.gemm"(%7, %10, %11) <{aTransposed, arch = "gfx908:sramecc+:xnack-", derivedBlockSize = 256 : i32, features = #rock<GemmFeatures mfma|dot|atomic_add>, gridSize = 6 : i32, numCU = 120 : i32, params = #rock.xdlops_gemm_params<kpackPerBlock = 8, mPerBlock = 128, nPerBlock = 128, kpack = 4, mPerWave = 64, nPerWave = 64, forceUnroll = true>, storeMethod = #rock<StoreMethod set>}> : (memref<1x108x384xf32>, memref<1x3456x196xf32>, memref<1x384x196xf32>) -> ()

Exception in gpu::mlir_op: /src/AMDMIGraphX/src/targets/gpu/mlir.cpp:731: run_backend_pipeline: MLIR backend compilation failed: Error: 'rock.gemm' op K dimensions don't match k_a = 108 k_b = 3456
Note: see current operation: "rock.gemm"(%7, %10, %11) <{aTransposed, arch = "gfx908:sramecc+:xnack-", derivedBlockSize = 256 : i32, features = #rock<GemmFeatures mfma|dot|atomic_add>, gridSize = 6 : i32, numCU = 120 : i32, params = #rock.xdlops_gemm_params<kpackPerBlock = 4, mPerBlock = 128, nPerBlock = 128, kpack = 8, mPerWave = 64, nPerWave = 64, forceUnroll = true>, storeMethod = #rock<StoreMethod set>}> : (memref<1x108x384xf32>, memref<1x3456x196xf32>, memref<1x384x196xf32>) -> ()

Exception in gpu::mlir_op: /src/AMDMIGraphX/src/targets/gpu/mlir.cpp:731: run_backend_pipeline: MLIR backend compilation failed: Error: 'rock.gemm' op K dimensions don't match k_a = 108 k_b = 3456
Note: see current operation: "rock.gemm"(%7, %10, %11) <{aTransposed, arch = "gfx908:sramecc+:xnack-", derivedBlockSize = 256 : i32, features = #rock<GemmFeatures mfma|dot|atomic_add>, gridSize = 24 : i32, numCU = 120 : i32, params = #rock.xdlops_gemm_params<kpackPerBlock = 8, mPerBlock = 64, nPerBlock = 64, kpack = 4, mPerWave = 32, nPerWave = 32, forceUnroll = true>, storeMethod = #rock<StoreMethod set>}> : (memref<1x108x384xf32>, memref<1x3456x196xf32>, memref<1x384x196xf32>) -> ()

Exception in gpu::mlir_op: /src/AMDMIGraphX/src/targets/gpu/mlir.cpp:731: run_backend_pipeline: MLIR backend compilation failed: Error: 'rock.gemm' op K dimensions don't match k_a = 108 k_b = 3456
Note: see current operation: "rock.gemm"(%7, %10, %11) <{aTransposed, arch = "gfx908:sramecc+:xnack-", derivedBlockSize = 256 : i32, features = #rock<GemmFeatures mfma|dot|atomic_add>, gridSize = 24 : i32, numCU = 120 : i32, params = #rock.xdlops_gemm_params<kpackPerBlock = 4, mPerBlock = 64, nPerBlock = 64, kpack = 8, mPerWave = 32, nPerWave = 32, forceUnroll = true>, storeMethod = #rock<StoreMethod set>}> : (memref<1x108x384xf32>, memref<1x3456x196xf32>, memref<1x384x196xf32>) -> ()

Exception in gpu::mlir_op: /src/AMDMIGraphX/src/targets/gpu/mlir.cpp:731: run_backend_pipeline: MLIR backend compilation failed: Error: 'rock.gemm' op K dimensions don't match k_a = 108 k_b = 3456
Note: see current operation: "rock.gemm"(%7, %10, %11) <{aTransposed, arch = "gfx908:sramecc+:xnack-", derivedBlockSize = 256 : i32, features = #rock<GemmFeatures mfma|dot|atomic_add>, gridSize = 24 : i32, numCU = 120 : i32, params = #rock.xdlops_gemm_params<kpackPerBlock = 4, mPerBlock = 64, nPerBlock = 64, kpack = 8, mPerWave = 16, nPerWave = 64, forceUnroll = true>, storeMethod = #rock<StoreMethod set>}> : (memref<1x108x384xf32>, memref<1x3456x196xf32>, memref<1x384x196xf32>) -> ()

Exception in gpu::mlir_op: /src/AMDMIGraphX/src/targets/gpu/mlir.cpp:731: run_backend_pipeline: MLIR backend compilation failed: Error: 'rock.gemm' op K dimensions don't match k_a = 108 k_b = 3456
Note: see current operation: "rock.gemm"(%7, %10, %11) <{aTransposed, arch = "gfx908:sramecc+:xnack-", derivedBlockSize = 128 : i32, features = #rock<GemmFeatures mfma|dot|atomic_add>, gridSize = 48 : i32, numCU = 120 : i32, params = #rock.xdlops_gemm_params<kpackPerBlock = 8, mPerBlock = 32, nPerBlock = 64, kpack = 4, mPerWave = 32, nPerWave = 32, forceUnroll = true>, storeMethod = #rock<StoreMethod set>}> : (memref<1x108x384xf32>, memref<1x3456x196xf32>, memref<1x384x196xf32>) -> ()

Exception in gpu::mlir_op: /src/AMDMIGraphX/src/targets/gpu/mlir.cpp:731: run_backend_pipeline: MLIR backend compilation failed: Error: 'rock.gemm' op K dimensions don't match k_a = 108 k_b = 3456
Note: see current operation: "rock.gemm"(%7, %10, %11) <{aTransposed, arch = "gfx908:sramecc+:xnack-", derivedBlockSize = 256 : i32, features = #rock<GemmFeatures mfma|dot|atomic_add>, gridSize = 48 : i32, numCU = 120 : i32, params = #rock.xdlops_gemm_params<kpackPerBlock = 8, mPerBlock = 32, nPerBlock = 64, kpack = 4, mPerWave = 8, nPerWave = 64, forceUnroll = true>, storeMethod = #rock<StoreMethod set>}> : (memref<1x108x384xf32>, memref<1x3456x196xf32>, memref<1x384x196xf32>) -> ()

Exception in gpu::mlir_op: /src/AMDMIGraphX/src/targets/gpu/mlir.cpp:731: run_backend_pipeline: MLIR backend compilation failed: Error: 'rock.gemm' op K dimensions don't match k_a = 108 k_b = 3456
Note: see current operation: "rock.gemm"(%7, %10, %11) <{aTransposed, arch = "gfx908:sramecc+:xnack-", derivedBlockSize = 256 : i32, features = #rock<GemmFeatures mfma|dot|atomic_add>, gridSize = 96 : i32, numCU = 120 : i32, params = #rock.xdlops_gemm_params<kpackPerBlock = 8, mPerBlock = 16, nPerBlock = 64, kpack = 8, mPerWave = 16, nPerWave = 16, forceUnroll = true>, storeMethod = #rock<StoreMethod set>}> : (memref<1x108x384xf32>, memref<1x3456x196xf32>, memref<1x384x196xf32>) -> ()

Exception in gpu::mlir_op: /src/AMDMIGraphX/src/targets/gpu/mlir.cpp:731: run_backend_pipeline: MLIR backend compilation failed: Error: 'rock.gemm' op K dimensions don't match k_a = 108 k_b = 3456
Note: see current operation: "rock.gemm"(%7, %10, %11) <{aTransposed, arch = "gfx908:sramecc+:xnack-", derivedBlockSize = 256 : i32, features = #rock<GemmFeatures mfma|dot|atomic_add>, gridSize = 96 : i32, numCU = 120 : i32, params = #rock.xdlops_gemm_params<kpackPerBlock = 8, mPerBlock = 16, nPerBlock = 64, kpack = 4, mPerWave = 16, nPerWave = 16, forceUnroll = true>, storeMethod = #rock<StoreMethod set>}> : (memref<1x108x384xf32>, memref<1x3456x196xf32>, memref<1x384x196xf32>) -> ()

Exception in gpu::mlir_op: /src/AMDMIGraphX/src/targets/gpu/mlir.cpp:731: run_backend_pipeline: MLIR backend compilation failed: Error: 'rock.gemm' op K dimensions don't match k_a = 108 k_b = 3456
Note: see current operation: "rock.gemm"(%7, %10, %11) <{aTransposed, arch = "gfx908:sramecc+:xnack-", derivedBlockSize = 128 : i32, features = #rock<GemmFeatures mfma|dot|atomic_add>, gridSize = 192 : i32, numCU = 120 : i32, params = #rock.xdlops_gemm_params<kpackPerBlock = 8, mPerBlock = 8, nPerBlock = 64, kpack = 8, mPerWave = 4, nPerWave = 64, forceUnroll = true>, storeMethod = #rock<StoreMethod set>}> : (memref<1x108x384xf32>, memref<1x3456x196xf32>, memref<1x384x196xf32>) -> ()

Exception in gpu::mlir_op: /src/AMDMIGraphX/src/targets/gpu/mlir.cpp:731: run_backend_pipeline: MLIR backend compilation failed: Error: 'rock.gemm' op K dimensions don't match k_a = 216 k_b = 6912
Note: see current operation: "rock.gemm"(%7, %10, %11) <{aTransposed, arch = "gfx908:sramecc+:xnack-", derivedBlockSize = 256 : i32, features = #rock<GemmFeatures mfma|dot|atomic_add>, gridSize = 24 : i32, numCU = 120 : i32, params = #rock.xdlops_gemm_params<kpackPerBlock = 2, mPerBlock = 32, nPerBlock = 64, kpack = 4, mPerWave = 8, nPerWave = 64, forceUnroll = true>, storeMethod = #rock<StoreMethod set>}> : (memref<1x216x768xf32>, memref<1x6912x49xf32>, memref<1x768x49xf32>) -> ()

Exception in gpu::mlir_op: /src/AMDMIGraphX/src/targets/gpu/mlir.cpp:731: run_backend_pipeline: MLIR backend compilation failed: Error: 'rock.gemm' op K dimensions don't match k_a = 216 k_b = 6912
Note: see current operation: "rock.gemm"(%7, %10, %11) <{aTransposed, arch = "gfx908:sramecc+:xnack-", derivedBlockSize = 256 : i32, features = #rock<GemmFeatures mfma|dot|atomic_add>, gridSize = 12 : i32, numCU = 120 : i32, params = #rock.xdlops_gemm_params<kpackPerBlock = 8, mPerBlock = 64, nPerBlock = 64, kpack = 4, mPerWave = 32, nPerWave = 32, forceUnroll = true>, storeMethod = #rock<StoreMethod set>}> : (memref<1x216x768xf32>, memref<1x6912x49xf32>, memref<1x768x49xf32>) -> ()

Exception in gpu::mlir_op: /src/AMDMIGraphX/src/targets/gpu/mlir.cpp:731: run_backend_pipeline: MLIR backend compilation failed: Error: 'rock.gemm' op K dimensions don't match k_a = 216 k_b = 6912
Note: see current operation: "rock.gemm"(%7, %10, %11) <{aTransposed, arch = "gfx908:sramecc+:xnack-", derivedBlockSize = 256 : i32, features = #rock<GemmFeatures mfma|dot|atomic_add>, gridSize = 12 : i32, numCU = 120 : i32, params = #rock.xdlops_gemm_params<kpackPerBlock = 4, mPerBlock = 64, nPerBlock = 64, kpack = 8, mPerWave = 32, nPerWave = 32, forceUnroll = true>, storeMethod = #rock<StoreMethod set>}> : (memref<1x216x768xf32>, memref<1x6912x49xf32>, memref<1x768x49xf32>) -> ()

Exception in gpu::mlir_op: /src/AMDMIGraphX/src/targets/gpu/mlir.cpp:731: run_backend_pipeline: MLIR backend compilation failed: Error: 'rock.gemm' op K dimensions don't match k_a = 216 k_b = 6912
Note: see current operation: "rock.gemm"(%7, %10, %11) <{aTransposed, arch = "gfx908:sramecc+:xnack-", derivedBlockSize = 256 : i32, features = #rock<GemmFeatures mfma|dot|atomic_add>, gridSize = 12 : i32, numCU = 120 : i32, params = #rock.xdlops_gemm_params<kpackPerBlock = 4, mPerBlock = 64, nPerBlock = 64, kpack = 4, mPerWave = 32, nPerWave = 32, forceUnroll = true>, storeMethod = #rock<StoreMethod set>}> : (memref<1x216x768xf32>, memref<1x6912x49xf32>, memref<1x768x49xf32>) -> ()

Exception in gpu::mlir_op: /src/AMDMIGraphX/src/targets/gpu/mlir.cpp:731: run_backend_pipeline: MLIR backend compilation failed: Error: 'rock.gemm' op K dimensions don't match k_a = 216 k_b = 6912
Note: see current operation: "rock.gemm"(%7, %10, %11) <{aTransposed, arch = "gfx908:sramecc+:xnack-", derivedBlockSize = 256 : i32, features = #rock<GemmFeatures mfma|dot|atomic_add>, gridSize = 12 : i32, numCU = 120 : i32, params = #rock.xdlops_gemm_params<kpackPerBlock = 4, mPerBlock = 64, nPerBlock = 64, kpack = 8, mPerWave = 16, nPerWave = 64, forceUnroll = true>, storeMethod = #rock<StoreMethod set>}> : (memref<1x216x768xf32>, memref<1x6912x49xf32>, memref<1x768x49xf32>) -> ()

Exception in gpu::mlir_op: /src/AMDMIGraphX/src/targets/gpu/mlir.cpp:731: run_backend_pipeline: MLIR backend compilation failed: Error: 'rock.gemm' op K dimensions don't match k_a = 216 k_b = 6912
Note: see current operation: "rock.gemm"(%7, %10, %11) <{aTransposed, arch = "gfx908:sramecc+:xnack-", derivedBlockSize = 256 : i32, features = #rock<GemmFeatures mfma|dot|atomic_add>, gridSize = 12 : i32, numCU = 120 : i32, params = #rock.xdlops_gemm_params<kpackPerBlock = 4, mPerBlock = 64, nPerBlock = 64, kpack = 4, mPerWave = 16, nPerWave = 64, forceUnroll = true>, storeMethod = #rock<StoreMethod set>}> : (memref<1x216x768xf32>, memref<1x6912x49xf32>, memref<1x768x49xf32>) -> ()

Exception in gpu::mlir_op: /src/AMDMIGraphX/src/targets/gpu/mlir.cpp:731: run_backend_pipeline: MLIR backend compilation failed: Error: 'rock.gemm' op K dimensions don't match k_a = 216 k_b = 6912
Note: see current operation: "rock.gemm"(%7, %10, %11) <{aTransposed, arch = "gfx908:sramecc+:xnack-", derivedBlockSize = 256 : i32, features = #rock<GemmFeatures mfma|dot|atomic_add>, gridSize = 12 : i32, numCU = 120 : i32, params = #rock.xdlops_gemm_params<kpackPerBlock = 2, mPerBlock = 64, nPerBlock = 64, kpack = 8, mPerWave = 32, nPerWave = 32, forceUnroll = true>, storeMethod = #rock<StoreMethod set>}> : (memref<1x216x768xf32>, memref<1x6912x49xf32>, memref<1x768x49xf32>) -> ()

Exception in gpu::mlir_op: /src/AMDMIGraphX/src/targets/gpu/mlir.cpp:731: run_backend_pipeline: MLIR backend compilation failed: Error: 'rock.gemm' op K dimensions don't match k_a = 216 k_b = 6912
Note: see current operation: "rock.gemm"(%7, %10, %11) <{aTransposed, arch = "gfx908:sramecc+:xnack-", derivedBlockSize = 64 : i32, features = #rock<GemmFeatures mfma|dot|atomic_add>, gridSize = 24 : i32, numCU = 120 : i32, params = #rock.xdlops_gemm_params<kpackPerBlock = 4, mPerBlock = 32, nPerBlock = 64, kpack = 4, mPerWave = 32, nPerWave = 64, forceUnroll = true>, storeMethod = #rock<StoreMethod set>}> : (memref<1x216x768xf32>, memref<1x6912x49xf32>, memref<1x768x49xf32>) -> ()

Exception in gpu::mlir_op: /src/AMDMIGraphX/src/targets/gpu/mlir.cpp:731: run_backend_pipeline: MLIR backend compilation failed: Error: 'rock.gemm' op K dimensions don't match k_a = 216 k_b = 6912
Note: see current operation: "rock.gemm"(%7, %10, %11) <{aTransposed, arch = "gfx908:sramecc+:xnack-", derivedBlockSize = 256 : i32, features = #rock<GemmFeatures mfma|dot|atomic_add>, gridSize = 24 : i32, numCU = 120 : i32, params = #rock.xdlops_gemm_params<kpackPerBlock = 4, mPerBlock = 32, nPerBlock = 64, kpack = 4, mPerWave = 8, nPerWave = 64, forceUnroll = true>, storeMethod = #rock<StoreMethod set>}> : (memref<1x216x768xf32>, memref<1x6912x49xf32>, memref<1x768x49xf32>) -> ()

Exception in gpu::mlir_op: /src/AMDMIGraphX/src/targets/gpu/mlir.cpp:731: run_backend_pipeline: MLIR backend compilation failed: Error: 'rock.gemm' op K dimensions don't match k_a = 216 k_b = 6912
Note: see current operation: "rock.gemm"(%7, %10, %11) <{aTransposed, arch = "gfx908:sramecc+:xnack-", derivedBlockSize = 128 : i32, features = #rock<GemmFeatures mfma|dot|atomic_add>, gridSize = 24 : i32, numCU = 120 : i32, params = #rock.xdlops_gemm_params<kpackPerBlock = 8, mPerBlock = 32, nPerBlock = 64, kpack = 4, mPerWave = 32, nPerWave = 32, forceUnroll = true>, storeMethod = #rock<StoreMethod set>}> : (memref<1x216x768xf32>, memref<1x6912x49xf32>, memref<1x768x49xf32>) -> ()

Exception in gpu::mlir_op: /src/AMDMIGraphX/src/targets/gpu/mlir.cpp:731: run_backend_pipeline: MLIR backend compilation failed: Error: 'rock.gemm' op K dimensions don't match k_a = 216 k_b = 6912
Note: see current operation: "rock.gemm"(%7, %10, %11) <{aTransposed, arch = "gfx908:sramecc+:xnack-", derivedBlockSize = 256 : i32, features = #rock<GemmFeatures mfma|dot|atomic_add>, gridSize = 24 : i32, numCU = 120 : i32, params = #rock.xdlops_gemm_params<kpackPerBlock = 8, mPerBlock = 32, nPerBlock = 64, kpack = 4, mPerWave = 8, nPerWave = 64, forceUnroll = true>, storeMethod = #rock<StoreMethod set>}> : (memref<1x216x768xf32>, memref<1x6912x49xf32>, memref<1x768x49xf32>) -> ()

Exception in gpu::mlir_op: /src/AMDMIGraphX/src/targets/gpu/mlir.cpp:731: run_backend_pipeline: MLIR backend compilation failed: Error: 'rock.gemm' op K dimensions don't match k_a = 216 k_b = 6912
Note: see current operation: "rock.gemm"(%7, %10, %11) <{aTransposed, arch = "gfx908:sramecc+:xnack-", derivedBlockSize = 128 : i32, features = #rock<GemmFeatures mfma|dot|atomic_add>, gridSize = 24 : i32, numCU = 120 : i32, params = #rock.xdlops_gemm_params<kpackPerBlock = 2, mPerBlock = 32, nPerBlock = 64, kpack = 8, mPerWave = 32, nPerWave = 32, forceUnroll = true>, storeMethod = #rock<StoreMethod set>}> : (memref<1x216x768xf32>, memref<1x6912x49xf32>, memref<1x768x49xf32>) -> ()

Exception in gpu::mlir_op: /src/AMDMIGraphX/src/targets/gpu/mlir.cpp:731: run_backend_pipeline: MLIR backend compilation failed: Error: 'rock.gemm' op K dimensions don't match k_a = 216 k_b = 6912
Note: see current operation: "rock.gemm"(%7, %10, %11) <{aTransposed, arch = "gfx908:sramecc+:xnack-", derivedBlockSize = 256 : i32, features = #rock<GemmFeatures mfma|dot|atomic_add>, gridSize = 48 : i32, numCU = 120 : i32, params = #rock.xdlops_gemm_params<kpackPerBlock = 8, mPerBlock = 32, nPerBlock = 32, kpack = 4, mPerWave = 16, nPerWave = 16, forceUnroll = true>, storeMethod = #rock<StoreMethod set>}> : (memref<1x216x768xf32>, memref<1x6912x49xf32>, memref<1x768x49xf32>) -> ()

Exception in gpu::mlir_op: /src/AMDMIGraphX/src/targets/gpu/mlir.cpp:731: run_backend_pipeline: MLIR backend compilation failed: Error: 'rock.gemm' op K dimensions don't match k_a = 216 k_b = 6912
Note: see current operation: "rock.gemm"(%7, %10, %11) <{aTransposed, arch = "gfx908:sramecc+:xnack-", derivedBlockSize = 256 : i32, features = #rock<GemmFeatures mfma|dot|atomic_add>, gridSize = 48 : i32, numCU = 120 : i32, params = #rock.xdlops_gemm_params<kpackPerBlock = 4, mPerBlock = 32, nPerBlock = 32, kpack = 8, mPerWave = 16, nPerWave = 16, forceUnroll = true>, storeMethod = #rock<StoreMethod set>}> : (memref<1x216x768xf32>, memref<1x6912x49xf32>, memref<1x768x49xf32>) -> ()

Exception in gpu::mlir_op: /src/AMDMIGraphX/src/targets/gpu/mlir.cpp:731: run_backend_pipeline: MLIR backend compilation failed: Error: 'rock.gemm' op K dimensions don't match k_a = 216 k_b = 6912
Note: see current operation: "rock.gemm"(%7, %10, %11) <{aTransposed, arch = "gfx908:sramecc+:xnack-", derivedBlockSize = 256 : i32, features = #rock<GemmFeatures mfma|dot|atomic_add>, gridSize = 48 : i32, numCU = 120 : i32, params = #rock.xdlops_gemm_params<kpackPerBlock = 8, mPerBlock = 16, nPerBlock = 64, kpack = 4, mPerWave = 16, nPerWave = 16, forceUnroll = true>, storeMethod = #rock<StoreMethod set>}> : (memref<1x216x768xf32>, memref<1x6912x49xf32>, memref<1x768x49xf32>) -> ()

Exception in gpu::mlir_op: /src/AMDMIGraphX/src/targets/gpu/mlir.cpp:731: run_backend_pipeline: MLIR backend compilation failed: Error: 'rock.gemm' op K dimensions don't match k_a = 216 k_b = 6912
Note: see current operation: "rock.gemm"(%7, %10, %11) <{aTransposed, arch = "gfx908:sramecc+:xnack-", derivedBlockSize = 128 : i32, features = #rock<GemmFeatures mfma|dot|atomic_add>, gridSize = 96 : i32, numCU = 120 : i32, params = #rock.xdlops_gemm_params<kpackPerBlock = 8, mPerBlock = 16, nPerBlock = 32, kpack = 4, mPerWave = 16, nPerWave = 16, forceUnroll = true>, storeMethod = #rock<StoreMethod set>}> : (memref<1x216x768xf32>, memref<1x6912x49xf32>, memref<1x768x49xf32>) -> ()

Exception in gpu::mlir_op: /src/AMDMIGraphX/src/targets/gpu/mlir.cpp:731: run_backend_pipeline: MLIR backend compilation failed: Error: 'rock.gemm' op K dimensions don't match k_a = 108 k_b = 3456
Note: see current operation: "rock.gemm"(%7, %10, %11) <{aTransposed, arch = "gfx908:sramecc+:xnack-", derivedBlockSize = 64 : i32, features = #rock<GemmFeatures mfma|dot|atomic_add>, gridSize = 312 : i32, numCU = 120 : i32, params = #rock.xdlops_gemm_params<kpackPerBlock = 4, mPerBlock = 16, nPerBlock = 16, kpack = 4, mPerWave = 16, nPerWave = 16, forceUnroll = true>, storeMethod = #rock<StoreMethod set>}> : (memref<1x108x384xf32>, memref<1x3456x196xf32>, memref<1x384x196xf32>) -> ()

Exception in gpu::mlir_op: /src/AMDMIGraphX/src/targets/gpu/mlir.cpp:731: run_backend_pipeline: MLIR backend compilation failed: Error: 'rock.gemm' op K dimensions don't match k_a = 108 k_b = 3456
Note: see current operation: "rock.gemm"(%7, %10, %11) <{aTransposed, arch = "gfx908:sramecc+:xnack-", derivedBlockSize = 64 : i32, features = #rock<GemmFeatures mfma|dot|atomic_add>, gridSize = 312 : i32, numCU = 120 : i32, params = #rock.xdlops_gemm_params<kpackPerBlock = 8, mPerBlock = 16, nPerBlock = 16, kpack = 8, mPerWave = 16, nPerWave = 16, forceUnroll = true>, storeMethod = #rock<StoreMethod set>}> : (memref<1x108x384xf32>, memref<1x3456x196xf32>, memref<1x384x196xf32>) -> ()

Exception in gpu::mlir_op: /src/AMDMIGraphX/src/targets/gpu/mlir.cpp:731: run_backend_pipeline: MLIR backend compilation failed: Error: 'rock.gemm' op K dimensions don't match k_a = 108 k_b = 3456
Note: see current operation: "rock.gemm"(%7, %10, %11) <{aTransposed, arch = "gfx908:sramecc+:xnack-", derivedBlockSize = 256 : i32, features = #rock<GemmFeatures mfma|dot|atomic_add>, gridSize = 3 : i32, numCU = 120 : i32, params = #rock.xdlops_gemm_params<kpackPerBlock = 4, mPerBlock = 128, nPerBlock = 256, kpack = 4, mPerWave = 64, nPerWave = 128, forceUnroll = true>, storeMethod = #rock<StoreMethod set>}> : (memref<1x108x384xf32>, memref<1x3456x196xf32>, memref<1x384x196xf32>) -> ()

Exception in gpu::mlir_op: /src/AMDMIGraphX/src/targets/gpu/mlir.cpp:731: run_backend_pipeline: MLIR backend compilation failed: Error: 'rock.gemm' op K dimensions don't match k_a = 108 k_b = 3456
Note: see current operation: "rock.gemm"(%7, %10, %11) <{aTransposed, arch = "gfx908:sramecc+:xnack-", derivedBlockSize = 128 : i32, features = #rock<GemmFeatures mfma|dot|atomic_add>, gridSize = 6 : i32, numCU = 120 : i32, params = #rock.xdlops_gemm_params<kpackPerBlock = 8, mPerBlock = 128, nPerBlock = 128, kpack = 1, mPerWave = 64, nPerWave = 128, forceUnroll = true>, storeMethod = #rock<StoreMethod set>}> : (memref<1x108x384xf32>, memref<1x3456x196xf32>, memref<1x384x196xf32>) -> ()

Exception in gpu::mlir_op: /src/AMDMIGraphX/src/targets/gpu/mlir.cpp:731: run_backend_pipeline: MLIR backend compilation failed: Error: 'rock.gemm' op K dimensions don't match k_a = 108 k_b = 3456
Note: see current operation: "rock.gemm"(%7, %10, %11) <{aTransposed, arch = "gfx908:sramecc+:xnack-", derivedBlockSize = 256 : i32, features = #rock<GemmFeatures mfma|dot|atomic_add>, gridSize = 6 : i32, numCU = 120 : i32, params = #rock.xdlops_gemm_params<kpackPerBlock = 8, mPerBlock = 128, nPerBlock = 128, kpack = 1, mPerWave = 64, nPerWave = 64, forceUnroll = true>, storeMethod = #rock<StoreMethod set>}> : (memref<1x108x384xf32>, memref<1x3456x196xf32>, memref<1x384x196xf32>) -> ()

Exception in gpu::mlir_op: /src/AMDMIGraphX/src/targets/gpu/mlir.cpp:731: run_backend_pipeline: MLIR backend compilation failed: Error: 'rock.gemm' op K dimensions don't match k_a = 108 k_b = 3456
Note: see current operation: "rock.gemm"(%7, %10, %11) <{aTransposed, arch = "gfx908:sramecc+:xnack-", derivedBlockSize = 128 : i32, features = #rock<GemmFeatures mfma|dot|atomic_add>, gridSize = 6 : i32, numCU = 120 : i32, params = #rock.xdlops_gemm_params<kpackPerBlock = 4, mPerBlock = 128, nPerBlock = 128, kpack = 4, mPerWave = 64, nPerWave = 128, forceUnroll = true>, storeMethod = #rock<StoreMethod set>}> : (memref<1x108x384xf32>, memref<1x3456x196xf32>, memref<1x384x196xf32>) -> ()

Exception in gpu::mlir_op: /src/AMDMIGraphX/src/targets/gpu/mlir.cpp:731: run_backend_pipeline: MLIR backend compilation failed: Error: 'rock.gemm' op K dimensions don't match k_a = 108 k_b = 3456
Note: see current operation: "rock.gemm"(%7, %10, %11) <{aTransposed, arch = "gfx908:sramecc+:xnack-", derivedBlockSize = 256 : i32, features = #rock<GemmFeatures mfma|dot|atomic_add>, gridSize = 6 : i32, numCU = 120 : i32, params = #rock.xdlops_gemm_params<kpackPerBlock = 4, mPerBlock = 128, nPerBlock = 128, kpack = 4, mPerWave = 64, nPerWave = 64, forceUnroll = true>, storeMethod = #rock<StoreMethod set>}> : (memref<1x108x384xf32>, memref<1x3456x196xf32>, memref<1x384x196xf32>) -> ()

Exception in gpu::mlir_op: /src/AMDMIGraphX/src/targets/gpu/mlir.cpp:731: run_backend_pipeline: MLIR backend compilation failed: Error: 'rock.gemm' op K dimensions don't match k_a = 108 k_b = 3456
Note: see current operation: "rock.gemm"(%7, %10, %11) <{aTransposed, arch = "gfx908:sramecc+:xnack-", derivedBlockSize = 128 : i32, features = #rock<GemmFeatures mfma|dot|atomic_add>, gridSize = 6 : i32, numCU = 120 : i32, params = #rock.xdlops_gemm_params<kpackPerBlock = 2, mPerBlock = 128, nPerBlock = 128, kpack = 8, mPerWave = 64, nPerWave = 128, forceUnroll = true>, storeMethod = #rock<StoreMethod set>}> : (memref<1x108x384xf32>, memref<1x3456x196xf32>, memref<1x384x196xf32>) -> ()

Exception in gpu::mlir_op: /src/AMDMIGraphX/src/targets/gpu/mlir.cpp:731: run_backend_pipeline: MLIR backend compilation failed: Error: 'rock.gemm' op K dimensions don't match k_a = 108 k_b = 3456
Note: see current operation: "rock.gemm"(%7, %10, %11) <{aTransposed, arch = "gfx908:sramecc+:xnack-", derivedBlockSize = 256 : i32, features = #rock<GemmFeatures mfma|dot|atomic_add>, gridSize = 6 : i32, numCU = 120 : i32, params = #rock.xdlops_gemm_params<kpackPerBlock = 2, mPerBlock = 128, nPerBlock = 128, kpack = 8, mPerWave = 64, nPerWave = 64, forceUnroll = true>, storeMethod = #rock<StoreMethod set>}> : (memref<1x108x384xf32>, memref<1x3456x196xf32>, memref<1x384x196xf32>) -> ()

Exception in gpu::mlir_op: /src/AMDMIGraphX/src/targets/gpu/mlir.cpp:731: run_backend_pipeline: MLIR backend compilation failed: Error: 'rock.gemm' op K dimensions don't match k_a = 108 k_b = 3456
Note: see current operation: "rock.gemm"(%7, %10, %11) <{aTransposed, arch = "gfx908:sramecc+:xnack-", derivedBlockSize = 256 : i32, features = #rock<GemmFeatures mfma|dot|atomic_add>, gridSize = 6 : i32, numCU = 120 : i32, params = #rock.xdlops_gemm_params<kpackPerBlock = 2, mPerBlock = 128, nPerBlock = 128, kpack = 4, mPerWave = 64, nPerWave = 64, forceUnroll = true>, storeMethod = #rock<StoreMethod set>}> : (memref<1x108x384xf32>, memref<1x3456x196xf32>, memref<1x384x196xf32>) -> ()

Exception in gpu::mlir_op: /src/AMDMIGraphX/src/targets/gpu/mlir.cpp:731: run_backend_pipeline: MLIR backend compilation failed: Error: 'rock.gemm' op K dimensions don't match k_a = 108 k_b = 3456
Note: see current operation: "rock.gemm"(%7, %10, %11) <{aTransposed, arch = "gfx908:sramecc+:xnack-", derivedBlockSize = 256 : i32, features = #rock<GemmFeatures mfma|dot|atomic_add>, gridSize = 6 : i32, numCU = 120 : i32, params = #rock.xdlops_gemm_params<kpackPerBlock = 8, mPerBlock = 64, nPerBlock = 256, kpack = 1, mPerWave = 64, nPerWave = 64, forceUnroll = true>, storeMethod = #rock<StoreMethod set>}> : (memref<1x108x384xf32>, memref<1x3456x196xf32>, memref<1x384x196xf32>) -> ()

Exception in gpu::mlir_op: /src/AMDMIGraphX/src/targets/gpu/mlir.cpp:731: run_backend_pipeline: MLIR backend compilation failed: Error: 'rock.gemm' op K dimensions don't match k_a = 108 k_b = 3456
Note: see current operation: "rock.gemm"(%7, %10, %11) <{aTransposed, arch = "gfx908:sramecc+:xnack-", derivedBlockSize = 256 : i32, features = #rock<GemmFeatures mfma|dot|atomic_add>, gridSize = 6 : i32, numCU = 120 : i32, params = #rock.xdlops_gemm_params<kpackPerBlock = 4, mPerBlock = 64, nPerBlock = 256, kpack = 4, mPerWave = 64, nPerWave = 64, forceUnroll = true>, storeMethod = #rock<StoreMethod set>}> : (memref<1x108x384xf32>, memref<1x3456x196xf32>, memref<1x384x196xf32>) -> ()

Exception in gpu::mlir_op: /src/AMDMIGraphX/src/targets/gpu/mlir.cpp:731: run_backend_pipeline: MLIR backend compilation failed: Error: 'rock.gemm' op K dimensions don't match k_a = 108 k_b = 3456
Note: see current operation: "rock.gemm"(%7, %10, %11) <{aTransposed, arch = "gfx908:sramecc+:xnack-", derivedBlockSize = 256 : i32, features = #rock<GemmFeatures mfma|dot|atomic_add>, gridSize = 12 : i32, numCU = 120 : i32, params = #rock.xdlops_gemm_params<kpackPerBlock = 4, mPerBlock = 64, nPerBlock = 128, kpack = 4, mPerWave = 32, nPerWave = 64, forceUnroll = true>, storeMethod = #rock<StoreMethod set>}> : (memref<1x108x384xf32>, memref<1x3456x196xf32>, memref<1x384x196xf32>) -> ()

Exception in gpu::mlir_op: /src/AMDMIGraphX/src/targets/gpu/mlir.cpp:731: run_backend_pipeline: MLIR backend compilation failed: Error: 'rock.gemm' op K dimensions don't match k_a = 108 k_b = 3456
Note: see current operation: "rock.gemm"(%7, %10, %11) <{aTransposed, arch = "gfx908:sramecc+:xnack-", derivedBlockSize = 256 : i32, features = #rock<GemmFeatures mfma|dot|atomic_add>, gridSize = 12 : i32, numCU = 120 : i32, params = #rock.xdlops_gemm_params<kpackPerBlock = 2, mPerBlock = 64, nPerBlock = 128, kpack = 8, mPerWave = 32, nPerWave = 64, forceUnroll = true>, storeMethod = #rock<StoreMethod set>}> : (memref<1x108x384xf32>, memref<1x3456x196xf32>, memref<1x384x196xf32>) -> ()

Exception in gpu::mlir_op: /src/AMDMIGraphX/src/targets/gpu/mlir.cpp:731: run_backend_pipeline: MLIR backend compilation failed: Error: 'rock.gemm' op K dimensions don't match k_a = 108 k_b = 3456
Note: see current operation: "rock.gemm"(%7, %10, %11) <{aTransposed, arch = "gfx908:sramecc+:xnack-", derivedBlockSize = 256 : i32, features = #rock<GemmFeatures mfma|dot|atomic_add>, gridSize = 12 : i32, numCU = 120 : i32, params = #rock.xdlops_gemm_params<kpackPerBlock = 2, mPerBlock = 64, nPerBlock = 128, kpack = 4, mPerWave = 32, nPerWave = 64, forceUnroll = true>, storeMethod = #rock<StoreMethod set>}> : (memref<1x108x384xf32>, memref<1x3456x196xf32>, memref<1x384x196xf32>) -> ()

Exception in gpu::mlir_op: /src/AMDMIGraphX/src/targets/gpu/mlir.cpp:731: run_backend_pipeline: MLIR backend compilation failed: Error: 'rock.gemm' op K dimensions don't match k_a = 108 k_b = 3456
Note: see current operation: "rock.gemm"(%7, %10, %11) <{aTransposed, arch = "gfx908:sramecc+:xnack-", derivedBlockSize = 256 : i32, features = #rock<GemmFeatures mfma|dot|atomic_add>, gridSize = 24 : i32, numCU = 120 : i32, params = #rock.xdlops_gemm_params<kpackPerBlock = 4, mPerBlock = 64, nPerBlock = 64, kpack = 4, mPerWave = 32, nPerWave = 32, forceUnroll = true>, storeMethod = #rock<StoreMethod set>}> : (memref<1x108x384xf32>, memref<1x3456x196xf32>, memref<1x384x196xf32>) -> ()

Exception in gpu::mlir_op: /src/AMDMIGraphX/src/targets/gpu/mlir.cpp:731: run_backend_pipeline: MLIR backend compilation failed: Error: 'rock.gemm' op K dimensions don't match k_a = 108 k_b = 3456
Note: see current operation: "rock.gemm"(%7, %10, %11) <{aTransposed, arch = "gfx908:sramecc+:xnack-", derivedBlockSize = 256 : i32, features = #rock<GemmFeatures mfma|dot|atomic_add>, gridSize = 24 : i32, numCU = 120 : i32, params = #rock.xdlops_gemm_params<kpackPerBlock = 4, mPerBlock = 64, nPerBlock = 64, kpack = 4, mPerWave = 16, nPerWave = 64, forceUnroll = true>, storeMethod = #rock<StoreMethod set>}> : (memref<1x108x384xf32>, memref<1x3456x196xf32>, memref<1x384x196xf32>) -> ()

Exception in gpu::mlir_op: /src/AMDMIGraphX/src/targets/gpu/mlir.cpp:731: run_backend_pipeline: MLIR backend compilation failed: Error: 'rock.gemm' op K dimensions don't match k_a = 108 k_b = 3456
Note: see current operation: "rock.gemm"(%7, %10, %11) <{aTransposed, arch = "gfx908:sramecc+:xnack-", derivedBlockSize = 256 : i32, features = #rock<GemmFeatures mfma|dot|atomic_add>, gridSize = 24 : i32, numCU = 120 : i32, params = #rock.xdlops_gemm_params<kpackPerBlock = 2, mPerBlock = 64, nPerBlock = 64, kpack = 8, mPerWave = 32, nPerWave = 32, forceUnroll = true>, storeMethod = #rock<StoreMethod set>}> : (memref<1x108x384xf32>, memref<1x3456x196xf32>, memref<1x384x196xf32>) -> ()

Exception in gpu::mlir_op: /src/AMDMIGraphX/src/targets/gpu/mlir.cpp:731: run_backend_pipeline: MLIR backend compilation failed: Error: 'rock.gemm' op K dimensions don't match k_a = 108 k_b = 3456
Note: see current operation: "rock.gemm"(%7, %10, %11) <{aTransposed, arch = "gfx908:sramecc+:xnack-", derivedBlockSize = 256 : i32, features = #rock<GemmFeatures mfma|dot|atomic_add>, gridSize = 24 : i32, numCU = 120 : i32, params = #rock.xdlops_gemm_params<kpackPerBlock = 4, mPerBlock = 32, nPerBlock = 128, kpack = 4, mPerWave = 32, nPerWave = 32, forceUnroll = true>, storeMethod = #rock<StoreMethod set>}> : (memref<1x108x384xf32>, memref<1x3456x196xf32>, memref<1x384x196xf32>) -> ()

Exception in gpu::mlir_op: /src/AMDMIGraphX/src/targets/gpu/mlir.cpp:731: run_backend_pipeline: MLIR backend compilation failed: Error: 'rock.gemm' op K dimensions don't match k_a = 108 k_b = 3456
Note: see current operation: "rock.gemm"(%7, %10, %11) <{aTransposed, arch = "gfx908:sramecc+:xnack-", derivedBlockSize = 64 : i32, features = #rock<GemmFeatures mfma|dot|atomic_add>, gridSize = 48 : i32, numCU = 120 : i32, params = #rock.xdlops_gemm_params<kpackPerBlock = 4, mPerBlock = 32, nPerBlock = 64, kpack = 4, mPerWave = 32, nPerWave = 64, forceUnroll = true>, storeMethod = #rock<StoreMethod set>}> : (memref<1x108x384xf32>, memref<1x3456x196xf32>, memref<1x384x196xf32>) -> ()

Exception in gpu::mlir_op: /src/AMDMIGraphX/src/targets/gpu/mlir.cpp:731: run_backend_pipeline: MLIR backend compilation failed: Error: 'rock.gemm' op K dimensions don't match k_a = 108 k_b = 3456
Note: see current operation: "rock.gemm"(%7, %10, %11) <{aTransposed, arch = "gfx908:sramecc+:xnack-", derivedBlockSize = 256 : i32, features = #rock<GemmFeatures mfma|dot|atomic_add>, gridSize = 48 : i32, numCU = 120 : i32, params = #rock.xdlops_gemm_params<kpackPerBlock = 4, mPerBlock = 32, nPerBlock = 64, kpack = 4, mPerWave = 8, nPerWave = 64, forceUnroll = true>, storeMethod = #rock<StoreMethod set>}> : (memref<1x108x384xf32>, memref<1x3456x196xf32>, memref<1x384x196xf32>) -> ()

Exception in gpu::mlir_op: /src/AMDMIGraphX/src/targets/gpu/mlir.cpp:731: run_backend_pipeline: MLIR backend compilation failed: Error: 'rock.gemm' op K dimensions don't match k_a = 108 k_b = 3456
Note: see current operation: "rock.gemm"(%7, %10, %11) <{aTransposed, arch = "gfx908:sramecc+:xnack-", derivedBlockSize = 128 : i32, features = #rock<GemmFeatures mfma|dot|atomic_add>, gridSize = 48 : i32, numCU = 120 : i32, params = #rock.xdlops_gemm_params<kpackPerBlock = 2, mPerBlock = 32, nPerBlock = 64, kpack = 8, mPerWave = 32, nPerWave = 32, forceUnroll = true>, storeMethod = #rock<StoreMethod set>}> : (memref<1x108x384xf32>, memref<1x3456x196xf32>, memref<1x384x196xf32>) -> ()

Exception in gpu::mlir_op: /src/AMDMIGraphX/src/targets/gpu/mlir.cpp:731: run_backend_pipeline: MLIR backend compilation failed: Error: 'rock.gemm' op K dimensions don't match k_a = 108 k_b = 3456
Note: see current operation: "rock.gemm"(%7, %10, %11) <{aTransposed, arch = "gfx908:sramecc+:xnack-", derivedBlockSize = 256 : i32, features = #rock<GemmFeatures mfma|dot|atomic_add>, gridSize = 48 : i32, numCU = 120 : i32, params = #rock.xdlops_gemm_params<kpackPerBlock = 2, mPerBlock = 32, nPerBlock = 64, kpack = 4, mPerWave = 8, nPerWave = 64, forceUnroll = true>, storeMethod = #rock<StoreMethod set>}> : (memref<1x108x384xf32>, memref<1x3456x196xf32>, memref<1x384x196xf32>) -> ()

Exception in gpu::mlir_op: /src/AMDMIGraphX/src/targets/gpu/mlir.cpp:731: run_backend_pipeline: MLIR backend compilation failed: Error: 'rock.gemm' op K dimensions don't match k_a = 108 k_b = 3456
Note: see current operation: "rock.gemm"(%7, %10, %11) <{aTransposed, arch = "gfx908:sramecc+:xnack-", derivedBlockSize = 256 : i32, features = #rock<GemmFeatures mfma|dot|atomic_add>, gridSize = 84 : i32, numCU = 120 : i32, params = #rock.xdlops_gemm_params<kpackPerBlock = 8, mPerBlock = 32, nPerBlock = 32, kpack = 8, mPerWave = 16, nPerWave = 16, forceUnroll = true>, storeMethod = #rock<StoreMethod set>}> : (memref<1x108x384xf32>, memref<1x3456x196xf32>, memref<1x384x196xf32>) -> ()

Exception in gpu::mlir_op: /src/AMDMIGraphX/src/targets/gpu/mlir.cpp:731: run_backend_pipeline: MLIR backend compilation failed: Error: 'rock.gemm' op K dimensions don't match k_a = 108 k_b = 3456
Note: see current operation: "rock.gemm"(%7, %10, %11) <{aTransposed, arch = "gfx908:sramecc+:xnack-", derivedBlockSize = 256 : i32, features = #rock<GemmFeatures mfma|dot|atomic_add>, gridSize = 84 : i32, numCU = 120 : i32, params = #rock.xdlops_gemm_params<kpackPerBlock = 8, mPerBlock = 32, nPerBlock = 32, kpack = 4, mPerWave = 16, nPerWave = 16, forceUnroll = true>, storeMethod = #rock<StoreMethod set>}> : (memref<1x108x384xf32>, memref<1x3456x196xf32>, memref<1x384x196xf32>) -> ()

Exception in gpu::mlir_op: /src/AMDMIGraphX/src/targets/gpu/mlir.cpp:731: run_backend_pipeline: MLIR backend compilation failed: Error: 'rock.gemm' op K dimensions don't match k_a = 108 k_b = 3456
Note: see current operation: "rock.gemm"(%7, %10, %11) <{aTransposed, arch = "gfx908:sramecc+:xnack-", derivedBlockSize = 256 : i32, features = #rock<GemmFeatures mfma|dot|atomic_add>, gridSize = 84 : i32, numCU = 120 : i32, params = #rock.xdlops_gemm_params<kpackPerBlock = 4, mPerBlock = 32, nPerBlock = 32, kpack = 8, mPerWave = 16, nPerWave = 16, forceUnroll = true>, storeMethod = #rock<StoreMethod set>}> : (memref<1x108x384xf32>, memref<1x3456x196xf32>, memref<1x384x196xf32>) -> ()

Exception in gpu::mlir_op: /src/AMDMIGraphX/src/targets/gpu/mlir.cpp:731: run_backend_pipeline: MLIR backend compilation failed: Error: 'rock.gemm' op K dimensions don't match k_a = 108 k_b = 3456
Note: see current operation: "rock.gemm"(%7, %10, %11) <{aTransposed, arch = "gfx908:sramecc+:xnack-", derivedBlockSize = 128 : i32, features = #rock<GemmFeatures mfma|dot|atomic_add>, gridSize = 168 : i32, numCU = 120 : i32, params = #rock.xdlops_gemm_params<kpackPerBlock = 8, mPerBlock = 16, nPerBlock = 32, kpack = 8, mPerWave = 16, nPerWave = 16, forceUnroll = true>, storeMethod = #rock<StoreMethod set>}> : (memref<1x108x384xf32>, memref<1x3456x196xf32>, memref<1x384x196xf32>) -> ()

Exception in gpu::mlir_op: /src/AMDMIGraphX/src/targets/gpu/mlir.cpp:731: run_backend_pipeline: MLIR backend compilation failed: Error: 'rock.gemm' op K dimensions don't match k_a = 108 k_b = 3456
Note: see current operation: "rock.gemm"(%7, %10, %11) <{aTransposed, arch = "gfx908:sramecc+:xnack-", derivedBlockSize = 128 : i32, features = #rock<GemmFeatures mfma|dot|atomic_add>, gridSize = 168 : i32, numCU = 120 : i32, params = #rock.xdlops_gemm_params<kpackPerBlock = 8, mPerBlock = 16, nPerBlock = 32, kpack = 4, mPerWave = 16, nPerWave = 16, forceUnroll = true>, storeMethod = #rock<StoreMethod set>}> : (memref<1x108x384xf32>, memref<1x3456x196xf32>, memref<1x384x196xf32>) -> ()

Exception in gpu::mlir_op: /src/AMDMIGraphX/src/targets/gpu/mlir.cpp:731: run_backend_pipeline: MLIR backend compilation failed: Error: 'rock.gemm' op K dimensions don't match k_a = 108 k_b = 3456
Note: see current operation: "rock.gemm"(%7, %10, %11) <{aTransposed, arch = "gfx908:sramecc+:xnack-", derivedBlockSize = 64 : i32, features = #rock<GemmFeatures mfma|dot|atomic_add>, gridSize = 384 : i32, numCU = 120 : i32, params = #rock.xdlops_gemm_params<kpackPerBlock = 16, mPerBlock = 4, nPerBlock = 64, kpack = 1, mPerWave = 4, nPerWave = 64, forceUnroll = true>, storeMethod = #rock<StoreMethod set>}> : (memref<1x108x384xf32>, memref<1x3456x196xf32>, memref<1x384x196xf32>) -> ()

Exception in gpu::mlir_op: /src/AMDMIGraphX/src/targets/gpu/mlir.cpp:731: run_backend_pipeline: MLIR backend compilation failed: Error: 'rock.gemm' op K dimensions don't match k_a = 108 k_b = 3456
Note: see current operation: "rock.gemm"(%7, %10, %11) <{aTransposed, arch = "gfx908:sramecc+:xnack-", derivedBlockSize = 64 : i32, features = #rock<GemmFeatures mfma|dot|atomic_add>, gridSize = 384 : i32, numCU = 120 : i32, params = #rock.xdlops_gemm_params<kpackPerBlock = 2, mPerBlock = 4, nPerBlock = 64, kpack = 8, mPerWave = 4, nPerWave = 64, forceUnroll = true>, storeMethod = #rock<StoreMethod set>}> : (memref<1x108x384xf32>, memref<1x3456x196xf32>, memref<1x384x196xf32>) -> ()

Exception in gpu::mlir_op: /src/AMDMIGraphX/src/targets/gpu/mlir.cpp:731: run_backend_pipeline: MLIR backend compilation failed: Error: 'rock.gemm' op K dimensions don't match k_a = 108 k_b = 3456
Note: see current operation: "rock.gemm"(%7, %10, %11) <{aTransposed, arch = "gfx908:sramecc+:xnack-", derivedBlockSize = 256 : i32, features = #rock<GemmFeatures mfma|dot|atomic_add>, gridSize = 6 : i32, numCU = 120 : i32, params = #rock.xdlops_gemm_params<kpackPerBlock = 8, mPerBlock = 128, nPerBlock = 128, kpack = 4, mPerWave = 64, nPerWave = 64, forceUnroll = true>, storeMethod = #rock<StoreMethod set>}> : (memref<1x108x384xf32>, memref<1x3456x196xf32>, memref<1x384x196xf32>) -> ()

Exception in gpu::mlir_op: /src/AMDMIGraphX/src/targets/gpu/mlir.cpp:731: run_backend_pipeline: MLIR backend compilation failed: Error: 'rock.gemm' op K dimensions don't match k_a = 108 k_b = 3456
Note: see current operation: "rock.gemm"(%7, %10, %11) <{aTransposed, arch = "gfx908:sramecc+:xnack-", derivedBlockSize = 256 : i32, features = #rock<GemmFeatures mfma|dot|atomic_add>, gridSize = 6 : i32, numCU = 120 : i32, params = #rock.xdlops_gemm_params<kpackPerBlock = 4, mPerBlock = 128, nPerBlock = 128, kpack = 8, mPerWave = 64, nPerWave = 64, forceUnroll = true>, storeMethod = #rock<StoreMethod set>}> : (memref<1x108x384xf32>, memref<1x3456x196xf32>, memref<1x384x196xf32>) -> ()

Exception in gpu::mlir_op: /src/AMDMIGraphX/src/targets/gpu/mlir.cpp:731: run_backend_pipeline: MLIR backend compilation failed: Error: 'rock.gemm' op K dimensions don't match k_a = 108 k_b = 3456
Note: see current operation: "rock.gemm"(%7, %10, %11) <{aTransposed, arch = "gfx908:sramecc+:xnack-", derivedBlockSize = 256 : i32, features = #rock<GemmFeatures mfma|dot|atomic_add>, gridSize = 24 : i32, numCU = 120 : i32, params = #rock.xdlops_gemm_params<kpackPerBlock = 8, mPerBlock = 64, nPerBlock = 64, kpack = 4, mPerWave = 32, nPerWave = 32, forceUnroll = true>, storeMethod = #rock<StoreMethod set>}> : (memref<1x108x384xf32>, memref<1x3456x196xf32>, memref<1x384x196xf32>) -> ()

Exception in gpu::mlir_op: /src/AMDMIGraphX/src/targets/gpu/mlir.cpp:731: run_backend_pipeline: MLIR backend compilation failed: Error: 'rock.gemm' op K dimensions don't match k_a = 108 k_b = 3456
Note: see current operation: "rock.gemm"(%7, %10, %11) <{aTransposed, arch = "gfx908:sramecc+:xnack-", derivedBlockSize = 256 : i32, features = #rock<GemmFeatures mfma|dot|atomic_add>, gridSize = 24 : i32, numCU = 120 : i32, params = #rock.xdlops_gemm_params<kpackPerBlock = 4, mPerBlock = 64, nPerBlock = 64, kpack = 8, mPerWave = 32, nPerWave = 32, forceUnroll = true>, storeMethod = #rock<StoreMethod set>}> : (memref<1x108x384xf32>, memref<1x3456x196xf32>, memref<1x384x196xf32>) -> ()

Exception in gpu::mlir_op: /src/AMDMIGraphX/src/targets/gpu/mlir.cpp:731: run_backend_pipeline: MLIR backend compilation failed: Error: 'rock.gemm' op K dimensions don't match k_a = 108 k_b = 3456
Note: see current operation: "rock.gemm"(%7, %10, %11) <{aTransposed, arch = "gfx908:sramecc+:xnack-", derivedBlockSize = 256 : i32, features = #rock<GemmFeatures mfma|dot|atomic_add>, gridSize = 24 : i32, numCU = 120 : i32, params = #rock.xdlops_gemm_params<kpackPerBlock = 4, mPerBlock = 64, nPerBlock = 64, kpack = 8, mPerWave = 16, nPerWave = 64, forceUnroll = true>, storeMethod = #rock<StoreMethod set>}> : (memref<1x108x384xf32>, memref<1x3456x196xf32>, memref<1x384x196xf32>) -> ()

Exception in gpu::mlir_op: /src/AMDMIGraphX/src/targets/gpu/mlir.cpp:731: run_backend_pipeline: MLIR backend compilation failed: Error: 'rock.gemm' op K dimensions don't match k_a = 108 k_b = 3456
Note: see current operation: "rock.gemm"(%7, %10, %11) <{aTransposed, arch = "gfx908:sramecc+:xnack-", derivedBlockSize = 128 : i32, features = #rock<GemmFeatures mfma|dot|atomic_add>, gridSize = 48 : i32, numCU = 120 : i32, params = #rock.xdlops_gemm_params<kpackPerBlock = 8, mPerBlock = 32, nPerBlock = 64, kpack = 4, mPerWave = 32, nPerWave = 32, forceUnroll = true>, storeMethod = #rock<StoreMethod set>}> : (memref<1x108x384xf32>, memref<1x3456x196xf32>, memref<1x384x196xf32>) -> ()

Exception in gpu::mlir_op: /src/AMDMIGraphX/src/targets/gpu/mlir.cpp:731: run_backend_pipeline: MLIR backend compilation failed: Error: 'rock.gemm' op K dimensions don't match k_a = 108 k_b = 3456
Note: see current operation: "rock.gemm"(%7, %10, %11) <{aTransposed, arch = "gfx908:sramecc+:xnack-", derivedBlockSize = 256 : i32, features = #rock<GemmFeatures mfma|dot|atomic_add>, gridSize = 48 : i32, numCU = 120 : i32, params = #rock.xdlops_gemm_params<kpackPerBlock = 8, mPerBlock = 32, nPerBlock = 64, kpack = 4, mPerWave = 8, nPerWave = 64, forceUnroll = true>, storeMethod = #rock<StoreMethod set>}> : (memref<1x108x384xf32>, memref<1x3456x196xf32>, memref<1x384x196xf32>) -> ()

Exception in gpu::mlir_op: /src/AMDMIGraphX/src/targets/gpu/mlir.cpp:731: run_backend_pipeline: MLIR backend compilation failed: Error: 'rock.gemm' op K dimensions don't match k_a = 108 k_b = 3456
Note: see current operation: "rock.gemm"(%7, %10, %11) <{aTransposed, arch = "gfx908:sramecc+:xnack-", derivedBlockSize = 256 : i32, features = #rock<GemmFeatures mfma|dot|atomic_add>, gridSize = 96 : i32, numCU = 120 : i32, params = #rock.xdlops_gemm_params<kpackPerBlock = 8, mPerBlock = 16, nPerBlock = 64, kpack = 8, mPerWave = 16, nPerWave = 16, forceUnroll = true>, storeMethod = #rock<StoreMethod set>}> : (memref<1x108x384xf32>, memref<1x3456x196xf32>, memref<1x384x196xf32>) -> ()

Exception in gpu::mlir_op: /src/AMDMIGraphX/src/targets/gpu/mlir.cpp:731: run_backend_pipeline: MLIR backend compilation failed: Error: 'rock.gemm' op K dimensions don't match k_a = 108 k_b = 3456
Note: see current operation: "rock.gemm"(%7, %10, %11) <{aTransposed, arch = "gfx908:sramecc+:xnack-", derivedBlockSize = 256 : i32, features = #rock<GemmFeatures mfma|dot|atomic_add>, gridSize = 96 : i32, numCU = 120 : i32, params = #rock.xdlops_gemm_params<kpackPerBlock = 8, mPerBlock = 16, nPerBlock = 64, kpack = 4, mPerWave = 16, nPerWave = 16, forceUnroll = true>, storeMethod = #rock<StoreMethod set>}> : (memref<1x108x384xf32>, memref<1x3456x196xf32>, memref<1x384x196xf32>) -> ()

Exception in gpu::mlir_op: /src/AMDMIGraphX/src/targets/gpu/mlir.cpp:731: run_backend_pipeline: MLIR backend compilation failed: Error: 'rock.gemm' op K dimensions don't match k_a = 108 k_b = 3456
Note: see current operation: "rock.gemm"(%7, %10, %11) <{aTransposed, arch = "gfx908:sramecc+:xnack-", derivedBlockSize = 128 : i32, features = #rock<GemmFeatures mfma|dot|atomic_add>, gridSize = 192 : i32, numCU = 120 : i32, params = #rock.xdlops_gemm_params<kpackPerBlock = 8, mPerBlock = 8, nPerBlock = 64, kpack = 8, mPerWave = 4, nPerWave = 64, forceUnroll = true>, storeMethod = #rock<StoreMethod set>}> : (memref<1x108x384xf32>, memref<1x3456x196xf32>, memref<1x384x196xf32>) -> ()

Exception in gpu::mlir_op: /src/AMDMIGraphX/src/targets/gpu/mlir.cpp:731: run_backend_pipeline: MLIR backend compilation failed: Error: 'rock.gemm' op K dimensions don't match k_a = 27 k_b = 864
Note: see current operation: "rock.gemm"(%7, %10, %11) <{aTransposed, arch = "gfx908:sramecc+:xnack-", derivedBlockSize = 64 : i32, features = #rock<GemmFeatures mfma|dot|atomic_add>, gridSize = 147 : i32, numCU = 120 : i32, params = #rock.xdlops_gemm_params<kpackPerBlock = 4, mPerBlock = 32, nPerBlock = 64, kpack = 4, mPerWave = 32, nPerWave = 64, forceUnroll = true>, storeMethod = #rock<StoreMethod set>}> : (memref<1x27x96xf32>, memref<1x864x3136xf32>, memref<1x96x3136xf32>) -> ()

Exception in gpu::mlir_op: /src/AMDMIGraphX/src/targets/gpu/mlir.cpp:731: run_backend_pipeline: MLIR backend compilation failed: Error: 'rock.gemm' op K dimensions don't match k_a = 27 k_b = 864
Note: see current operation: "rock.gemm"(%7, %10, %11) <{aTransposed, arch = "gfx908:sramecc+:xnack-", derivedBlockSize = 256 : i32, features = #rock<GemmFeatures mfma|dot|atomic_add>, gridSize = 147 : i32, numCU = 120 : i32, params = #rock.xdlops_gemm_params<kpackPerBlock = 4, mPerBlock = 32, nPerBlock = 64, kpack = 4, mPerWave = 8, nPerWave = 64, forceUnroll = true>, storeMethod = #rock<StoreMethod set>}> : (memref<1x27x96xf32>, memref<1x864x3136xf32>, memref<1x96x3136xf32>) -> ()

Exception in gpu::mlir_op: /src/AMDMIGraphX/src/targets/gpu/mlir.cpp:731: run_backend_pipeline: MLIR backend compilation failed: Error: 'rock.gemm' op K dimensions don't match k_a = 27 k_b = 864
Note: see current operation: "rock.gemm"(%7, %10, %11) <{aTransposed, arch = "gfx908:sramecc+:xnack-", derivedBlockSize = 128 : i32, features = #rock<GemmFeatures mfma|dot|atomic_add>, gridSize = 147 : i32, numCU = 120 : i32, params = #rock.xdlops_gemm_params<kpackPerBlock = 8, mPerBlock = 32, nPerBlock = 64, kpack = 4, mPerWave = 32, nPerWave = 32, forceUnroll = true>, storeMethod = #rock<StoreMethod set>}> : (memref<1x27x96xf32>, memref<1x864x3136xf32>, memref<1x96x3136xf32>) -> ()

Exception in gpu::mlir_op: /src/AMDMIGraphX/src/targets/gpu/mlir.cpp:731: run_backend_pipeline: MLIR backend compilation failed: Error: 'rock.gemm' op K dimensions don't match k_a = 27 k_b = 864
Note: see current operation: "rock.gemm"(%7, %10, %11) <{aTransposed, arch = "gfx908:sramecc+:xnack-", derivedBlockSize = 256 : i32, features = #rock<GemmFeatures mfma|dot|atomic_add>, gridSize = 147 : i32, numCU = 120 : i32, params = #rock.xdlops_gemm_params<kpackPerBlock = 8, mPerBlock = 32, nPerBlock = 64, kpack = 4, mPerWave = 8, nPerWave = 64, forceUnroll = true>, storeMethod = #rock<StoreMethod set>}> : (memref<1x27x96xf32>, memref<1x864x3136xf32>, memref<1x96x3136xf32>) -> ()

Exception in gpu::mlir_op: /src/AMDMIGraphX/src/targets/gpu/mlir.cpp:731: run_backend_pipeline: MLIR backend compilation failed: Error: 'rock.gemm' op K dimensions don't match k_a = 216 k_b = 6912
Note: see current operation: "rock.gemm"(%7, %10, %11) <{aTransposed, arch = "gfx908:sramecc+:xnack-", derivedBlockSize = 256 : i32, features = #rock<GemmFeatures mfma|dot|atomic_add>, gridSize = 24 : i32, numCU = 120 : i32, params = #rock.xdlops_gemm_params<kpackPerBlock = 2, mPerBlock = 32, nPerBlock = 64, kpack = 4, mPerWave = 8, nPerWave = 64, forceUnroll = true>, storeMethod = #rock<StoreMethod set>}> : (memref<1x216x768xf32>, memref<1x6912x49xf32>, memref<1x768x49xf32>) -> ()

Exception in gpu::mlir_op: /src/AMDMIGraphX/src/targets/gpu/mlir.cpp:731: run_backend_pipeline: MLIR backend compilation failed: Error: 'rock.gemm' op K dimensions don't match k_a = 216 k_b = 6912
Note: see current operation: "rock.gemm"(%7, %10, %11) <{aTransposed, arch = "gfx908:sramecc+:xnack-", derivedBlockSize = 256 : i32, features = #rock<GemmFeatures mfma|dot|atomic_add>, gridSize = 12 : i32, numCU = 120 : i32, params = #rock.xdlops_gemm_params<kpackPerBlock = 8, mPerBlock = 64, nPerBlock = 64, kpack = 4, mPerWave = 32, nPerWave = 32, forceUnroll = true>, storeMethod = #rock<StoreMethod set>}> : (memref<1x216x768xf32>, memref<1x6912x49xf32>, memref<1x768x49xf32>) -> ()

Exception in gpu::mlir_op: /src/AMDMIGraphX/src/targets/gpu/mlir.cpp:731: run_backend_pipeline: MLIR backend compilation failed: Error: 'rock.gemm' op K dimensions don't match k_a = 216 k_b = 6912
Note: see current operation: "rock.gemm"(%7, %10, %11) <{aTransposed, arch = "gfx908:sramecc+:xnack-", derivedBlockSize = 256 : i32, features = #rock<GemmFeatures mfma|dot|atomic_add>, gridSize = 12 : i32, numCU = 120 : i32, params = #rock.xdlops_gemm_params<kpackPerBlock = 4, mPerBlock = 64, nPerBlock = 64, kpack = 8, mPerWave = 32, nPerWave = 32, forceUnroll = true>, storeMethod = #rock<StoreMethod set>}> : (memref<1x216x768xf32>, memref<1x6912x49xf32>, memref<1x768x49xf32>) -> ()

Exception in gpu::mlir_op: /src/AMDMIGraphX/src/targets/gpu/mlir.cpp:731: run_backend_pipeline: MLIR backend compilation failed: Error: 'rock.gemm' op K dimensions don't match k_a = 216 k_b = 6912
Note: see current operation: "rock.gemm"(%7, %10, %11) <{aTransposed, arch = "gfx908:sramecc+:xnack-", derivedBlockSize = 256 : i32, features = #rock<GemmFeatures mfma|dot|atomic_add>, gridSize = 12 : i32, numCU = 120 : i32, params = #rock.xdlops_gemm_params<kpackPerBlock = 4, mPerBlock = 64, nPerBlock = 64, kpack = 4, mPerWave = 32, nPerWave = 32, forceUnroll = true>, storeMethod = #rock<StoreMethod set>}> : (memref<1x216x768xf32>, memref<1x6912x49xf32>, memref<1x768x49xf32>) -> ()

Exception in gpu::mlir_op: /src/AMDMIGraphX/src/targets/gpu/mlir.cpp:731: run_backend_pipeline: MLIR backend compilation failed: Error: 'rock.gemm' op K dimensions don't match k_a = 216 k_b = 6912
Note: see current operation: "rock.gemm"(%7, %10, %11) <{aTransposed, arch = "gfx908:sramecc+:xnack-", derivedBlockSize = 256 : i32, features = #rock<GemmFeatures mfma|dot|atomic_add>, gridSize = 12 : i32, numCU = 120 : i32, params = #rock.xdlops_gemm_params<kpackPerBlock = 4, mPerBlock = 64, nPerBlock = 64, kpack = 8, mPerWave = 16, nPerWave = 64, forceUnroll = true>, storeMethod = #rock<StoreMethod set>}> : (memref<1x216x768xf32>, memref<1x6912x49xf32>, memref<1x768x49xf32>) -> ()

Exception in gpu::mlir_op: /src/AMDMIGraphX/src/targets/gpu/mlir.cpp:731: run_backend_pipeline: MLIR backend compilation failed: Error: 'rock.gemm' op K dimensions don't match k_a = 216 k_b = 6912
Note: see current operation: "rock.gemm"(%7, %10, %11) <{aTransposed, arch = "gfx908:sramecc+:xnack-", derivedBlockSize = 256 : i32, features = #rock<GemmFeatures mfma|dot|atomic_add>, gridSize = 12 : i32, numCU = 120 : i32, params = #rock.xdlops_gemm_params<kpackPerBlock = 4, mPerBlock = 64, nPerBlock = 64, kpack = 4, mPerWave = 16, nPerWave = 64, forceUnroll = true>, storeMethod = #rock<StoreMethod set>}> : (memref<1x216x768xf32>, memref<1x6912x49xf32>, memref<1x768x49xf32>) -> ()

Exception in gpu::mlir_op: /src/AMDMIGraphX/src/targets/gpu/mlir.cpp:731: run_backend_pipeline: MLIR backend compilation failed: Error: 'rock.gemm' op K dimensions don't match k_a = 216 k_b = 6912
Note: see current operation: "rock.gemm"(%7, %10, %11) <{aTransposed, arch = "gfx908:sramecc+:xnack-", derivedBlockSize = 256 : i32, features = #rock<GemmFeatures mfma|dot|atomic_add>, gridSize = 12 : i32, numCU = 120 : i32, params = #rock.xdlops_gemm_params<kpackPerBlock = 2, mPerBlock = 64, nPerBlock = 64, kpack = 8, mPerWave = 32, nPerWave = 32, forceUnroll = true>, storeMethod = #rock<StoreMethod set>}> : (memref<1x216x768xf32>, memref<1x6912x49xf32>, memref<1x768x49xf32>) -> ()

Exception in gpu::mlir_op: /src/AMDMIGraphX/src/targets/gpu/mlir.cpp:731: run_backend_pipeline: MLIR backend compilation failed: Error: 'rock.gemm' op K dimensions don't match k_a = 216 k_b = 6912
Note: see current operation: "rock.gemm"(%7, %10, %11) <{aTransposed, arch = "gfx908:sramecc+:xnack-", derivedBlockSize = 64 : i32, features = #rock<GemmFeatures mfma|dot|atomic_add>, gridSize = 24 : i32, numCU = 120 : i32, params = #rock.xdlops_gemm_params<kpackPerBlock = 4, mPerBlock = 32, nPerBlock = 64, kpack = 4, mPerWave = 32, nPerWave = 64, forceUnroll = true>, storeMethod = #rock<StoreMethod set>}> : (memref<1x216x768xf32>, memref<1x6912x49xf32>, memref<1x768x49xf32>) -> ()

Exception in gpu::mlir_op: /src/AMDMIGraphX/src/targets/gpu/mlir.cpp:731: run_backend_pipeline: MLIR backend compilation failed: Error: 'rock.gemm' op K dimensions don't match k_a = 216 k_b = 6912
Note: see current operation: "rock.gemm"(%7, %10, %11) <{aTransposed, arch = "gfx908:sramecc+:xnack-", derivedBlockSize = 256 : i32, features = #rock<GemmFeatures mfma|dot|atomic_add>, gridSize = 24 : i32, numCU = 120 : i32, params = #rock.xdlops_gemm_params<kpackPerBlock = 4, mPerBlock = 32, nPerBlock = 64, kpack = 4, mPerWave = 8, nPerWave = 64, forceUnroll = true>, storeMethod = #rock<StoreMethod set>}> : (memref<1x216x768xf32>, memref<1x6912x49xf32>, memref<1x768x49xf32>) -> ()

Exception in gpu::mlir_op: /src/AMDMIGraphX/src/targets/gpu/mlir.cpp:731: run_backend_pipeline: MLIR backend compilation failed: Error: 'rock.gemm' op K dimensions don't match k_a = 216 k_b = 6912
Note: see current operation: "rock.gemm"(%7, %10, %11) <{aTransposed, arch = "gfx908:sramecc+:xnack-", derivedBlockSize = 128 : i32, features = #rock<GemmFeatures mfma|dot|atomic_add>, gridSize = 24 : i32, numCU = 120 : i32, params = #rock.xdlops_gemm_params<kpackPerBlock = 8, mPerBlock = 32, nPerBlock = 64, kpack = 4, mPerWave = 32, nPerWave = 32, forceUnroll = true>, storeMethod = #rock<StoreMethod set>}> : (memref<1x216x768xf32>, memref<1x6912x49xf32>, memref<1x768x49xf32>) -> ()

Exception in gpu::mlir_op: /src/AMDMIGraphX/src/targets/gpu/mlir.cpp:731: run_backend_pipeline: MLIR backend compilation failed: Error: 'rock.gemm' op K dimensions don't match k_a = 216 k_b = 6912
Note: see current operation: "rock.gemm"(%7, %10, %11) <{aTransposed, arch = "gfx908:sramecc+:xnack-", derivedBlockSize = 256 : i32, features = #rock<GemmFeatures mfma|dot|atomic_add>, gridSize = 24 : i32, numCU = 120 : i32, params = #rock.xdlops_gemm_params<kpackPerBlock = 8, mPerBlock = 32, nPerBlock = 64, kpack = 4, mPerWave = 8, nPerWave = 64, forceUnroll = true>, storeMethod = #rock<StoreMethod set>}> : (memref<1x216x768xf32>, memref<1x6912x49xf32>, memref<1x768x49xf32>) -> ()

Exception in gpu::mlir_op: /src/AMDMIGraphX/src/targets/gpu/mlir.cpp:731: run_backend_pipeline: MLIR backend compilation failed: Error: 'rock.gemm' op K dimensions don't match k_a = 216 k_b = 6912
Note: see current operation: "rock.gemm"(%7, %10, %11) <{aTransposed, arch = "gfx908:sramecc+:xnack-", derivedBlockSize = 128 : i32, features = #rock<GemmFeatures mfma|dot|atomic_add>, gridSize = 24 : i32, numCU = 120 : i32, params = #rock.xdlops_gemm_params<kpackPerBlock = 2, mPerBlock = 32, nPerBlock = 64, kpack = 8, mPerWave = 32, nPerWave = 32, forceUnroll = true>, storeMethod = #rock<StoreMethod set>}> : (memref<1x216x768xf32>, memref<1x6912x49xf32>, memref<1x768x49xf32>) -> ()

Exception in gpu::mlir_op: /src/AMDMIGraphX/src/targets/gpu/mlir.cpp:731: run_backend_pipeline: MLIR backend compilation failed: Error: 'rock.gemm' op K dimensions don't match k_a = 216 k_b = 6912
Note: see current operation: "rock.gemm"(%7, %10, %11) <{aTransposed, arch = "gfx908:sramecc+:xnack-", derivedBlockSize = 256 : i32, features = #rock<GemmFeatures mfma|dot|atomic_add>, gridSize = 48 : i32, numCU = 120 : i32, params = #rock.xdlops_gemm_params<kpackPerBlock = 8, mPerBlock = 32, nPerBlock = 32, kpack = 4, mPerWave = 16, nPerWave = 16, forceUnroll = true>, storeMethod = #rock<StoreMethod set>}> : (memref<1x216x768xf32>, memref<1x6912x49xf32>, memref<1x768x49xf32>) -> ()

Exception in gpu::mlir_op: /src/AMDMIGraphX/src/targets/gpu/mlir.cpp:731: run_backend_pipeline: MLIR backend compilation failed: Error: 'rock.gemm' op K dimensions don't match k_a = 216 k_b = 6912
Note: see current operation: "rock.gemm"(%7, %10, %11) <{aTransposed, arch = "gfx908:sramecc+:xnack-", derivedBlockSize = 256 : i32, features = #rock<GemmFeatures mfma|dot|atomic_add>, gridSize = 48 : i32, numCU = 120 : i32, params = #rock.xdlops_gemm_params<kpackPerBlock = 4, mPerBlock = 32, nPerBlock = 32, kpack = 8, mPerWave = 16, nPerWave = 16, forceUnroll = true>, storeMethod = #rock<StoreMethod set>}> : (memref<1x216x768xf32>, memref<1x6912x49xf32>, memref<1x768x49xf32>) -> ()

Exception in gpu::mlir_op: /src/AMDMIGraphX/src/targets/gpu/mlir.cpp:731: run_backend_pipeline: MLIR backend compilation failed: Error: 'rock.gemm' op K dimensions don't match k_a = 54 k_b = 1728
Note: see current operation: "rock.gemm"(%7, %10, %11) <{aTransposed, arch = "gfx908:sramecc+:xnack-", derivedBlockSize = 256 : i32, features = #rock<GemmFeatures mfma|dot|atomic_add>, gridSize = 78 : i32, numCU = 120 : i32, params = #rock.xdlops_gemm_params<kpackPerBlock = 2, mPerBlock = 32, nPerBlock = 64, kpack = 4, mPerWave = 8, nPerWave = 64, forceUnroll = true>, storeMethod = #rock<StoreMethod set>}> : (memref<1x54x192xf32>, memref<1x1728x784xf32>, memref<1x192x784xf32>) -> ()

Exception in gpu::mlir_op: /src/AMDMIGraphX/src/targets/gpu/mlir.cpp:731: run_backend_pipeline: MLIR backend compilation failed: Error: 'rock.gemm' op K dimensions don't match k_a = 54 k_b = 1728
Note: see current operation: "rock.gemm"(%7, %10, %11) <{aTransposed, arch = "gfx908:sramecc+:xnack-", derivedBlockSize = 256 : i32, features = #rock<GemmFeatures mfma|dot|atomic_add>, gridSize = 21 : i32, numCU = 120 : i32, params = #rock.xdlops_gemm_params<kpackPerBlock = 2, mPerBlock = 64, nPerBlock = 128, kpack = 4, mPerWave = 32, nPerWave = 64, forceUnroll = true>, storeMethod = #rock<StoreMethod set>}> : (memref<1x54x192xf32>, memref<1x1728x784xf32>, memref<1x192x784xf32>) -> ()

Exception in gpu::mlir_op: /src/AMDMIGraphX/src/targets/gpu/mlir.cpp:731: run_backend_pipeline: MLIR backend compilation failed: Error: 'rock.gemm' op K dimensions don't match k_a = 54 k_b = 1728
Note: see current operation: "rock.gemm"(%7, %10, %11) <{aTransposed, arch = "gfx908:sramecc+:xnack-", derivedBlockSize = 64 : i32, features = #rock<GemmFeatures mfma|dot|atomic_add>, gridSize = 588 : i32, numCU = 120 : i32, params = #rock.xdlops_gemm_params<kpackPerBlock = 8, mPerBlock = 16, nPerBlock = 16, kpack = 8, mPerWave = 16, nPerWave = 16, forceUnroll = true>, storeMethod = #rock<StoreMethod set>}> : (memref<1x54x192xf32>, memref<1x1728x784xf32>, memref<1x192x784xf32>) -> ()

Exception in gpu::mlir_op: /src/AMDMIGraphX/src/targets/gpu/mlir.cpp:731: run_backend_pipeline: MLIR backend compilation failed: Error: 'rock.gemm' op K dimensions don't match k_a = 54 k_b = 1728
Note: see current operation: "rock.gemm"(%7, %10, %11) <{aTransposed, arch = "gfx908:sramecc+:xnack-", derivedBlockSize = 64 : i32, features = #rock<GemmFeatures mfma|dot|atomic_add>, gridSize = 588 : i32, numCU = 120 : i32, params = #rock.xdlops_gemm_params<kpackPerBlock = 4, mPerBlock = 16, nPerBlock = 16, kpack = 4, mPerWave = 16, nPerWave = 16, forceUnroll = true>, storeMethod = #rock<StoreMethod set>}> : (memref<1x54x192xf32>, memref<1x1728x784xf32>, memref<1x192x784xf32>) -> ()

Exception in gpu::mlir_op: /src/AMDMIGraphX/src/targets/gpu/mlir.cpp:731: run_backend_pipeline: MLIR backend compilation failed: Error: 'rock.gemm' op K dimensions don't match k_a = 54 k_b = 1728
Note: see current operation: "rock.gemm"(%7, %10, %11) <{aTransposed, arch = "gfx908:sramecc+:xnack-", derivedBlockSize = 256 : i32, features = #rock<GemmFeatures mfma|dot|atomic_add>, gridSize = 78 : i32, numCU = 120 : i32, params = #rock.xdlops_gemm_params<kpackPerBlock = 2, mPerBlock = 32, nPerBlock = 64, kpack = 4, mPerWave = 8, nPerWave = 64, forceUnroll = true>, storeMethod = #rock<StoreMethod set>}> : (memref<1x54x192xf32>, memref<1x1728x784xf32>, memref<1x192x784xf32>) -> ()

Exception in gpu::mlir_op: /src/AMDMIGraphX/src/targets/gpu/mlir.cpp:731: run_backend_pipeline: MLIR backend compilation failed: Error: 'rock.gemm' op K dimensions don't match k_a = 54 k_b = 1728
Note: see current operation: "rock.gemm"(%7, %10, %11) <{aTransposed, arch = "gfx908:sramecc+:xnack-", derivedBlockSize = 256 : i32, features = #rock<GemmFeatures mfma|dot|atomic_add>, gridSize = 21 : i32, numCU = 120 : i32, params = #rock.xdlops_gemm_params<kpackPerBlock = 2, mPerBlock = 64, nPerBlock = 128, kpack = 4, mPerWave = 32, nPerWave = 64, forceUnroll = true>, storeMethod = #rock<StoreMethod set>}> : (memref<1x54x192xf32>, memref<1x1728x784xf32>, memref<1x192x784xf32>) -> ()

Exception in gpu::mlir_op: /src/AMDMIGraphX/src/targets/gpu/mlir.cpp:731: run_backend_pipeline: MLIR backend compilation failed: Error: 'rock.gemm' op K dimensions don't match k_a = 54 k_b = 1728
Note: see current operation: "rock.gemm"(%7, %10, %11) <{aTransposed, arch = "gfx908:sramecc+:xnack-", derivedBlockSize = 64 : i32, features = #rock<GemmFeatures mfma|dot|atomic_add>, gridSize = 588 : i32, numCU = 120 : i32, params = #rock.xdlops_gemm_params<kpackPerBlock = 8, mPerBlock = 16, nPerBlock = 16, kpack = 8, mPerWave = 16, nPerWave = 16, forceUnroll = true>, storeMethod = #rock<StoreMethod set>}> : (memref<1x54x192xf32>, memref<1x1728x784xf32>, memref<1x192x784xf32>) -> ()

Exception in gpu::mlir_op: /src/AMDMIGraphX/src/targets/gpu/mlir.cpp:731: run_backend_pipeline: MLIR backend compilation failed: Error: 'rock.gemm' op K dimensions don't match k_a = 54 k_b = 1728
Note: see current operation: "rock.gemm"(%7, %10, %11) <{aTransposed, arch = "gfx908:sramecc+:xnack-", derivedBlockSize = 64 : i32, features = #rock<GemmFeatures mfma|dot|atomic_add>, gridSize = 588 : i32, numCU = 120 : i32, params = #rock.xdlops_gemm_params<kpackPerBlock = 4, mPerBlock = 16, nPerBlock = 16, kpack = 4, mPerWave = 16, nPerWave = 16, forceUnroll = true>, storeMethod = #rock<StoreMethod set>}> : (memref<1x54x192xf32>, memref<1x1728x784xf32>, memref<1x192x784xf32>) -> ()

Exception in gpu::mlir_op: /src/AMDMIGraphX/src/targets/gpu/mlir.cpp:731: run_backend_pipeline: MLIR backend compilation failed: Error: 'rock.gemm' op K dimensions don't match k_a = 54 k_b = 1728
Note: see current operation: "rock.gemm"(%7, %10, %11) <{aTransposed, arch = "gfx908:sramecc+:xnack-", derivedBlockSize = 256 : i32, features = #rock<GemmFeatures mfma|dot|atomic_add>, gridSize = 150 : i32, numCU = 120 : i32, params = #rock.xdlops_gemm_params<kpackPerBlock = 8, mPerBlock = 32, nPerBlock = 32, kpack = 8, mPerWave = 16, nPerWave = 16, forceUnroll = true>, storeMethod = #rock<StoreMethod set>}> : (memref<1x54x192xf32>, memref<1x1728x784xf32>, memref<1x192x784xf32>) -> ()

Exception in gpu::mlir_op: /src/AMDMIGraphX/src/targets/gpu/mlir.cpp:731: run_backend_pipeline: MLIR backend compilation failed: Error: 'rock.gemm' op K dimensions don't match k_a = 54 k_b = 1728
Note: see current operation: "rock.gemm"(%7, %10, %11) <{aTransposed, arch = "gfx908:sramecc+:xnack-", derivedBlockSize = 256 : i32, features = #rock<GemmFeatures mfma|dot|atomic_add>, gridSize = 150 : i32, numCU = 120 : i32, params = #rock.xdlops_gemm_params<kpackPerBlock = 8, mPerBlock = 32, nPerBlock = 32, kpack = 4, mPerWave = 16, nPerWave = 16, forceUnroll = true>, storeMethod = #rock<StoreMethod set>}> : (memref<1x54x192xf32>, memref<1x1728x784xf32>, memref<1x192x784xf32>) -> ()

terminate called after throwing an instance of 'migraphx::version_2_9_0::exception'
  what():  /src/AMDMIGraphX/src/targets/gpu/compile_ops.cpp:218: benchmark: No valid tuned compilation.
timeout: the monitored command dumped core
