Exception in gpu::mlir_op: /src/AMDMIGraphX/src/targets/gpu/mlir.cpp:731: run_backend_pipeline: MLIR backend compilation failed: Error: 'rock.gemm' op K dimensions don't match k_a = 9 k_b = 378
Note: see current operation: "rock.gemm"(%4, %7, %8) <{aTransposed, arch = "gfx908:sramecc+:xnack-", derivedBlockSize = 256 : i32, features = #rock<GemmFeatures mfma|dot|atomic_add>, gridSize = 3445 : i32, numCU = 120 : i32, params = #rock.xdlops_gemm_params<kpackPerBlock = 8, mPerBlock = 128, nPerBlock = 128, kpack = 1, mPerWave = 64, nPerWave = 64, forceUnroll = true>, storeMethod = #rock<StoreMethod set>}> : (memref<1x9x42xf32>, memref<1x378x440896xf32>, memref<1x42x440896xf32>) -> ()

Exception in gpu::mlir_op: /src/AMDMIGraphX/src/targets/gpu/mlir.cpp:731: run_backend_pipeline: MLIR backend compilation failed: Error: 'rock.gemm' op K dimensions don't match k_a = 49 k_b = 4704
Note: see current operation: "rock.gemm"(%4, %7, %8) <{aTransposed, arch = "gfx908:sramecc+:xnack-", derivedBlockSize = 256 : i32, features = #rock<GemmFeatures mfma|dot|atomic_add>, gridSize = 13778 : i32, numCU = 120 : i32, params = #rock.xdlops_gemm_params<kpackPerBlock = 8, mPerBlock = 64, nPerBlock = 64, kpack = 4, mPerWave = 32, nPerWave = 32, forceUnroll = true>, storeMethod = #rock<StoreMethod set>}> : (memref<1x49x96xf32>, memref<1x4704x440896xf32>, memref<1x96x440896xf32>) -> ()
Exception in gpu::mlir_op: /src/AMDMIGraphX/src/targets/gpu/mlir.cpp:731: run_backend_pipeline: MLIR backend compilation failed: Error: 'rock.gemm' op K dimensions don't match k_a = 25 k_b = 1050
Note: see current operation: "rock.gemm"(%4, %7, %8) <{aTransposed, arch = "gfx908:sramecc+:xnack-", derivedBlockSize = 256 : i32, features = #rock<GemmFeatures mfma|dot|atomic_add>, gridSize = 3445 : i32, numCU = 120 : i32, params = #rock.xdlops_gemm_params<kpackPerBlock = 4, mPerBlock = 64, nPerBlock = 128, kpack = 4, mPerWave = 32, nPerWave = 64, forceUnroll = true>, storeMethod = #rock<StoreMethod set>}> : (memref<1x25x42xf32>, memref<1x1050x440896xf32>, memref<1x42x440896xf32>) -> ()


Exception in gpu::mlir_op: /src/AMDMIGraphX/src/targets/gpu/mlir.cpp:731: run_backend_pipeline: MLIR backend compilation failed: Error: 'rock.gemm' op K dimensions don't match k_a = 25 k_b = 8400
Note: see current operation: "rock.gemm"(%4, %7, %8) <{aTransposed, arch = "gfx908:sramecc+:xnack-", derivedBlockSize = 256 : i32, features = #rock<GemmFeatures mfma|dot|atomic_add>, gridSize = 4851 : i32, numCU = 120 : i32, params = #rock.xdlops_gemm_params<kpackPerBlock = 2, mPerBlock = 32, nPerBlock = 64, kpack = 4, mPerWave = 8, nPerWave = 64, forceUnroll = true>, storeMethod = #rock<StoreMethod set>}> : (memref<1x25x336xf32>, memref<1x8400x28224xf32>, memref<1x336x28224xf32>) -> ()

Exception in gpu::mlir_op: /src/AMDMIGraphX/src/targets/gpu/mlir.cpp:731: run_backend_pipeline: MLIR backend compilation failed: Error: 'rock.gemm' op K dimensions don't match k_a = 49 k_b = 2058
Note: see current operation: "rock.gemm"(%4, %7, %8) <{aTransposed, arch = "gfx908:sramecc+:xnack-", derivedBlockSize = 256 : i32, features = #rock<GemmFeatures mfma|dot|atomic_add>, gridSize = 13778 : i32, numCU = 120 : i32, params = #rock.xdlops_gemm_params<kpackPerBlock = 2, mPerBlock = 32, nPerBlock = 64, kpack = 4, mPerWave = 8, nPerWave = 64, forceUnroll = true>, storeMethod = #rock<StoreMethod set>}> : (memref<1x49x42xf32>, memref<1x2058x440896xf32>, memref<1x42x440896xf32>) -> ()

Exception in gpu::mlir_op: /src/AMDMIGraphX/src/targets/gpu/mlir.cpp:731: run_backend_pipeline: MLIR backend compilation failed: Error: 'rock.gemm' op K dimensions don't match k_a = 25 k_b = 2100
Note: see current operation: "rock.gemm"(%4, %7, %8) <{aTransposed, arch = "gfx908:sramecc+:xnack-", derivedBlockSize = 256 : i32, features = #rock<GemmFeatures mfma|dot|atomic_add>, gridSize = 882 : i32, numCU = 120 : i32, params = #rock.xdlops_gemm_params<kpackPerBlock = 8, mPerBlock = 128, nPerBlock = 128, kpack = 1, mPerWave = 64, nPerWave = 64, forceUnroll = true>, storeMethod = #rock<StoreMethod set>}> : (memref<1x25x84xf32>, memref<1x2100x112896xf32>, memref<1x84x112896xf32>) -> ()

Exception in gpu::mlir_op: /src/AMDMIGraphX/src/targets/gpu/mlir.cpp:731: run_backend_pipeline: MLIR backend compilation failed: Error: 'rock.gemm' op K dimensions don't match k_a = 49 k_b = 4116
Note: see current operation: "rock.gemm"(%4, %7, %8) <{aTransposed, arch = "gfx908:sramecc+:xnack-", derivedBlockSize = 256 : i32, features = #rock<GemmFeatures mfma|dot|atomic_add>, gridSize = 5292 : i32, numCU = 120 : i32, params = #rock.xdlops_gemm_params<kpackPerBlock = 4, mPerBlock = 32, nPerBlock = 64, kpack = 4, mPerWave = 8, nPerWave = 64, forceUnroll = true>, storeMethod = #rock<StoreMethod set>}> : (memref<1x49x84xf32>, memref<1x4116x112896xf32>, memref<1x84x112896xf32>) -> ()

Exception in gpu::mlir_op: /src/AMDMIGraphX/src/targets/gpu/mlir.cpp:731: run_backend_pipeline: MLIR backend compilation failed: Error: 'rock.gemm' op K dimensions don't match k_a = 25 k_b = 4200
Note: see current operation: "rock.gemm"(%5, %8, %9) <{aTransposed, arch = "gfx908:sramecc+:xnack-", derivedBlockSize = 64 : i32, features = #rock<GemmFeatures mfma|dot|atomic_add>, gridSize = 74088 : i32, numCU = 120 : i32, params = #rock.xdlops_gemm_params<kpackPerBlock = 2, mPerBlock = 4, nPerBlock = 64, kpack = 8, mPerWave = 4, nPerWave = 64, forceUnroll = true>, storeMethod = #rock<StoreMethod set>}> : (memref<1x25x168xf32>, memref<1x4200x112896xf32>, memref<1x168x112896xf32>) -> ()

Exception in gpu::mlir_op: /src/AMDMIGraphX/src/targets/gpu/mlir.cpp:731: run_backend_pipeline: MLIR backend compilation failed: Error: 'rock.gemm' op K dimensions don't match k_a = 9 k_b = 6048
Note: see current operation: "rock.gemm"(%4, %7, %8) <{aTransposed, arch = "gfx908:sramecc+:xnack-", derivedBlockSize = 128 : i32, features = #rock<GemmFeatures mfma|dot|atomic_add>, gridSize = 366 : i32, numCU = 120 : i32, params = #rock.xdlops_gemm_params<kpackPerBlock = 4, mPerBlock = 128, nPerBlock = 128, kpack = 4, mPerWave = 64, nPerWave = 128, forceUnroll = true>, storeMethod = #rock<StoreMethod set>}> : (memref<1x9x672xf32>, memref<1x6048x7744xf32>, memref<1x672x7744xf32>) -> ()

Exception in gpu::mlir_op: /src/AMDMIGraphX/src/targets/gpu/mlir.cpp:731: run_backend_pipeline: MLIR backend compilation failed: Error: 'rock.gemm' op K dimensions don't match k_a = 49 k_b = 32928
Note: see current operation: "rock.gemm"(%4, %7, %8) <{aTransposed, arch = "gfx908:sramecc+:xnack-", derivedBlockSize = 256 : i32, features = #rock<GemmFeatures mfma|dot|atomic_add>, gridSize = 671 : i32, numCU = 120 : i32, params = #rock.xdlops_gemm_params<kpackPerBlock = 2, mPerBlock = 64, nPerBlock = 128, kpack = 4, mPerWave = 32, nPerWave = 64, forceUnroll = true>, storeMethod = #rock<StoreMethod set>}> : (memref<1x49x672xf32>, memref<1x32928x7744xf32>, memref<1x672x7744xf32>) -> ()

Exception in gpu::mlir_op: /src/AMDMIGraphX/src/targets/gpu/mlir.cpp:731: run_backend_pipeline: MLIR backend compilation failed: Error: 'rock.gemm' op K dimensions don't match k_a = 9 k_b = 756
Note: see current operation: "rock.gemm"(%4, %7, %8) <{aTransposed, arch = "gfx908:sramecc+:xnack-", derivedBlockSize = 256 : i32, features = #rock<GemmFeatures mfma|dot|atomic_add>, gridSize = 3528 : i32, numCU = 120 : i32, params = #rock.xdlops_gemm_params<kpackPerBlock = 2, mPerBlock = 64, nPerBlock = 64, kpack = 8, mPerWave = 32, nPerWave = 32, forceUnroll = true>, storeMethod = #rock<StoreMethod set>}> : (memref<1x9x84xf32>, memref<1x756x112896xf32>, memref<1x84x112896xf32>) -> ()

Exception in gpu::mlir_op: /src/AMDMIGraphX/src/targets/gpu/mlir.cpp:731: run_backend_pipeline: MLIR backend compilation failed: Error: 'rock.gemm' op K dimensions don't match k_a = 25 k_b = 16800
Note: see current operation: "rock.gemm"(%4, %7, %8) <{aTransposed, arch = "gfx908:sramecc+:xnack-", derivedBlockSize = 256 : i32, features = #rock<GemmFeatures mfma|dot|atomic_add>, gridSize = 5082 : i32, numCU = 120 : i32, params = #rock.xdlops_gemm_params<kpackPerBlock = 8, mPerBlock = 16, nPerBlock = 64, kpack = 8, mPerWave = 16, nPerWave = 16, forceUnroll = true>, storeMethod = #rock<StoreMethod set>}> : (memref<1x25x672xf32>, memref<1x16800x7744xf32>, memref<1x672x7744xf32>) -> ()

Exception in gpu::mlir_op: /src/AMDMIGraphX/src/targets/gpu/mlir.cpp:731: run_backend_pipeline: MLIR backend compilation failed: Error: 'rock.gemm' op K dimensions don't match k_a = 49 k_b = 16464
Note: see current operation: "rock.gemm"(%4, %7, %8) <{aTransposed, arch = "gfx908:sramecc+:xnack-", derivedBlockSize = 256 : i32, features = #rock<GemmFeatures mfma|dot|atomic_add>, gridSize = 2646 : i32, numCU = 120 : i32, params = #rock.xdlops_gemm_params<kpackPerBlock = 4, mPerBlock = 64, nPerBlock = 64, kpack = 4, mPerWave = 32, nPerWave = 32, forceUnroll = true>, storeMethod = #rock<StoreMethod set>}> : (memref<1x49x336xf32>, memref<1x16464x28224xf32>, memref<1x336x28224xf32>) -> ()

Exception in gpu::mlir_op: /src/AMDMIGraphX/src/targets/gpu/mlir.cpp:731: run_backend_pipeline: MLIR backend compilation failed: Error: 'rock.gemm' op K dimensions don't match k_a = 25 k_b = 16800
Note: see current operation: "rock.gemm"(%4, %7, %8) <{aTransposed, arch = "gfx908:sramecc+:xnack-", derivedBlockSize = 64 : i32, features = #rock<GemmFeatures mfma|dot|atomic_add>, gridSize = 20328 : i32, numCU = 120 : i32, params = #rock.xdlops_gemm_params<kpackPerBlock = 16, mPerBlock = 4, nPerBlock = 64, kpack = 1, mPerWave = 4, nPerWave = 64, forceUnroll = true>, storeMethod = #rock<StoreMethod set>}> : (memref<1x25x672xf32>, memref<1x16800x7744xf32>, memref<1x672x7744xf32>) -> ()

Exception in gpu::mlir_op: /src/AMDMIGraphX/src/targets/gpu/mlir.cpp:731: run_backend_pipeline: MLIR backend compilation failed: Error: 'rock.gemm' op K dimensions don't match k_a = 9 k_b = 378
Note: see current operation: "rock.gemm"(%4, %7, %8) <{aTransposed, arch = "gfx908:sramecc+:xnack-", derivedBlockSize = 128 : i32, features = #rock<GemmFeatures mfma|dot|atomic_add>, gridSize = 3445 : i32, numCU = 120 : i32, params = #rock.xdlops_gemm_params<kpackPerBlock = 4, mPerBlock = 128, nPerBlock = 128, kpack = 4, mPerWave = 64, nPerWave = 128, forceUnroll = true>, storeMethod = #rock<StoreMethod set>}> : (memref<1x9x42xf32>, memref<1x378x440896xf32>, memref<1x42x440896xf32>) -> ()

Exception in gpu::mlir_op: /src/AMDMIGraphX/src/targets/gpu/mlir.cpp:731: run_backend_pipeline: MLIR backend compilation failed: Error: 'rock.gemm' op K dimensions don't match k_a = 49 k_b = 16464
Note: see current operation: "rock.gemm"(%4, %7, %8) <{aTransposed, arch = "gfx908:sramecc+:xnack-", derivedBlockSize = 256 : i32, features = #rock<GemmFeatures mfma|dot|atomic_add>, gridSize = 2646 : i32, numCU = 120 : i32, params = #rock.xdlops_gemm_params<kpackPerBlock = 4, mPerBlock = 64, nPerBlock = 64, kpack = 8, mPerWave = 16, nPerWave = 64, forceUnroll = true>, storeMethod = #rock<StoreMethod set>}> : (memref<1x49x336xf32>, memref<1x16464x28224xf32>, memref<1x336x28224xf32>) -> ()

Exception in gpu::mlir_op: /src/AMDMIGraphX/src/targets/gpu/mlir.cpp:731: run_backend_pipeline: MLIR backend compilation failed: Error: 'rock.gemm' op K dimensions don't match k_a = 49 k_b = 2058
Note: see current operation: "rock.gemm"(%4, %7, %8) <{aTransposed, arch = "gfx908:sramecc+:xnack-", derivedBlockSize = 256 : i32, features = #rock<GemmFeatures mfma|dot|atomic_add>, gridSize = 3445 : i32, numCU = 120 : i32, params = #rock.xdlops_gemm_params<kpackPerBlock = 2, mPerBlock = 64, nPerBlock = 128, kpack = 4, mPerWave = 32, nPerWave = 64, forceUnroll = true>, storeMethod = #rock<StoreMethod set>}> : (memref<1x49x42xf32>, memref<1x2058x440896xf32>, memref<1x42x440896xf32>) -> ()

Exception in gpu::mlir_op: /src/AMDMIGraphX/src/targets/gpu/mlir.cpp:731: run_backend_pipeline: MLIR backend compilation failed: Error: 'rock.gemm' op K dimensions don't match k_a = 49 k_b = 4704
Note: see current operation: "rock.gemm"(%4, %7, %8) <{aTransposed, arch = "gfx908:sramecc+:xnack-", derivedBlockSize = 256 : i32, features = #rock<GemmFeatures mfma|dot|atomic_add>, gridSize = 13778 : i32, numCU = 120 : i32, params = #rock.xdlops_gemm_params<kpackPerBlock = 4, mPerBlock = 64, nPerBlock = 64, kpack = 8, mPerWave = 32, nPerWave = 32, forceUnroll = true>, storeMethod = #rock<StoreMethod set>}> : (memref<1x49x96xf32>, memref<1x4704x440896xf32>, memref<1x96x440896xf32>) -> ()

Exception in gpu::mlir_op: /src/AMDMIGraphX/src/targets/gpu/mlir.cpp:731: run_backend_pipeline: MLIR backend compilation failed: Error: 'rock.gemm' op K dimensions don't match k_a = 25 k_b = 8400
Note: see current operation: "rock.gemm"(%4, %7, %8) <{aTransposed, arch = "gfx908:sramecc+:xnack-", derivedBlockSize = 256 : i32, features = #rock<GemmFeatures mfma|dot|atomic_add>, gridSize = 9702 : i32, numCU = 120 : i32, params = #rock.xdlops_gemm_params<kpackPerBlock = 8, mPerBlock = 32, nPerBlock = 32, kpack = 4, mPerWave = 16, nPerWave = 16, forceUnroll = true>, storeMethod = #rock<StoreMethod set>}> : (memref<1x25x336xf32>, memref<1x8400x28224xf32>, memref<1x336x28224xf32>) -> ()

Exception in gpu::mlir_op: /src/AMDMIGraphX/src/targets/gpu/mlir.cpp:731: run_backend_pipeline: MLIR backend compilation failed: Error: 'rock.gemm' op K dimensions don't match k_a = 25 k_b = 1050
Note: see current operation: "rock.gemm"(%4, %7, %8) <{aTransposed, arch = "gfx908:sramecc+:xnack-", derivedBlockSize = 256 : i32, features = #rock<GemmFeatures mfma|dot|atomic_add>, gridSize = 3445 : i32, numCU = 120 : i32, params = #rock.xdlops_gemm_params<kpackPerBlock = 2, mPerBlock = 64, nPerBlock = 128, kpack = 8, mPerWave = 32, nPerWave = 64, forceUnroll = true>, storeMethod = #rock<StoreMethod set>}> : (memref<1x25x42xf32>, memref<1x1050x440896xf32>, memref<1x42x440896xf32>) -> ()

Exception in gpu::mlir_op: /src/AMDMIGraphX/src/targets/gpu/mlir.cpp:731: run_backend_pipeline: MLIR backend compilation failed: Error: 'rock.gemm' op K dimensions don't match k_a = 25 k_b = 16800
Note: see current operation: "rock.gemm"(%4, %7, %8) <{aTransposed, arch = "gfx908:sramecc+:xnack-", derivedBlockSize = 64 : i32, features = #rock<GemmFeatures mfma|dot|atomic_add>, gridSize = 20328 : i32, numCU = 120 : i32, params = #rock.xdlops_gemm_params<kpackPerBlock = 2, mPerBlock = 4, nPerBlock = 64, kpack = 8, mPerWave = 4, nPerWave = 64, forceUnroll = true>, storeMethod = #rock<StoreMethod set>}> : (memref<1x25x672xf32>, memref<1x16800x7744xf32>, memref<1x672x7744xf32>) -> ()

Exception in gpu::mlir_op: /src/AMDMIGraphX/src/targets/gpu/mlir.cpp:731: run_backend_pipeline: MLIR backend compilation failed: Error: 'rock.gemm' op K dimensions don't match k_a = 49 k_b = 32928
Note: see current operation: "rock.gemm"(%4, %7, %8) <{aTransposed, arch = "gfx908:sramecc+:xnack-", derivedBlockSize = 256 : i32, features = #rock<GemmFeatures mfma|dot|atomic_add>, gridSize = 341 : i32, numCU = 120 : i32, params = #rock.xdlops_gemm_params<kpackPerBlock = 8, mPerBlock = 64, nPerBlock = 256, kpack = 1, mPerWave = 64, nPerWave = 64, forceUnroll = true>, storeMethod = #rock<StoreMethod set>}> : (memref<1x49x672xf32>, memref<1x32928x7744xf32>, memref<1x672x7744xf32>) -> ()

Exception in gpu::mlir_op: /src/AMDMIGraphX/src/targets/gpu/mlir.cpp:731: run_backend_pipeline: MLIR backend compilation failed: Error: 'rock.gemm' op K dimensions don't match k_a = 9 k_b = 6048
Note: see current operation: "rock.gemm"(%4, %7, %8) <{aTransposed, arch = "gfx908:sramecc+:xnack-", derivedBlockSize = 256 : i32, features = #rock<GemmFeatures mfma|dot|atomic_add>, gridSize = 366 : i32, numCU = 120 : i32, params = #rock.xdlops_gemm_params<kpackPerBlock = 4, mPerBlock = 128, nPerBlock = 128, kpack = 4, mPerWave = 64, nPerWave = 64, forceUnroll = true>, storeMethod = #rock<StoreMethod set>}> : (memref<1x9x672xf32>, memref<1x6048x7744xf32>, memref<1x672x7744xf32>) -> ()

Exception in gpu::mlir_op: /src/AMDMIGraphX/src/targets/gpu/mlir.cpp:731: run_backend_pipeline: MLIR backend compilation failed: Error: 'rock.gemm' op K dimensions don't match k_a = 49 k_b = 4116
Note: see current operation: "rock.gemm"(%4, %7, %8) <{aTransposed, arch = "gfx908:sramecc+:xnack-", derivedBlockSize = 128 : i32, features = #rock<GemmFeatures mfma|dot|atomic_add>, gridSize = 5292 : i32, numCU = 120 : i32, params = #rock.xdlops_gemm_params<kpackPerBlock = 8, mPerBlock = 32, nPerBlock = 64, kpack = 4, mPerWave = 32, nPerWave = 32, forceUnroll = true>, storeMethod = #rock<StoreMethod set>}> : (memref<1x49x84xf32>, memref<1x4116x112896xf32>, memref<1x84x112896xf32>) -> ()

Exception in gpu::mlir_op: /src/AMDMIGraphX/src/targets/gpu/mlir.cpp:731: run_backend_pipeline: MLIR backend compilation failed: Error: 'rock.gemm' op K dimensions don't match k_a = 25 k_b = 16800
Note: see current operation: "rock.gemm"(%4, %7, %8) <{aTransposed, arch = "gfx908:sramecc+:xnack-", derivedBlockSize = 128 : i32, features = #rock<GemmFeatures mfma|dot|atomic_add>, gridSize = 10164 : i32, numCU = 120 : i32, params = #rock.xdlops_gemm_params<kpackPerBlock = 8, mPerBlock = 16, nPerBlock = 32, kpack = 8, mPerWave = 16, nPerWave = 16, forceUnroll = true>, storeMethod = #rock<StoreMethod set>}> : (memref<1x25x672xf32>, memref<1x16800x7744xf32>, memref<1x672x7744xf32>) -> ()

Exception in gpu::mlir_op: /src/AMDMIGraphX/src/targets/gpu/mlir.cpp:731: run_backend_pipeline: MLIR backend compilation failed: Error: 'rock.gemm' op K dimensions don't match k_a = 25 k_b = 4200
Note: see current operation: "rock.gemm"(%5, %8, %9) <{aTransposed, arch = "gfx908:sramecc+:xnack-", derivedBlockSize = 256 : i32, features = #rock<GemmFeatures mfma|dot|atomic_add>, gridSize = 19404 : i32, numCU = 120 : i32, params = #rock.xdlops_gemm_params<kpackPerBlock = 8, mPerBlock = 16, nPerBlock = 64, kpack = 4, mPerWave = 16, nPerWave = 16, forceUnroll = true>, storeMethod = #rock<StoreMethod set>}> : (memref<1x25x168xf32>, memref<1x4200x112896xf32>, memref<1x168x112896xf32>) -> ()

Exception in gpu::mlir_op: /src/AMDMIGraphX/src/targets/gpu/mlir.cpp:731: run_backend_pipeline: MLIR backend compilation failed: Error: 'rock.gemm' op K dimensions don't match k_a = 25 k_b = 2100
Note: see current operation: "rock.gemm"(%4, %7, %8) <{aTransposed, arch = "gfx908:sramecc+:xnack-", derivedBlockSize = 256 : i32, features = #rock<GemmFeatures mfma|dot|atomic_add>, gridSize = 882 : i32, numCU = 120 : i32, params = #rock.xdlops_gemm_params<kpackPerBlock = 8, mPerBlock = 128, nPerBlock = 128, kpack = 4, mPerWave = 64, nPerWave = 64, forceUnroll = true>, storeMethod = #rock<StoreMethod set>}> : (memref<1x25x84xf32>, memref<1x2100x112896xf32>, memref<1x84x112896xf32>) -> ()

Exception in gpu::mlir_op: /src/AMDMIGraphX/src/targets/gpu/mlir.cpp:731: run_backend_pipeline: MLIR backend compilation failed: Error: 'rock.gemm' op K dimensions don't match k_a = 9 k_b = 756
Note: see current operation: "rock.gemm"(%4, %7, %8) <{aTransposed, arch = "gfx908:sramecc+:xnack-", derivedBlockSize = 128 : i32, features = #rock<GemmFeatures mfma|dot|atomic_add>, gridSize = 5292 : i32, numCU = 120 : i32, params = #rock.xdlops_gemm_params<kpackPerBlock = 8, mPerBlock = 32, nPerBlock = 64, kpack = 4, mPerWave = 32, nPerWave = 32, forceUnroll = true>, storeMethod = #rock<StoreMethod set>}> : (memref<1x9x84xf32>, memref<1x756x112896xf32>, memref<1x84x112896xf32>) -> ()

Exception in gpu::mlir_op: /src/AMDMIGraphX/src/targets/gpu/mlir.cpp:731: run_backend_pipeline: MLIR backend compilation failed: Error: 'rock.gemm' op K dimensions don't match k_a = 9 k_b = 378
Note: see current operation: "rock.gemm"(%4, %7, %8) <{aTransposed, arch = "gfx908:sramecc+:xnack-", derivedBlockSize = 256 : i32, features = #rock<GemmFeatures mfma|dot|atomic_add>, gridSize = 3445 : i32, numCU = 120 : i32, params = #rock.xdlops_gemm_params<kpackPerBlock = 4, mPerBlock = 128, nPerBlock = 128, kpack = 4, mPerWave = 64, nPerWave = 64, forceUnroll = true>, storeMethod = #rock<StoreMethod set>}> : (memref<1x9x42xf32>, memref<1x378x440896xf32>, memref<1x42x440896xf32>) -> ()

Exception in gpu::mlir_op: /src/AMDMIGraphX/src/targets/gpu/mlir.cpp:731: run_backend_pipeline: MLIR backend compilation failed: Error: 'rock.gemm' op K dimensions don't match k_a = 9 k_b = 378
Note: see current operation: "rock.gemm"(%4, %7, %8) <{aTransposed, arch = "gfx908:sramecc+:xnack-", derivedBlockSize = 128 : i32, features = #rock<GemmFeatures mfma|dot|atomic_add>, gridSize = 3445 : i32, numCU = 120 : i32, params = #rock.xdlops_gemm_params<kpackPerBlock = 2, mPerBlock = 128, nPerBlock = 128, kpack = 8, mPerWave = 64, nPerWave = 128, forceUnroll = true>, storeMethod = #rock<StoreMethod set>}> : (memref<1x9x42xf32>, memref<1x378x440896xf32>, memref<1x42x440896xf32>) -> ()

Exception in gpu::mlir_op: /src/AMDMIGraphX/src/targets/gpu/mlir.cpp:731: run_backend_pipeline: MLIR backend compilation failed: Error: 'rock.gemm' op K dimensions don't match k_a = 25 k_b = 1050
Note: see current operation: "rock.gemm"(%4, %7, %8) <{aTransposed, arch = "gfx908:sramecc+:xnack-", derivedBlockSize = 256 : i32, features = #rock<GemmFeatures mfma|dot|atomic_add>, gridSize = 3445 : i32, numCU = 120 : i32, params = #rock.xdlops_gemm_params<kpackPerBlock = 2, mPerBlock = 64, nPerBlock = 128, kpack = 4, mPerWave = 32, nPerWave = 64, forceUnroll = true>, storeMethod = #rock<StoreMethod set>}> : (memref<1x25x42xf32>, memref<1x1050x440896xf32>, memref<1x42x440896xf32>) -> ()

Exception in gpu::mlir_op: /src/AMDMIGraphX/src/targets/gpu/mlir.cpp:731: run_backend_pipeline: MLIR backend compilation failed: Error: 'rock.gemm' op K dimensions don't match k_a = 49 k_b = 32928
Note: see current operation: "rock.gemm"(%4, %7, %8) <{aTransposed, arch = "gfx908:sramecc+:xnack-", derivedBlockSize = 64 : i32, features = #rock<GemmFeatures mfma|dot|atomic_add>, gridSize = 2541 : i32, numCU = 120 : i32, params = #rock.xdlops_gemm_params<kpackPerBlock = 4, mPerBlock = 32, nPerBlock = 64, kpack = 4, mPerWave = 32, nPerWave = 64, forceUnroll = true>, storeMethod = #rock<StoreMethod set>}> : (memref<1x49x672xf32>, memref<1x32928x7744xf32>, memref<1x672x7744xf32>) -> ()

Exception in gpu::mlir_op: /src/AMDMIGraphX/src/targets/gpu/mlir.cpp:731: run_backend_pipeline: MLIR backend compilation failed: Error: 'rock.gemm' op K dimensions don't match k_a = 25 k_b = 8400
Note: see current operation: "rock.gemm"(%4, %7, %8) <{aTransposed, arch = "gfx908:sramecc+:xnack-", derivedBlockSize = 256 : i32, features = #rock<GemmFeatures mfma|dot|atomic_add>, gridSize = 9702 : i32, numCU = 120 : i32, params = #rock.xdlops_gemm_params<kpackPerBlock = 4, mPerBlock = 32, nPerBlock = 32, kpack = 8, mPerWave = 16, nPerWave = 16, forceUnroll = true>, storeMethod = #rock<StoreMethod set>}> : (memref<1x25x336xf32>, memref<1x8400x28224xf32>, memref<1x336x28224xf32>) -> ()

Exception in gpu::mlir_op: /src/AMDMIGraphX/src/targets/gpu/mlir.cpp:731: run_backend_pipeline: MLIR backend compilation failed: Error: 'rock.gemm' op K dimensions don't match k_a = 49 k_b = 16464
Note: see current operation: "rock.gemm"(%4, %7, %8) <{aTransposed, arch = "gfx908:sramecc+:xnack-", derivedBlockSize = 256 : i32, features = #rock<GemmFeatures mfma|dot|atomic_add>, gridSize = 2646 : i32, numCU = 120 : i32, params = #rock.xdlops_gemm_params<kpackPerBlock = 4, mPerBlock = 64, nPerBlock = 64, kpack = 4, mPerWave = 16, nPerWave = 64, forceUnroll = true>, storeMethod = #rock<StoreMethod set>}> : (memref<1x49x336xf32>, memref<1x16464x28224xf32>, memref<1x336x28224xf32>) -> ()

Exception in gpu::mlir_op: /src/AMDMIGraphX/src/targets/gpu/mlir.cpp:731: run_backend_pipeline: MLIR backend compilation failed: Error: 'rock.gemm' op K dimensions don't match k_a = 49 k_b = 4116
Note: see current operation: "rock.gemm"(%4, %7, %8) <{aTransposed, arch = "gfx908:sramecc+:xnack-", derivedBlockSize = 256 : i32, features = #rock<GemmFeatures mfma|dot|atomic_add>, gridSize = 5292 : i32, numCU = 120 : i32, params = #rock.xdlops_gemm_params<kpackPerBlock = 8, mPerBlock = 32, nPerBlock = 64, kpack = 4, mPerWave = 8, nPerWave = 64, forceUnroll = true>, storeMethod = #rock<StoreMethod set>}> : (memref<1x49x84xf32>, memref<1x4116x112896xf32>, memref<1x84x112896xf32>) -> ()

Exception in gpu::mlir_op: /src/AMDMIGraphX/src/targets/gpu/mlir.cpp:731: run_backend_pipeline: MLIR backend compilation failed: Error: 'rock.gemm' op K dimensions don't match k_a = 25 k_b = 16800
Note: see current operation: "rock.gemm"(%4, %7, %8) <{aTransposed, arch = "gfx908:sramecc+:xnack-", derivedBlockSize = 256 : i32, features = #rock<GemmFeatures mfma|dot|atomic_add>, gridSize = 1281 : i32, numCU = 120 : i32, params = #rock.xdlops_gemm_params<kpackPerBlock = 4, mPerBlock = 32, nPerBlock = 128, kpack = 4, mPerWave = 32, nPerWave = 32, forceUnroll = true>, storeMethod = #rock<StoreMethod set>}> : (memref<1x25x672xf32>, memref<1x16800x7744xf32>, memref<1x672x7744xf32>) -> ()

Exception in gpu::mlir_op: /src/AMDMIGraphX/src/targets/gpu/mlir.cpp:731: run_backend_pipeline: MLIR backend compilation failed: Error: 'rock.gemm' op K dimensions don't match k_a = 25 k_b = 2100
Note: see current operation: "rock.gemm"(%4, %7, %8) <{aTransposed, arch = "gfx908:sramecc+:xnack-", derivedBlockSize = 128 : i32, features = #rock<GemmFeatures mfma|dot|atomic_add>, gridSize = 882 : i32, numCU = 120 : i32, params = #rock.xdlops_gemm_params<kpackPerBlock = 4, mPerBlock = 128, nPerBlock = 128, kpack = 4, mPerWave = 64, nPerWave = 128, forceUnroll = true>, storeMethod = #rock<StoreMethod set>}> : (memref<1x25x84xf32>, memref<1x2100x112896xf32>, memref<1x84x112896xf32>) -> ()

Exception in gpu::mlir_op: /src/AMDMIGraphX/src/targets/gpu/mlir.cpp:731: run_backend_pipeline: MLIR backend compilation failed: Error: 'rock.gemm' op K dimensions don't match k_a = 25 k_b = 16800
Note: see current operation: "rock.gemm"(%4, %7, %8) <{aTransposed, arch = "gfx908:sramecc+:xnack-", derivedBlockSize = 64 : i32, features = #rock<GemmFeatures mfma|dot|atomic_add>, gridSize = 20328 : i32, numCU = 120 : i32, params = #rock.xdlops_gemm_params<kpackPerBlock = 8, mPerBlock = 16, nPerBlock = 16, kpack = 8, mPerWave = 16, nPerWave = 16, forceUnroll = true>, storeMethod = #rock<StoreMethod set>}> : (memref<1x25x672xf32>, memref<1x16800x7744xf32>, memref<1x672x7744xf32>) -> ()

Exception in gpu::mlir_op: /src/AMDMIGraphX/src/targets/gpu/mlir.cpp:731: run_backend_pipeline: MLIR backend compilation failed: Error: 'rock.gemm' op K dimensions don't match k_a = 49 k_b = 2058
Note: see current operation: "rock.gemm"(%4, %7, %8) <{aTransposed, arch = "gfx908:sramecc+:xnack-", derivedBlockSize = 256 : i32, features = #rock<GemmFeatures mfma|dot|atomic_add>, gridSize = 1723 : i32, numCU = 120 : i32, params = #rock.xdlops_gemm_params<kpackPerBlock = 8, mPerBlock = 64, nPerBlock = 256, kpack = 1, mPerWave = 64, nPerWave = 64, forceUnroll = true>, storeMethod = #rock<StoreMethod set>}> : (memref<1x49x42xf32>, memref<1x2058x440896xf32>, memref<1x42x440896xf32>) -> ()

Exception in gpu::mlir_op: /src/AMDMIGraphX/src/targets/gpu/mlir.cpp:731: run_backend_pipeline: MLIR backend compilation failed: Error: 'rock.gemm' op K dimensions don't match k_a = 49 k_b = 4704
Note: see current operation: "rock.gemm"(%4, %7, %8) <{aTransposed, arch = "gfx908:sramecc+:xnack-", derivedBlockSize = 256 : i32, features = #rock<GemmFeatures mfma|dot|atomic_add>, gridSize = 13778 : i32, numCU = 120 : i32, params = #rock.xdlops_gemm_params<kpackPerBlock = 4, mPerBlock = 64, nPerBlock = 64, kpack = 4, mPerWave = 32, nPerWave = 32, forceUnroll = true>, storeMethod = #rock<StoreMethod set>}> : (memref<1x49x96xf32>, memref<1x4704x440896xf32>, memref<1x96x440896xf32>) -> ()

Exception in gpu::mlir_op: /src/AMDMIGraphX/src/targets/gpu/mlir.cpp:731: run_backend_pipeline: MLIR backend compilation failed: Error: 'rock.gemm' op K dimensions don't match k_a = 9 k_b = 756
Note: see current operation: "rock.gemm"(%4, %7, %8) <{aTransposed, arch = "gfx908:sramecc+:xnack-", derivedBlockSize = 256 : i32, features = #rock<GemmFeatures mfma|dot|atomic_add>, gridSize = 5292 : i32, numCU = 120 : i32, params = #rock.xdlops_gemm_params<kpackPerBlock = 8, mPerBlock = 32, nPerBlock = 64, kpack = 4, mPerWave = 8, nPerWave = 64, forceUnroll = true>, storeMethod = #rock<StoreMethod set>}> : (memref<1x9x84xf32>, memref<1x756x112896xf32>, memref<1x84x112896xf32>) -> ()

Exception in gpu::mlir_op: /src/AMDMIGraphX/src/targets/gpu/mlir.cpp:731: run_backend_pipeline: MLIR backend compilation failed: Error: 'rock.gemm' op K dimensions don't match k_a = 25 k_b = 4200
Note: see current operation: "rock.gemm"(%5, %8, %9) <{aTransposed, arch = "gfx908:sramecc+:xnack-", derivedBlockSize = 128 : i32, features = #rock<GemmFeatures mfma|dot|atomic_add>, gridSize = 38808 : i32, numCU = 120 : i32, params = #rock.xdlops_gemm_params<kpackPerBlock = 8, mPerBlock = 16, nPerBlock = 32, kpack = 4, mPerWave = 16, nPerWave = 16, forceUnroll = true>, storeMethod = #rock<StoreMethod set>}> : (memref<1x25x168xf32>, memref<1x4200x112896xf32>, memref<1x168x112896xf32>) -> ()

Exception in gpu::mlir_op: /src/AMDMIGraphX/src/targets/gpu/mlir.cpp:731: run_backend_pipeline: MLIR backend compilation failed: Error: 'rock.gemm' op K dimensions don't match k_a = 9 k_b = 6048
Note: see current operation: "rock.gemm"(%4, %7, %8) <{aTransposed, arch = "gfx908:sramecc+:xnack-", derivedBlockSize = 128 : i32, features = #rock<GemmFeatures mfma|dot|atomic_add>, gridSize = 366 : i32, numCU = 120 : i32, params = #rock.xdlops_gemm_params<kpackPerBlock = 2, mPerBlock = 128, nPerBlock = 128, kpack = 8, mPerWave = 64, nPerWave = 128, forceUnroll = true>, storeMethod = #rock<StoreMethod set>}> : (memref<1x9x672xf32>, memref<1x6048x7744xf32>, memref<1x672x7744xf32>) -> ()

Exception in gpu::mlir_op: /src/AMDMIGraphX/src/targets/gpu/mlir.cpp:731: run_backend_pipeline: MLIR backend compilation failed: Error: 'rock.gemm' op K dimensions don't match k_a = 9 k_b = 378
Note: see current operation: "rock.gemm"(%4, %7, %8) <{aTransposed, arch = "gfx908:sramecc+:xnack-", derivedBlockSize = 256 : i32, features = #rock<GemmFeatures mfma|dot|atomic_add>, gridSize = 3445 : i32, numCU = 120 : i32, params = #rock.xdlops_gemm_params<kpackPerBlock = 2, mPerBlock = 128, nPerBlock = 128, kpack = 8, mPerWave = 64, nPerWave = 64, forceUnroll = true>, storeMethod = #rock<StoreMethod set>}> : (memref<1x9x42xf32>, memref<1x378x440896xf32>, memref<1x42x440896xf32>) -> ()

Exception in gpu::mlir_op: /src/AMDMIGraphX/src/targets/gpu/mlir.cpp:731: run_backend_pipeline: MLIR backend compilation failed: Error: 'rock.gemm' op K dimensions don't match k_a = 9 k_b = 378
Note: see current operation: "rock.gemm"(%4, %7, %8) <{aTransposed, arch = "gfx908:sramecc+:xnack-", derivedBlockSize = 256 : i32, features = #rock<GemmFeatures mfma|dot|atomic_add>, gridSize = 3445 : i32, numCU = 120 : i32, params = #rock.xdlops_gemm_params<kpackPerBlock = 2, mPerBlock = 128, nPerBlock = 128, kpack = 4, mPerWave = 64, nPerWave = 64, forceUnroll = true>, storeMethod = #rock<StoreMethod set>}> : (memref<1x9x42xf32>, memref<1x378x440896xf32>, memref<1x42x440896xf32>) -> ()

Exception in gpu::mlir_op: /src/AMDMIGraphX/src/targets/gpu/mlir.cpp:731: run_backend_pipeline: MLIR backend compilation failed: Error: 'rock.gemm' op K dimensions don't match k_a = 25 k_b = 1050
Note: see current operation: "rock.gemm"(%4, %7, %8) <{aTransposed, arch = "gfx908:sramecc+:xnack-", derivedBlockSize = 256 : i32, features = #rock<GemmFeatures mfma|dot|atomic_add>, gridSize = 6890 : i32, numCU = 120 : i32, params = #rock.xdlops_gemm_params<kpackPerBlock = 4, mPerBlock = 32, nPerBlock = 128, kpack = 4, mPerWave = 32, nPerWave = 32, forceUnroll = true>, storeMethod = #rock<StoreMethod set>}> : (memref<1x25x42xf32>, memref<1x1050x440896xf32>, memref<1x42x440896xf32>) -> ()

Exception in gpu::mlir_op: /src/AMDMIGraphX/src/targets/gpu/mlir.cpp:731: run_backend_pipeline: MLIR backend compilation failed: Error: 'rock.gemm' op K dimensions don't match k_a = 49 k_b = 16464
Note: see current operation: "rock.gemm"(%4, %7, %8) <{aTransposed, arch = "gfx908:sramecc+:xnack-", derivedBlockSize = 256 : i32, features = #rock<GemmFeatures mfma|dot|atomic_add>, gridSize = 2646 : i32, numCU = 120 : i32, params = #rock.xdlops_gemm_params<kpackPerBlock = 2, mPerBlock = 64, nPerBlock = 64, kpack = 8, mPerWave = 32, nPerWave = 32, forceUnroll = true>, storeMethod = #rock<StoreMethod set>}> : (memref<1x49x336xf32>, memref<1x16464x28224xf32>, memref<1x336x28224xf32>) -> ()

Exception in gpu::mlir_op: /src/AMDMIGraphX/src/targets/gpu/mlir.cpp:731: run_backend_pipeline: MLIR backend compilation failed: Error: 'rock.gemm' op K dimensions don't match k_a = 49 k_b = 4704
Note: see current operation: "rock.gemm"(%4, %7, %8) <{aTransposed, arch = "gfx908:sramecc+:xnack-", derivedBlockSize = 256 : i32, features = #rock<GemmFeatures mfma|dot|atomic_add>, gridSize = 13778 : i32, numCU = 120 : i32, params = #rock.xdlops_gemm_params<kpackPerBlock = 4, mPerBlock = 64, nPerBlock = 64, kpack = 8, mPerWave = 16, nPerWave = 64, forceUnroll = true>, storeMethod = #rock<StoreMethod set>}> : (memref<1x49x96xf32>, memref<1x4704x440896xf32>, memref<1x96x440896xf32>) -> ()
Exception in gpu::mlir_op: /src/AMDMIGraphX/src/targets/gpu/mlir.cpp:731: run_backend_pipeline: MLIR backend compilation failed: Error: 'rock.gemm' op K dimensions don't match k_a = 25 k_b = 16800
Note: see current operation: "rock.gemm"(%4, %7, %8) <{aTransposed, arch = "gfx908:sramecc+:xnack-", derivedBlockSize = 256 : i32, features = #rock<GemmFeatures mfma|dot|atomic_add>, gridSize = 1331 : i32, numCU = 120 : i32, params = #rock.xdlops_gemm_params<kpackPerBlock = 8, mPerBlock = 64, nPerBlock = 64, kpack = 4, mPerWave = 32, nPerWave = 32, forceUnroll = true>, storeMethod = #rock<StoreMethod set>}> : (memref<1x25x672xf32>, memref<1x16800x7744xf32>, memref<1x672x7744xf32>) -> ()
Exception in gpu::mlir_op: /src/AMDMIGraphX/src/targets/gpu/mlir.cpp:731: run_backend_pipeline: MLIR backend compilation failed: Error: 'rock.gemm' op K dimensions don't match k_a = 25 k_b = 8400
Note: see current operation: "rock.gemm"(%4, %7, %8) <{aTransposed, arch = "gfx908:sramecc+:xnack-", derivedBlockSize = 256 : i32, features = #rock<GemmFeatures mfma|dot|atomic_add>, gridSize = 2431 : i32, numCU = 120 : i32, params = #rock.xdlops_gemm_params<kpackPerBlock = 4, mPerBlock = 32, nPerBlock = 128, kpack = 4, mPerWave = 32, nPerWave = 32, forceUnroll = true>, storeMethod = #rock<StoreMethod set>}> : (memref<1x25x336xf32>, memref<1x8400x28224xf32>, memref<1x336x28224xf32>) -> ()

Exception in gpu::mlir_op: /src/AMDMIGraphX/src/targets/gpu/mlir.cpp:731: run_backend_pipeline: MLIR backend compilation failed: Error: 'rock.gemm' op K dimensions don't match k_a = 9 k_b = 6048
Note: see current operation: "rock.gemm"(%4, %7, %8) <{aTransposed, arch = "gfx908:sramecc+:xnack-", derivedBlockSize = 256 : i32, features = #rock<GemmFeatures mfma|dot|atomic_add>, gridSize = 366 : i32, numCU = 120 : i32, params = #rock.xdlops_gemm_params<kpackPerBlock = 2, mPerBlock = 128, nPerBlock = 128, kpack = 8, mPerWave = 64, nPerWave = 64, forceUnroll = true>, storeMethod = #rock<StoreMethod set>}> : (memref<1x9x672xf32>, memref<1x6048x7744xf32>, memref<1x672x7744xf32>) -> ()

Exception in gpu::mlir_op: /src/AMDMIGraphX/src/targets/gpu/mlir.cpp:731: run_backend_pipeline: MLIR backend compilation failed: Error: 'rock.gemm' op K dimensions don't match k_a = 49 k_b = 2058
Note: see current operation: "rock.gemm"(%4, %7, %8) <{aTransposed, arch = "gfx908:sramecc+:xnack-", derivedBlockSize = 256 : i32, features = #rock<GemmFeatures mfma|dot|atomic_add>, gridSize = 6889 : i32, numCU = 120 : i32, params = #rock.xdlops_gemm_params<kpackPerBlock = 8, mPerBlock = 64, nPerBlock = 64, kpack = 4, mPerWave = 32, nPerWave = 32, forceUnroll = true>, storeMethod = #rock<StoreMethod set>}> : (memref<1x49x42xf32>, memref<1x2058x440896xf32>, memref<1x42x440896xf32>) -> ()

Exception in gpu::mlir_op: /src/AMDMIGraphX/src/targets/gpu/mlir.cpp:731: run_backend_pipeline: MLIR backend compilation failed: Error: 'rock.gemm' op K dimensions don't match k_a = 25 k_b = 4200
Note: see current operation: "rock.gemm"(%5, %8, %9) <{aTransposed, arch = "gfx908:sramecc+:xnack-", derivedBlockSize = 64 : i32, features = #rock<GemmFeatures mfma|dot|atomic_add>, gridSize = 77616 : i32, numCU = 120 : i32, params = #rock.xdlops_gemm_params<kpackPerBlock = 4, mPerBlock = 16, nPerBlock = 16, kpack = 4, mPerWave = 16, nPerWave = 16, forceUnroll = true>, storeMethod = #rock<StoreMethod set>}> : (memref<1x25x168xf32>, memref<1x4200x112896xf32>, memref<1x168x112896xf32>) -> ()


Exception in gpu::mlir_op: /src/AMDMIGraphX/src/targets/gpu/mlir.cpp:731: run_backend_pipeline: MLIR backend compilation failed: Error: 'rock.gemm' op K dimensions don't match k_a = 25 k_b = 2100
Note: see current operation: "rock.gemm"(%4, %7, %8) <{aTransposed, arch = "gfx908:sramecc+:xnack-", derivedBlockSize = 256 : i32, features = #rock<GemmFeatures mfma|dot|atomic_add>, gridSize = 882 : i32, numCU = 120 : i32, params = #rock.xdlops_gemm_params<kpackPerBlock = 4, mPerBlock = 128, nPerBlock = 128, kpack = 8, mPerWave = 64, nPerWave = 64, forceUnroll = true>, storeMethod = #rock<StoreMethod set>}> : (memref<1x25x84xf32>, memref<1x2100x112896xf32>, memref<1x84x112896xf32>) -> ()


Exception in gpu::mlir_op: /src/AMDMIGraphX/src/targets/gpu/mlir.cpp:731: run_backend_pipeline: MLIR backend compilation failed: Error: 'rock.gemm' op K dimensions don't match k_a = 25 k_b = 16800
Note: see current operation: "rock.gemm"(%4, %7, %8) <{aTransposed, arch = "gfx908:sramecc+:xnack-", derivedBlockSize = 128 : i32, features = #rock<GemmFeatures mfma|dot|atomic_add>, gridSize = 10164 : i32, numCU = 120 : i32, params = #rock.xdlops_gemm_params<kpackPerBlock = 8, mPerBlock = 8, nPerBlock = 64, kpack = 8, mPerWave = 4, nPerWave = 64, forceUnroll = true>, storeMethod = #rock<StoreMethod set>}> : (memref<1x25x672xf32>, memref<1x16800x7744xf32>, memref<1x672x7744xf32>) -> ()

Exception in gpu::mlir_op: /src/AMDMIGraphX/src/targets/gpu/mlir.cpp:731: run_backend_pipeline: MLIR backend compilation failed: Error: 'rock.gemm' op K dimensions don't match k_a = 9 k_b = 756
Note: see current operation: "rock.gemm"(%4, %7, %8) <{aTransposed, arch = "gfx908:sramecc+:xnack-", derivedBlockSize = 256 : i32, features = #rock<GemmFeatures mfma|dot|atomic_add>, gridSize = 10584 : i32, numCU = 120 : i32, params = #rock.xdlops_gemm_params<kpackPerBlock = 8, mPerBlock = 32, nPerBlock = 32, kpack = 4, mPerWave = 16, nPerWave = 16, forceUnroll = true>, storeMethod = #rock<StoreMethod set>}> : (memref<1x9x84xf32>, memref<1x756x112896xf32>, memref<1x84x112896xf32>) -> ()

Exception in gpu::mlir_op: /src/AMDMIGraphX/src/targets/gpu/mlir.cpp:731: run_backend_pipeline: MLIR backend compilation failed: Error: 'rock.gemm' op K dimensions don't match k_a = 49 k_b = 4116
Note: see current operation: "rock.gemm"(%4, %7, %8) <{aTransposed, arch = "gfx908:sramecc+:xnack-", derivedBlockSize = 128 : i32, features = #rock<GemmFeatures mfma|dot|atomic_add>, gridSize = 5292 : i32, numCU = 120 : i32, params = #rock.xdlops_gemm_params<kpackPerBlock = 2, mPerBlock = 32, nPerBlock = 64, kpack = 8, mPerWave = 32, nPerWave = 32, forceUnroll = true>, storeMethod = #rock<StoreMethod set>}> : (memref<1x49x84xf32>, memref<1x4116x112896xf32>, memref<1x84x112896xf32>) -> ()

Exception in gpu::mlir_op: /src/AMDMIGraphX/src/targets/gpu/mlir.cpp:731: run_backend_pipeline: MLIR backend compilation failed: Error: 'rock.gemm' op K dimensions don't match k_a = 49 k_b = 32928
Note: see current operation: "rock.gemm"(%4, %7, %8) <{aTransposed, arch = "gfx908:sramecc+:xnack-", derivedBlockSize = 256 : i32, features = #rock<GemmFeatures mfma|dot|atomic_add>, gridSize = 2541 : i32, numCU = 120 : i32, params = #rock.xdlops_gemm_params<kpackPerBlock = 4, mPerBlock = 32, nPerBlock = 64, kpack = 4, mPerWave = 8, nPerWave = 64, forceUnroll = true>, storeMethod = #rock<StoreMethod set>}> : (memref<1x49x672xf32>, memref<1x32928x7744xf32>, memref<1x672x7744xf32>) -> ()

Exception in gpu::mlir_op: /src/AMDMIGraphX/src/targets/gpu/mlir.cpp:731: run_backend_pipeline: MLIR backend compilation failed: Error: 'rock.gemm' op K dimensions don't match k_a = 9 k_b = 378
Note: see current operation: "rock.gemm"(%4, %7, %8) <{aTransposed, arch = "gfx908:sramecc+:xnack-", derivedBlockSize = 256 : i32, features = #rock<GemmFeatures mfma|dot|atomic_add>, gridSize = 1723 : i32, numCU = 120 : i32, params = #rock.xdlops_gemm_params<kpackPerBlock = 4, mPerBlock = 128, nPerBlock = 256, kpack = 4, mPerWave = 64, nPerWave = 128, forceUnroll = true>, storeMethod = #rock<StoreMethod set>}> : (memref<1x9x42xf32>, memref<1x378x440896xf32>, memref<1x42x440896xf32>) -> ()

Exception in gpu::mlir_op: /src/AMDMIGraphX/src/targets/gpu/mlir.cpp:731: run_backend_pipeline: MLIR backend compilation failed: Error: 'rock.gemm' op K dimensions don't match k_a = 9 k_b = 756
Note: see current operation: "rock.gemm"(%4, %7, %8) <{aTransposed, arch = "gfx908:sramecc+:xnack-", derivedBlockSize = 256 : i32, features = #rock<GemmFeatures mfma|dot|atomic_add>, gridSize = 10584 : i32, numCU = 120 : i32, params = #rock.xdlops_gemm_params<kpackPerBlock = 4, mPerBlock = 32, nPerBlock = 32, kpack = 8, mPerWave = 16, nPerWave = 16, forceUnroll = true>, storeMethod = #rock<StoreMethod set>}> : (memref<1x9x84xf32>, memref<1x756x112896xf32>, memref<1x84x112896xf32>) -> ()

Exception in gpu::mlir_op: /src/AMDMIGraphX/src/targets/gpu/mlir.cpp:731: run_backend_pipeline: MLIR backend compilation failed: Error: 'rock.gemm' op K dimensions don't match k_a = 25 k_b = 1050
Note: see current operation: "rock.gemm"(%4, %7, %8) <{aTransposed, arch = "gfx908:sramecc+:xnack-", derivedBlockSize = 256 : i32, features = #rock<GemmFeatures mfma|dot|atomic_add>, gridSize = 1723 : i32, numCU = 120 : i32, params = #rock.xdlops_gemm_params<kpackPerBlock = 8, mPerBlock = 64, nPerBlock = 256, kpack = 1, mPerWave = 64, nPerWave = 64, forceUnroll = true>, storeMethod = #rock<StoreMethod set>}> : (memref<1x25x42xf32>, memref<1x1050x440896xf32>, memref<1x42x440896xf32>) -> ()
Exception in gpu::mlir_op: /src/AMDMIGraphX/src/targets/gpu/mlir.cpp:731: run_backend_pipeline: MLIR backend compilation failed: Error: 'rock.gemm' op K dimensions don't match k_a = 25 k_b = 2100
Note: see current operation: "rock.gemm"(%4, %7, %8) <{aTransposed, arch = "gfx908:sramecc+:xnack-", derivedBlockSize = 256 : i32, features = #rock<GemmFeatures mfma|dot|atomic_add>, gridSize = 882 : i32, numCU = 120 : i32, params = #rock.xdlops_gemm_params<kpackPerBlock = 4, mPerBlock = 128, nPerBlock = 128, kpack = 4, mPerWave = 64, nPerWave = 64, forceUnroll = true>, storeMethod = #rock<StoreMethod set>}> : (memref<1x25x84xf32>, memref<1x2100x112896xf32>, memref<1x84x112896xf32>) -> ()

Exception in gpu::mlir_op: /src/AMDMIGraphX/src/targets/gpu/mlir.cpp:731: run_backend_pipeline: MLIR backend compilation failed: Error: 'rock.gemm' op K dimensions don't match k_a = 49 k_b = 16464
Note: see current operation: "rock.gemm"(%4, %7, %8) <{aTransposed, arch = "gfx908:sramecc+:xnack-", derivedBlockSize = 256 : i32, features = #rock<GemmFeatures mfma|dot|atomic_add>, gridSize = 663 : i32, numCU = 120 : i32, params = #rock.xdlops_gemm_params<kpackPerBlock = 8, mPerBlock = 128, nPerBlock = 128, kpack = 4, mPerWave = 64, nPerWave = 64, forceUnroll = true>, storeMethod = #rock<StoreMethod set>}> : (memref<1x49x336xf32>, memref<1x16464x28224xf32>, memref<1x336x28224xf32>) -> ()

Exception in gpu::mlir_op: /src/AMDMIGraphX/src/targets/gpu/mlir.cpp:731: run_backend_pipeline: MLIR backend compilation failed: Error: 'rock.gemm' op K dimensions don't match k_a = 49 k_b = 4704
Note: see current operation: "rock.gemm"(%4, %7, %8) <{aTransposed, arch = "gfx908:sramecc+:xnack-", derivedBlockSize = 256 : i32, features = #rock<GemmFeatures mfma|dot|atomic_add>, gridSize = 13778 : i32, numCU = 120 : i32, params = #rock.xdlops_gemm_params<kpackPerBlock = 4, mPerBlock = 64, nPerBlock = 64, kpack = 4, mPerWave = 16, nPerWave = 64, forceUnroll = true>, storeMethod = #rock<StoreMethod set>}> : (memref<1x49x96xf32>, memref<1x4704x440896xf32>, memref<1x96x440896xf32>) -> ()


Exception in gpu::mlir_op: /src/AMDMIGraphX/src/targets/gpu/mlir.cpp:731: run_backend_pipeline: MLIR backend compilation failed: Error: 'rock.gemm' op K dimensions don't match k_a = 25 k_b = 4200
Note: see current operation: "rock.gemm"(%5, %8, %9) <{aTransposed, arch = "gfx908:sramecc+:xnack-", derivedBlockSize = 256 : i32, features = #rock<GemmFeatures mfma|dot|atomic_add>, gridSize = 1323 : i32, numCU = 120 : i32, params = #rock.xdlops_gemm_params<kpackPerBlock = 8, mPerBlock = 64, nPerBlock = 256, kpack = 1, mPerWave = 64, nPerWave = 64, forceUnroll = true>, storeMethod = #rock<StoreMethod set>}> : (memref<1x25x168xf32>, memref<1x4200x112896xf32>, memref<1x168x112896xf32>) -> ()
Exception in gpu::mlir_op: /src/AMDMIGraphX/src/targets/gpu/mlir.cpp:731: run_backend_pipeline: MLIR backend compilation failed: Error: 'rock.gemm' op K dimensions don't match k_a = 9 k_b = 6048
Note: see current operation: "rock.gemm"(%4, %7, %8) <{aTransposed, arch = "gfx908:sramecc+:xnack-", derivedBlockSize = 256 : i32, features = #rock<GemmFeatures mfma|dot|atomic_add>, gridSize = 366 : i32, numCU = 120 : i32, params = #rock.xdlops_gemm_params<kpackPerBlock = 2, mPerBlock = 128, nPerBlock = 128, kpack = 4, mPerWave = 64, nPerWave = 64, forceUnroll = true>, storeMethod = #rock<StoreMethod set>}> : (memref<1x9x672xf32>, memref<1x6048x7744xf32>, memref<1x672x7744xf32>) -> ()

Exception in gpu::mlir_op: /src/AMDMIGraphX/src/targets/gpu/mlir.cpp:731: run_backend_pipeline: MLIR backend compilation failed: Error: 'rock.gemm' op K dimensions don't match k_a = 25 k_b = 16800
Note: see current operation: "rock.gemm"(%4, %7, %8) <{aTransposed, arch = "gfx908:sramecc+:xnack-", derivedBlockSize = 256 : i32, features = #rock<GemmFeatures mfma|dot|atomic_add>, gridSize = 1331 : i32, numCU = 120 : i32, params = #rock.xdlops_gemm_params<kpackPerBlock = 4, mPerBlock = 64, nPerBlock = 64, kpack = 8, mPerWave = 32, nPerWave = 32, forceUnroll = true>, storeMethod = #rock<StoreMethod set>}> : (memref<1x25x672xf32>, memref<1x16800x7744xf32>, memref<1x672x7744xf32>) -> ()


Exception in gpu::mlir_op: /src/AMDMIGraphX/src/targets/gpu/mlir.cpp:731: run_backend_pipeline: MLIR backend compilation failed: Error: 'rock.gemm' op K dimensions don't match k_a = 49 k_b = 32928
Note: see current operation: "rock.gemm"(%4, %7, %8) <{aTransposed, arch = "gfx908:sramecc+:xnack-", derivedBlockSize = 128 : i32, features = #rock<GemmFeatures mfma|dot|atomic_add>, gridSize = 2541 : i32, numCU = 120 : i32, params = #rock.xdlops_gemm_params<kpackPerBlock = 8, mPerBlock = 32, nPerBlock = 64, kpack = 4, mPerWave = 32, nPerWave = 32, forceUnroll = true>, storeMethod = #rock<StoreMethod set>}> : (memref<1x49x672xf32>, memref<1x32928x7744xf32>, memref<1x672x7744xf32>) -> ()

Exception in gpu::mlir_op: /src/AMDMIGraphX/src/targets/gpu/mlir.cpp:731: run_backend_pipeline: MLIR backend compilation failed: Error: 'rock.gemm' op K dimensions don't match k_a = 49 k_b = 2058
Note: see current operation: "rock.gemm"(%4, %7, %8) <{aTransposed, arch = "gfx908:sramecc+:xnack-", derivedBlockSize = 256 : i32, features = #rock<GemmFeatures mfma|dot|atomic_add>, gridSize = 6889 : i32, numCU = 120 : i32, params = #rock.xdlops_gemm_params<kpackPerBlock = 4, mPerBlock = 64, nPerBlock = 64, kpack = 8, mPerWave = 32, nPerWave = 32, forceUnroll = true>, storeMethod = #rock<StoreMethod set>}> : (memref<1x49x42xf32>, memref<1x2058x440896xf32>, memref<1x42x440896xf32>) -> ()

Exception in gpu::mlir_op: /src/AMDMIGraphX/src/targets/gpu/mlir.cpp:731: run_backend_pipeline: MLIR backend compilation failed: Error: 'rock.gemm' op K dimensions don't match k_a = 49 k_b = 4116
Note: see current operation: "rock.gemm"(%4, %7, %8) <{aTransposed, arch = "gfx908:sramecc+:xnack-", derivedBlockSize = 256 : i32, features = #rock<GemmFeatures mfma|dot|atomic_add>, gridSize = 10584 : i32, numCU = 120 : i32, params = #rock.xdlops_gemm_params<kpackPerBlock = 8, mPerBlock = 32, nPerBlock = 32, kpack = 8, mPerWave = 16, nPerWave = 16, forceUnroll = true>, storeMethod = #rock<StoreMethod set>}> : (memref<1x49x84xf32>, memref<1x4116x112896xf32>, memref<1x84x112896xf32>) -> ()

Exception in gpu::mlir_op: /src/AMDMIGraphX/src/targets/gpu/mlir.cpp:731: run_backend_pipeline: MLIR backend compilation failed: Error: 'rock.gemm' op K dimensions don't match k_a = 25 k_b = 8400
Note: see current operation: "rock.gemm"(%4, %7, %8) <{aTransposed, arch = "gfx908:sramecc+:xnack-", derivedBlockSize = 256 : i32, features = #rock<GemmFeatures mfma|dot|atomic_add>, gridSize = 2646 : i32, numCU = 120 : i32, params = #rock.xdlops_gemm_params<kpackPerBlock = 8, mPerBlock = 64, nPerBlock = 64, kpack = 4, mPerWave = 32, nPerWave = 32, forceUnroll = true>, storeMethod = #rock<StoreMethod set>}> : (memref<1x25x336xf32>, memref<1x8400x28224xf32>, memref<1x336x28224xf32>) -> ()

Exception in gpu::mlir_op: /src/AMDMIGraphX/src/targets/gpu/mlir.cpp:731: run_backend_pipeline: MLIR backend compilation failed: Error: 'rock.gemm' op K dimensions don't match k_a = 9 k_b = 756
Note: see current operation: "rock.gemm"(%4, %7, %8) <{aTransposed, arch = "gfx908:sramecc+:xnack-", derivedBlockSize = 256 : i32, features = #rock<GemmFeatures mfma|dot|atomic_add>, gridSize = 10584 : i32, numCU = 120 : i32, params = #rock.xdlops_gemm_params<kpackPerBlock = 8, mPerBlock = 16, nPerBlock = 64, kpack = 4, mPerWave = 16, nPerWave = 16, forceUnroll = true>, storeMethod = #rock<StoreMethod set>}> : (memref<1x9x84xf32>, memref<1x756x112896xf32>, memref<1x84x112896xf32>) -> ()

Exception in gpu::mlir_op: /src/AMDMIGraphX/src/targets/gpu/mlir.cpp:731: run_backend_pipeline: MLIR backend compilation failed: Error: 'rock.gemm' op K dimensions don't match k_a = 9 k_b = 378
Note: see current operation: "rock.gemm"(%4, %7, %8) <{aTransposed, arch = "gfx908:sramecc+:xnack-", derivedBlockSize = 256 : i32, features = #rock<GemmFeatures mfma|dot|atomic_add>, gridSize = 20667 : i32, numCU = 120 : i32, params = #rock.xdlops_gemm_params<kpackPerBlock = 8, mPerBlock = 16, nPerBlock = 64, kpack = 8, mPerWave = 16, nPerWave = 16, forceUnroll = true>, storeMethod = #rock<StoreMethod set>}> : (memref<1x9x42xf32>, memref<1x378x440896xf32>, memref<1x42x440896xf32>) -> ()

Exception in gpu::mlir_op: /src/AMDMIGraphX/src/targets/gpu/mlir.cpp:731: run_backend_pipeline: MLIR backend compilation failed: Error: 'rock.gemm' op K dimensions don't match k_a = 9 k_b = 756
Note: see current operation: "rock.gemm"(%4, %7, %8) <{aTransposed, arch = "gfx908:sramecc+:xnack-", derivedBlockSize = 128 : i32, features = #rock<GemmFeatures mfma|dot|atomic_add>, gridSize = 21168 : i32, numCU = 120 : i32, params = #rock.xdlops_gemm_params<kpackPerBlock = 8, mPerBlock = 16, nPerBlock = 32, kpack = 4, mPerWave = 16, nPerWave = 16, forceUnroll = true>, storeMethod = #rock<StoreMethod set>}> : (memref<1x9x84xf32>, memref<1x756x112896xf32>, memref<1x84x112896xf32>) -> ()

Exception in gpu::mlir_op: /src/AMDMIGraphX/src/targets/gpu/mlir.cpp:731: run_backend_pipeline: MLIR backend compilation failed: Error: 'rock.gemm' op K dimensions don't match k_a = 9 k_b = 378
Note: see current operation: "rock.gemm"(%4, %7, %8) <{aTransposed, arch = "gfx908:sramecc+:xnack-", derivedBlockSize = 128 : i32, features = #rock<GemmFeatures mfma|dot|atomic_add>, gridSize = 41334 : i32, numCU = 120 : i32, params = #rock.xdlops_gemm_params<kpackPerBlock = 8, mPerBlock = 16, nPerBlock = 32, kpack = 8, mPerWave = 16, nPerWave = 16, forceUnroll = true>, storeMethod = #rock<StoreMethod set>}> : (memref<1x9x42xf32>, memref<1x378x440896xf32>, memref<1x42x440896xf32>) -> ()

Exception in gpu::mlir_op: /src/AMDMIGraphX/src/targets/gpu/mlir.cpp:731: run_backend_pipeline: MLIR backend compilation failed: Error: 'rock.gemm' op K dimensions don't match k_a = 49 k_b = 4116
Note: see current operation: "rock.gemm"(%4, %7, %8) <{aTransposed, arch = "gfx908:sramecc+:xnack-", derivedBlockSize = 256 : i32, features = #rock<GemmFeatures mfma|dot|atomic_add>, gridSize = 10584 : i32, numCU = 120 : i32, params = #rock.xdlops_gemm_params<kpackPerBlock = 8, mPerBlock = 32, nPerBlock = 32, kpack = 4, mPerWave = 16, nPerWave = 16, forceUnroll = true>, storeMethod = #rock<StoreMethod set>}> : (memref<1x49x84xf32>, memref<1x4116x112896xf32>, memref<1x84x112896xf32>) -> ()

Exception in gpu::mlir_op: /src/AMDMIGraphX/src/targets/gpu/mlir.cpp:731: run_backend_pipeline: MLIR backend compilation failed: Error: 'rock.gemm' op K dimensions don't match k_a = 25 k_b = 1050
Note: see current operation: "rock.gemm"(%4, %7, %8) <{aTransposed, arch = "gfx908:sramecc+:xnack-", derivedBlockSize = 256 : i32, features = #rock<GemmFeatures mfma|dot|atomic_add>, gridSize = 1723 : i32, numCU = 120 : i32, params = #rock.xdlops_gemm_params<kpackPerBlock = 4, mPerBlock = 64, nPerBlock = 256, kpack = 4, mPerWave = 64, nPerWave = 64, forceUnroll = true>, storeMethod = #rock<StoreMethod set>}> : (memref<1x25x42xf32>, memref<1x1050x440896xf32>, memref<1x42x440896xf32>) -> ()

Exception in gpu::mlir_op: /src/AMDMIGraphX/src/targets/gpu/mlir.cpp:731: run_backend_pipeline: MLIR backend compilation failed: Error: 'rock.gemm' op K dimensions don't match k_a = 25 k_b = 8400
Note: see current operation: "rock.gemm"(%4, %7, %8) <{aTransposed, arch = "gfx908:sramecc+:xnack-", derivedBlockSize = 256 : i32, features = #rock<GemmFeatures mfma|dot|atomic_add>, gridSize = 2646 : i32, numCU = 120 : i32, params = #rock.xdlops_gemm_params<kpackPerBlock = 4, mPerBlock = 64, nPerBlock = 64, kpack = 8, mPerWave = 32, nPerWave = 32, forceUnroll = true>, storeMethod = #rock<StoreMethod set>}> : (memref<1x25x336xf32>, memref<1x8400x28224xf32>, memref<1x336x28224xf32>) -> ()

Exception in gpu::mlir_op: /src/AMDMIGraphX/src/targets/gpu/mlir.cpp:731: run_backend_pipeline: MLIR backend compilation failed: Error: 'rock.gemm' op K dimensions don't match k_a = 25 k_b = 2100
Note: see current operation: "rock.gemm"(%4, %7, %8) <{aTransposed, arch = "gfx908:sramecc+:xnack-", derivedBlockSize = 128 : i32, features = #rock<GemmFeatures mfma|dot|atomic_add>, gridSize = 882 : i32, numCU = 120 : i32, params = #rock.xdlops_gemm_params<kpackPerBlock = 2, mPerBlock = 128, nPerBlock = 128, kpack = 8, mPerWave = 64, nPerWave = 128, forceUnroll = true>, storeMethod = #rock<StoreMethod set>}> : (memref<1x25x84xf32>, memref<1x2100x112896xf32>, memref<1x84x112896xf32>) -> ()

Exception in gpu::mlir_op: /src/AMDMIGraphX/src/targets/gpu/mlir.cpp:731: run_backend_pipeline: MLIR backend compilation failed: Error: 'rock.gemm' op K dimensions don't match k_a = 25 k_b = 16800
Note: see current operation: "rock.gemm"(%4, %7, %8) <{aTransposed, arch = "gfx908:sramecc+:xnack-", derivedBlockSize = 256 : i32, features = #rock<GemmFeatures mfma|dot|atomic_add>, gridSize = 1331 : i32, numCU = 120 : i32, params = #rock.xdlops_gemm_params<kpackPerBlock = 4, mPerBlock = 64, nPerBlock = 64, kpack = 4, mPerWave = 32, nPerWave = 32, forceUnroll = true>, storeMethod = #rock<StoreMethod set>}> : (memref<1x25x672xf32>, memref<1x16800x7744xf32>, memref<1x672x7744xf32>) -> ()

Exception in gpu::mlir_op: /src/AMDMIGraphX/src/targets/gpu/mlir.cpp:731: run_backend_pipeline: MLIR backend compilation failed: Error: 'rock.gemm' op K dimensions don't match k_a = 49 k_b = 2058
Note: see current operation: "rock.gemm"(%4, %7, %8) <{aTransposed, arch = "gfx908:sramecc+:xnack-", derivedBlockSize = 256 : i32, features = #rock<GemmFeatures mfma|dot|atomic_add>, gridSize = 6889 : i32, numCU = 120 : i32, params = #rock.xdlops_gemm_params<kpackPerBlock = 4, mPerBlock = 64, nPerBlock = 64, kpack = 4, mPerWave = 32, nPerWave = 32, forceUnroll = true>, storeMethod = #rock<StoreMethod set>}> : (memref<1x49x42xf32>, memref<1x2058x440896xf32>, memref<1x42x440896xf32>) -> ()

Exception in gpu::mlir_op: /src/AMDMIGraphX/src/targets/gpu/mlir.cpp:731: run_backend_pipeline: MLIR backend compilation failed: Error: 'rock.gemm' op K dimensions don't match k_a = 49 k_b = 32928
Note: see current operation: "rock.gemm"(%4, %7, %8) <{aTransposed, arch = "gfx908:sramecc+:xnack-", derivedBlockSize = 256 : i32, features = #rock<GemmFeatures mfma|dot|atomic_add>, gridSize = 2541 : i32, numCU = 120 : i32, params = #rock.xdlops_gemm_params<kpackPerBlock = 8, mPerBlock = 32, nPerBlock = 64, kpack = 4, mPerWave = 8, nPerWave = 64, forceUnroll = true>, storeMethod = #rock<StoreMethod set>}> : (memref<1x49x672xf32>, memref<1x32928x7744xf32>, memref<1x672x7744xf32>) -> ()

Exception in gpu::mlir_op: /src/AMDMIGraphX/src/targets/gpu/mlir.cpp:731: run_backend_pipeline: MLIR backend compilation failed: Error: 'rock.gemm' op K dimensions don't match k_a = 49 k_b = 16464
Note: see current operation: "rock.gemm"(%4, %7, %8) <{aTransposed, arch = "gfx908:sramecc+:xnack-", derivedBlockSize = 128 : i32, features = #rock<GemmFeatures mfma|dot|atomic_add>, gridSize = 663 : i32, numCU = 120 : i32, params = #rock.xdlops_gemm_params<kpackPerBlock = 4, mPerBlock = 128, nPerBlock = 128, kpack = 4, mPerWave = 64, nPerWave = 128, forceUnroll = true>, storeMethod = #rock<StoreMethod set>}> : (memref<1x49x336xf32>, memref<1x16464x28224xf32>, memref<1x336x28224xf32>) -> ()

Exception in gpu::mlir_op: /src/AMDMIGraphX/src/targets/gpu/mlir.cpp:731: run_backend_pipeline: MLIR backend compilation failed: Error: 'rock.gemm' op K dimensions don't match k_a = 49 k_b = 4704
Note: see current operation: "rock.gemm"(%4, %7, %8) <{aTransposed, arch = "gfx908:sramecc+:xnack-", derivedBlockSize = 256 : i32, features = #rock<GemmFeatures mfma|dot|atomic_add>, gridSize = 13778 : i32, numCU = 120 : i32, params = #rock.xdlops_gemm_params<kpackPerBlock = 2, mPerBlock = 64, nPerBlock = 64, kpack = 8, mPerWave = 32, nPerWave = 32, forceUnroll = true>, storeMethod = #rock<StoreMethod set>}> : (memref<1x49x96xf32>, memref<1x4704x440896xf32>, memref<1x96x440896xf32>) -> ()

Exception in gpu::mlir_op: /src/AMDMIGraphX/src/targets/gpu/mlir.cpp:731: run_backend_pipeline: MLIR backend compilation failed: Error: 'rock.gemm' op K dimensions don't match k_a = 9 k_b = 6048
Note: see current operation: "rock.gemm"(%4, %7, %8) <{aTransposed, arch = "gfx908:sramecc+:xnack-", derivedBlockSize = 256 : i32, features = #rock<GemmFeatures mfma|dot|atomic_add>, gridSize = 186 : i32, numCU = 120 : i32, params = #rock.xdlops_gemm_params<kpackPerBlock = 4, mPerBlock = 128, nPerBlock = 256, kpack = 4, mPerWave = 64, nPerWave = 128, forceUnroll = true>, storeMethod = #rock<StoreMethod set>}> : (memref<1x9x672xf32>, memref<1x6048x7744xf32>, memref<1x672x7744xf32>) -> ()

Exception in gpu::mlir_op: /src/AMDMIGraphX/src/targets/gpu/mlir.cpp:731: run_backend_pipeline: MLIR backend compilation failed: Error: 'rock.gemm' op K dimensions don't match k_a = 25 k_b = 4200
Note: see current operation: "rock.gemm"(%5, %8, %9) <{aTransposed, arch = "gfx908:sramecc+:xnack-", derivedBlockSize = 256 : i32, features = #rock<GemmFeatures mfma|dot|atomic_add>, gridSize = 1323 : i32, numCU = 120 : i32, params = #rock.xdlops_gemm_params<kpackPerBlock = 4, mPerBlock = 64, nPerBlock = 256, kpack = 4, mPerWave = 64, nPerWave = 64, forceUnroll = true>, storeMethod = #rock<StoreMethod set>}> : (memref<1x25x168xf32>, memref<1x4200x112896xf32>, memref<1x168x112896xf32>) -> ()

Exception in gpu::mlir_op: /src/AMDMIGraphX/src/targets/gpu/mlir.cpp:731: run_backend_pipeline: MLIR backend compilation failed: Error: 'rock.gemm' op K dimensions don't match k_a = 9 k_b = 378
Note: see current operation: "rock.gemm"(%4, %7, %8) <{aTransposed, arch = "gfx908:sramecc+:xnack-", derivedBlockSize = 64 : i32, features = #rock<GemmFeatures mfma|dot|atomic_add>, gridSize = 82668 : i32, numCU = 120 : i32, params = #rock.xdlops_gemm_params<kpackPerBlock = 8, mPerBlock = 16, nPerBlock = 16, kpack = 8, mPerWave = 16, nPerWave = 16, forceUnroll = true>, storeMethod = #rock<StoreMethod set>}> : (memref<1x9x42xf32>, memref<1x378x440896xf32>, memref<1x42x440896xf32>) -> ()

Exception in gpu::mlir_op: /src/AMDMIGraphX/src/targets/gpu/mlir.cpp:731: run_backend_pipeline: MLIR backend compilation failed: Error: 'rock.gemm' op K dimensions don't match k_a = 9 k_b = 756
Note: see current operation: "rock.gemm"(%4, %7, %8) <{aTransposed, arch = "gfx908:sramecc+:xnack-", derivedBlockSize = 256 : i32, features = #rock<GemmFeatures mfma|dot|atomic_add>, gridSize = 882 : i32, numCU = 120 : i32, params = #rock.xdlops_gemm_params<kpackPerBlock = 8, mPerBlock = 128, nPerBlock = 128, kpack = 4, mPerWave = 64, nPerWave = 64, forceUnroll = true>, storeMethod = #rock<StoreMethod set>}> : (memref<1x9x84xf32>, memref<1x756x112896xf32>, memref<1x84x112896xf32>) -> ()

Exception in gpu::mlir_op: /src/AMDMIGraphX/src/targets/gpu/mlir.cpp:731: run_backend_pipeline: MLIR backend compilation failed: Error: 'rock.gemm' op K dimensions don't match k_a = 9 k_b = 6048
Note: see current operation: "rock.gemm"(%4, %7, %8) <{aTransposed, arch = "gfx908:sramecc+:xnack-", derivedBlockSize = 128 : i32, features = #rock<GemmFeatures mfma|dot|atomic_add>, gridSize = 2541 : i32, numCU = 120 : i32, params = #rock.xdlops_gemm_params<kpackPerBlock = 8, mPerBlock = 32, nPerBlock = 64, kpack = 4, mPerWave = 32, nPerWave = 32, forceUnroll = true>, storeMethod = #rock<StoreMethod set>}> : (memref<1x9x672xf32>, memref<1x6048x7744xf32>, memref<1x672x7744xf32>) -> ()
Exception in gpu::mlir_op: /src/AMDMIGraphX/src/targets/gpu/mlir.cpp:731: run_backend_pipeline: MLIR backend compilation failed: Error: 'rock.gemm' op K dimensions don't match k_a = 25 k_b = 16800
Note: see current operation: "rock.gemm"(%4, %7, %8) <{aTransposed, arch = "gfx908:sramecc+:xnack-", derivedBlockSize = 256 : i32, features = #rock<GemmFeatures mfma|dot|atomic_add>, gridSize = 1331 : i32, numCU = 120 : i32, params = #rock.xdlops_gemm_params<kpackPerBlock = 4, mPerBlock = 64, nPerBlock = 64, kpack = 8, mPerWave = 16, nPerWave = 64, forceUnroll = true>, storeMethod = #rock<StoreMethod set>}> : (memref<1x25x672xf32>, memref<1x16800x7744xf32>, memref<1x672x7744xf32>) -> ()

Exception in gpu::mlir_op: /src/AMDMIGraphX/src/targets/gpu/mlir.cpp:731: run_backend_pipeline: MLIR backend compilation failed: Error: 'rock.gemm' op K dimensions don't match k_a = 25 k_b = 1050
Note: see current operation: "rock.gemm"(%4, %7, %8) <{aTransposed, arch = "gfx908:sramecc+:xnack-", derivedBlockSize = 256 : i32, features = #rock<GemmFeatures mfma|dot|atomic_add>, gridSize = 20667 : i32, numCU = 120 : i32, params = #rock.xdlops_gemm_params<kpackPerBlock = 8, mPerBlock = 16, nPerBlock = 64, kpack = 8, mPerWave = 16, nPerWave = 16, forceUnroll = true>, storeMethod = #rock<StoreMethod set>}> : (memref<1x25x42xf32>, memref<1x1050x440896xf32>, memref<1x42x440896xf32>) -> ()

Exception in gpu::mlir_op: /src/AMDMIGraphX/src/targets/gpu/mlir.cpp:731: run_backend_pipeline: MLIR backend compilation failed: Error: 'rock.gemm' op K dimensions don't match k_a = 25 k_b = 2100
Note: see current operation: "rock.gemm"(%4, %7, %8) <{aTransposed, arch = "gfx908:sramecc+:xnack-", derivedBlockSize = 256 : i32, features = #rock<GemmFeatures mfma|dot|atomic_add>, gridSize = 882 : i32, numCU = 120 : i32, params = #rock.xdlops_gemm_params<kpackPerBlock = 2, mPerBlock = 128, nPerBlock = 128, kpack = 8, mPerWave = 64, nPerWave = 64, forceUnroll = true>, storeMethod = #rock<StoreMethod set>}> : (memref<1x25x84xf32>, memref<1x2100x112896xf32>, memref<1x84x112896xf32>) -> ()

Exception in gpu::mlir_op: /src/AMDMIGraphX/src/targets/gpu/mlir.cpp:731: run_backend_pipeline: MLIR backend compilation failed: Error: 'rock.gemm' op K dimensions don't match k_a = 49 k_b = 4704
Note: see current operation: "rock.gemm"(%4, %7, %8) <{aTransposed, arch = "gfx908:sramecc+:xnack-", derivedBlockSize = 256 : i32, features = #rock<GemmFeatures mfma|dot|atomic_add>, gridSize = 3445 : i32, numCU = 120 : i32, params = #rock.xdlops_gemm_params<kpackPerBlock = 8, mPerBlock = 128, nPerBlock = 128, kpack = 4, mPerWave = 64, nPerWave = 64, forceUnroll = true>, storeMethod = #rock<StoreMethod set>}> : (memref<1x49x96xf32>, memref<1x4704x440896xf32>, memref<1x96x440896xf32>) -> ()

Exception in gpu::mlir_op: /src/AMDMIGraphX/src/targets/gpu/mlir.cpp:731: run_backend_pipeline: MLIR backend compilation failed: Error: 'rock.gemm' op K dimensions don't match k_a = 49 k_b = 2058
Note: see current operation: "rock.gemm"(%4, %7, %8) <{aTransposed, arch = "gfx908:sramecc+:xnack-", derivedBlockSize = 256 : i32, features = #rock<GemmFeatures mfma|dot|atomic_add>, gridSize = 6889 : i32, numCU = 120 : i32, params = #rock.xdlops_gemm_params<kpackPerBlock = 4, mPerBlock = 64, nPerBlock = 64, kpack = 8, mPerWave = 16, nPerWave = 64, forceUnroll = true>, storeMethod = #rock<StoreMethod set>}> : (memref<1x49x42xf32>, memref<1x2058x440896xf32>, memref<1x42x440896xf32>) -> ()

Exception in gpu::mlir_op: /src/AMDMIGraphX/src/targets/gpu/mlir.cpp:731: run_backend_pipeline: MLIR backend compilation failed: Error: 'rock.gemm' op K dimensions don't match k_a = 49 k_b = 4116
Note: see current operation: "rock.gemm"(%4, %7, %8) <{aTransposed, arch = "gfx908:sramecc+:xnack-", derivedBlockSize = 256 : i32, features = #rock<GemmFeatures mfma|dot|atomic_add>, gridSize = 10584 : i32, numCU = 120 : i32, params = #rock.xdlops_gemm_params<kpackPerBlock = 4, mPerBlock = 32, nPerBlock = 32, kpack = 8, mPerWave = 16, nPerWave = 16, forceUnroll = true>, storeMethod = #rock<StoreMethod set>}> : (memref<1x49x84xf32>, memref<1x4116x112896xf32>, memref<1x84x112896xf32>) -> ()

Exception in gpu::mlir_op: /src/AMDMIGraphX/src/targets/gpu/mlir.cpp:731: run_backend_pipeline: MLIR backend compilation failed: Error: 'rock.gemm' op K dimensions don't match k_a = 49 k_b = 16464
Note: see current operation: "rock.gemm"(%4, %7, %8) <{aTransposed, arch = "gfx908:sramecc+:xnack-", derivedBlockSize = 256 : i32, features = #rock<GemmFeatures mfma|dot|atomic_add>, gridSize = 663 : i32, numCU = 120 : i32, params = #rock.xdlops_gemm_params<kpackPerBlock = 4, mPerBlock = 128, nPerBlock = 128, kpack = 8, mPerWave = 64, nPerWave = 64, forceUnroll = true>, storeMethod = #rock<StoreMethod set>}> : (memref<1x49x336xf32>, memref<1x16464x28224xf32>, memref<1x336x28224xf32>) -> ()


Exception in gpu::mlir_op: /src/AMDMIGraphX/src/targets/gpu/mlir.cpp:731: run_backend_pipeline: MLIR backend compilation failed: Error: 'rock.gemm' op K dimensions don't match k_a = 49 k_b = 32928
Note: see current operation: "rock.gemm"(%4, %7, %8) <{aTransposed, arch = "gfx908:sramecc+:xnack-", derivedBlockSize = 128 : i32, features = #rock<GemmFeatures mfma|dot|atomic_add>, gridSize = 2541 : i32, numCU = 120 : i32, params = #rock.xdlops_gemm_params<kpackPerBlock = 2, mPerBlock = 32, nPerBlock = 64, kpack = 8, mPerWave = 32, nPerWave = 32, forceUnroll = true>, storeMethod = #rock<StoreMethod set>}> : (memref<1x49x672xf32>, memref<1x32928x7744xf32>, memref<1x672x7744xf32>) -> ()
Exception in gpu::mlir_op: /src/AMDMIGraphX/src/targets/gpu/mlir.cpp:731: run_backend_pipeline: MLIR backend compilation failed: Error: 'rock.gemm' op K dimensions don't match k_a = 25 k_b = 8400
Note: see current operation: "rock.gemm"(%4, %7, %8) <{aTransposed, arch = "gfx908:sramecc+:xnack-", derivedBlockSize = 256 : i32, features = #rock<GemmFeatures mfma|dot|atomic_add>, gridSize = 2646 : i32, numCU = 120 : i32, params = #rock.xdlops_gemm_params<kpackPerBlock = 4, mPerBlock = 64, nPerBlock = 64, kpack = 4, mPerWave = 32, nPerWave = 32, forceUnroll = true>, storeMethod = #rock<StoreMethod set>}> : (memref<1x25x336xf32>, memref<1x8400x28224xf32>, memref<1x336x28224xf32>) -> ()


Exception in gpu::mlir_op: /src/AMDMIGraphX/src/targets/gpu/mlir.cpp:731: run_backend_pipeline: MLIR backend compilation failed: Error: 'rock.gemm' op K dimensions don't match k_a = 25 k_b = 4200
Note: see current operation: "rock.gemm"(%5, %8, %9) <{aTransposed, arch = "gfx908:sramecc+:xnack-", derivedBlockSize = 256 : i32, features = #rock<GemmFeatures mfma|dot|atomic_add>, gridSize = 2646 : i32, numCU = 120 : i32, params = #rock.xdlops_gemm_params<kpackPerBlock = 4, mPerBlock = 64, nPerBlock = 128, kpack = 4, mPerWave = 32, nPerWave = 64, forceUnroll = true>, storeMethod = #rock<StoreMethod set>}> : (memref<1x25x168xf32>, memref<1x4200x112896xf32>, memref<1x168x112896xf32>) -> ()

Exception in gpu::mlir_op: /src/AMDMIGraphX/src/targets/gpu/mlir.cpp:731: run_backend_pipeline: MLIR backend compilation failed: Error: 'rock.gemm' op K dimensions don't match k_a = 9 k_b = 756
Note: see current operation: "rock.gemm"(%4, %7, %8) <{aTransposed, arch = "gfx908:sramecc+:xnack-", derivedBlockSize = 256 : i32, features = #rock<GemmFeatures mfma|dot|atomic_add>, gridSize = 882 : i32, numCU = 120 : i32, params = #rock.xdlops_gemm_params<kpackPerBlock = 4, mPerBlock = 128, nPerBlock = 128, kpack = 8, mPerWave = 64, nPerWave = 64, forceUnroll = true>, storeMethod = #rock<StoreMethod set>}> : (memref<1x9x84xf32>, memref<1x756x112896xf32>, memref<1x84x112896xf32>) -> ()

Exception in gpu::mlir_op: /src/AMDMIGraphX/src/targets/gpu/mlir.cpp:731: run_backend_pipeline: MLIR backend compilation failed: Error: 'rock.gemm' op K dimensions don't match k_a = 9 k_b = 378
Note: see current operation: "rock.gemm"(%4, %7, %8) <{aTransposed, arch = "gfx908:sramecc+:xnack-", derivedBlockSize = 128 : i32, features = #rock<GemmFeatures mfma|dot|atomic_add>, gridSize = 41334 : i32, numCU = 120 : i32, params = #rock.xdlops_gemm_params<kpackPerBlock = 8, mPerBlock = 8, nPerBlock = 64, kpack = 8, mPerWave = 4, nPerWave = 64, forceUnroll = true>, storeMethod = #rock<StoreMethod set>}> : (memref<1x9x42xf32>, memref<1x378x440896xf32>, memref<1x42x440896xf32>) -> ()

Exception in gpu::mlir_op: /src/AMDMIGraphX/src/targets/gpu/mlir.cpp:731: run_backend_pipeline: MLIR backend compilation failed: Error: 'rock.gemm' op K dimensions don't match k_a = 9 k_b = 756
Note: see current operation: "rock.gemm"(%4, %7, %8) <{aTransposed, arch = "gfx908:sramecc+:xnack-", derivedBlockSize = 256 : i32, features = #rock<GemmFeatures mfma|dot|atomic_add>, gridSize = 3528 : i32, numCU = 120 : i32, params = #rock.xdlops_gemm_params<kpackPerBlock = 8, mPerBlock = 64, nPerBlock = 64, kpack = 4, mPerWave = 32, nPerWave = 32, forceUnroll = true>, storeMethod = #rock<StoreMethod set>}> : (memref<1x9x84xf32>, memref<1x756x112896xf32>, memref<1x84x112896xf32>) -> ()

Exception in gpu::mlir_op: /src/AMDMIGraphX/src/targets/gpu/mlir.cpp:731: run_backend_pipeline: MLIR backend compilation failed: Error: 'rock.gemm' op K dimensions don't match k_a = 9 k_b = 378
Note: see current operation: "rock.gemm"(%4, %7, %8) <{aTransposed, arch = "gfx908:sramecc+:xnack-", derivedBlockSize = 256 : i32, features = #rock<GemmFeatures mfma|dot|atomic_add>, gridSize = 27556 : i32, numCU = 120 : i32, params = #rock.xdlops_gemm_params<kpackPerBlock = 8, mPerBlock = 32, nPerBlock = 32, kpack = 8, mPerWave = 16, nPerWave = 16, forceUnroll = true>, storeMethod = #rock<StoreMethod set>}> : (memref<1x9x42xf32>, memref<1x378x440896xf32>, memref<1x42x440896xf32>) -> ()

Exception in gpu::mlir_op: /src/AMDMIGraphX/src/targets/gpu/mlir.cpp:731: run_backend_pipeline: MLIR backend compilation failed: Error: 'rock.gemm' op K dimensions don't match k_a = 25 k_b = 2100
Note: see current operation: "rock.gemm"(%4, %7, %8) <{aTransposed, arch = "gfx908:sramecc+:xnack-", derivedBlockSize = 256 : i32, features = #rock<GemmFeatures mfma|dot|atomic_add>, gridSize = 882 : i32, numCU = 120 : i32, params = #rock.xdlops_gemm_params<kpackPerBlock = 2, mPerBlock = 128, nPerBlock = 128, kpack = 4, mPerWave = 64, nPerWave = 64, forceUnroll = true>, storeMethod = #rock<StoreMethod set>}> : (memref<1x25x84xf32>, memref<1x2100x112896xf32>, memref<1x84x112896xf32>) -> ()
Exception in gpu::mlir_op: /src/AMDMIGraphX/src/targets/gpu/mlir.cpp:731: run_backend_pipeline: MLIR backend compilation failed: Error: 'rock.gemm' op K dimensions don't match k_a = 49 k_b = 32928
Note: see current operation: "rock.gemm"(%4, %7, %8) <{aTransposed, arch = "gfx908:sramecc+:xnack-", derivedBlockSize = 256 : i32, features = #rock<GemmFeatures mfma|dot|atomic_add>, gridSize = 5082 : i32, numCU = 120 : i32, params = #rock.xdlops_gemm_params<kpackPerBlock = 8, mPerBlock = 32, nPerBlock = 32, kpack = 8, mPerWave = 16, nPerWave = 16, forceUnroll = true>, storeMethod = #rock<StoreMethod set>}> : (memref<1x49x672xf32>, memref<1x32928x7744xf32>, memref<1x672x7744xf32>) -> ()
Exception in gpu::mlir_op: /src/AMDMIGraphX/src/targets/gpu/mlir.cpp:731: run_backend_pipeline: MLIR backend compilation failed: Error: 'rock.gemm' op K dimensions don't match k_a = 49 k_b = 16464
Note: see current operation: "rock.gemm"(%4, %7, %8) <{aTransposed, arch = "gfx908:sramecc+:xnack-", derivedBlockSize = 256 : i32, features = #rock<GemmFeatures mfma|dot|atomic_add>, gridSize = 663 : i32, numCU = 120 : i32, params = #rock.xdlops_gemm_params<kpackPerBlock = 4, mPerBlock = 128, nPerBlock = 128, kpack = 4, mPerWave = 64, nPerWave = 64, forceUnroll = true>, storeMethod = #rock<StoreMethod set>}> : (memref<1x49x336xf32>, memref<1x16464x28224xf32>, memref<1x336x28224xf32>) -> ()

Exception in gpu::mlir_op: /src/AMDMIGraphX/src/targets/gpu/mlir.cpp:731: run_backend_pipeline: MLIR backend compilation failed: Error: 'rock.gemm' op K dimensions don't match k_a = 25 k_b = 1050
Note: see current operation: "rock.gemm"(%4, %7, %8) <{aTransposed, arch = "gfx908:sramecc+:xnack-", derivedBlockSize = 128 : i32, features = #rock<GemmFeatures mfma|dot|atomic_add>, gridSize = 41334 : i32, numCU = 120 : i32, params = #rock.xdlops_gemm_params<kpackPerBlock = 8, mPerBlock = 16, nPerBlock = 32, kpack = 8, mPerWave = 16, nPerWave = 16, forceUnroll = true>, storeMethod = #rock<StoreMethod set>}> : (memref<1x25x42xf32>, memref<1x1050x440896xf32>, memref<1x42x440896xf32>) -> ()

Exception in gpu::mlir_op: /src/AMDMIGraphX/src/targets/gpu/mlir.cpp:731: run_backend_pipeline: MLIR backend compilation failed: Error: 'rock.gemm' op K dimensions don't match k_a = 25 k_b = 8400
Note: see current operation: "rock.gemm"(%4, %7, %8) <{aTransposed, arch = "gfx908:sramecc+:xnack-", derivedBlockSize = 256 : i32, features = #rock<GemmFeatures mfma|dot|atomic_add>, gridSize = 2646 : i32, numCU = 120 : i32, params = #rock.xdlops_gemm_params<kpackPerBlock = 4, mPerBlock = 64, nPerBlock = 64, kpack = 8, mPerWave = 16, nPerWave = 64, forceUnroll = true>, storeMethod = #rock<StoreMethod set>}> : (memref<1x25x336xf32>, memref<1x8400x28224xf32>, memref<1x336x28224xf32>) -> ()

Exception in gpu::mlir_op: /src/AMDMIGraphX/src/targets/gpu/mlir.cpp:731: run_backend_pipeline: MLIR backend compilation failed: Error: 'rock.gemm' op K dimensions don't match k_a = 49 k_b = 2058
Note: see current operation: "rock.gemm"(%4, %7, %8) <{aTransposed, arch = "gfx908:sramecc+:xnack-", derivedBlockSize = 256 : i32, features = #rock<GemmFeatures mfma|dot|atomic_add>, gridSize = 6889 : i32, numCU = 120 : i32, params = #rock.xdlops_gemm_params<kpackPerBlock = 4, mPerBlock = 64, nPerBlock = 64, kpack = 4, mPerWave = 16, nPerWave = 64, forceUnroll = true>, storeMethod = #rock<StoreMethod set>}> : (memref<1x49x42xf32>, memref<1x2058x440896xf32>, memref<1x42x440896xf32>) -> ()

Exception in gpu::mlir_op: /src/AMDMIGraphX/src/targets/gpu/mlir.cpp:731: run_backend_pipeline: MLIR backend compilation failed: Error: 'rock.gemm' op K dimensions don't match k_a = 49 k_b = 4704
Note: see current operation: "rock.gemm"(%4, %7, %8) <{aTransposed, arch = "gfx908:sramecc+:xnack-", derivedBlockSize = 128 : i32, features = #rock<GemmFeatures mfma|dot|atomic_add>, gridSize = 3445 : i32, numCU = 120 : i32, params = #rock.xdlops_gemm_params<kpackPerBlock = 4, mPerBlock = 128, nPerBlock = 128, kpack = 4, mPerWave = 64, nPerWave = 128, forceUnroll = true>, storeMethod = #rock<StoreMethod set>}> : (memref<1x49x96xf32>, memref<1x4704x440896xf32>, memref<1x96x440896xf32>) -> ()


Exception in gpu::mlir_op: /src/AMDMIGraphX/src/targets/gpu/mlir.cpp:731: run_backend_pipeline: MLIR backend compilation failed: Error: 'rock.gemm' op K dimensions don't match k_a = 9 k_b = 6048
Note: see current operation: "rock.gemm"(%4, %7, %8) <{aTransposed, arch = "gfx908:sramecc+:xnack-", derivedBlockSize = 256 : i32, features = #rock<GemmFeatures mfma|dot|atomic_add>, gridSize = 2541 : i32, numCU = 120 : i32, params = #rock.xdlops_gemm_params<kpackPerBlock = 8, mPerBlock = 32, nPerBlock = 64, kpack = 4, mPerWave = 8, nPerWave = 64, forceUnroll = true>, storeMethod = #rock<StoreMethod set>}> : (memref<1x9x672xf32>, memref<1x6048x7744xf32>, memref<1x672x7744xf32>) -> ()


Exception in gpu::mlir_op: /src/AMDMIGraphX/src/targets/gpu/mlir.cpp:731: run_backend_pipeline: MLIR backend compilation failed: Error: 'rock.gemm' op K dimensions don't match k_a = 49 k_b = 4116
Note: see current operation: "rock.gemm"(%4, %7, %8) <{aTransposed, arch = "gfx908:sramecc+:xnack-", derivedBlockSize = 256 : i32, features = #rock<GemmFeatures mfma|dot|atomic_add>, gridSize = 10584 : i32, numCU = 120 : i32, params = #rock.xdlops_gemm_params<kpackPerBlock = 8, mPerBlock = 16, nPerBlock = 64, kpack = 8, mPerWave = 16, nPerWave = 16, forceUnroll = true>, storeMethod = #rock<StoreMethod set>}> : (memref<1x49x84xf32>, memref<1x4116x112896xf32>, memref<1x84x112896xf32>) -> ()

Exception in gpu::mlir_op: /src/AMDMIGraphX/src/targets/gpu/mlir.cpp:731: run_backend_pipeline: MLIR backend compilation failed: Error: 'rock.gemm' op K dimensions don't match k_a = 25 k_b = 16800
Note: see current operation: "rock.gemm"(%4, %7, %8) <{aTransposed, arch = "gfx908:sramecc+:xnack-", derivedBlockSize = 256 : i32, features = #rock<GemmFeatures mfma|dot|atomic_add>, gridSize = 1331 : i32, numCU = 120 : i32, params = #rock.xdlops_gemm_params<kpackPerBlock = 4, mPerBlock = 64, nPerBlock = 64, kpack = 4, mPerWave = 16, nPerWave = 64, forceUnroll = true>, storeMethod = #rock<StoreMethod set>}> : (memref<1x25x672xf32>, memref<1x16800x7744xf32>, memref<1x672x7744xf32>) -> ()

Exception in gpu::mlir_op: /src/AMDMIGraphX/src/targets/gpu/mlir.cpp:731: run_backend_pipeline: MLIR backend compilation failed: Error: 'rock.gemm' op K dimensions don't match k_a = 25 k_b = 4200
Note: see current operation: "rock.gemm"(%5, %8, %9) <{aTransposed, arch = "gfx908:sramecc+:xnack-", derivedBlockSize = 256 : i32, features = #rock<GemmFeatures mfma|dot|atomic_add>, gridSize = 2646 : i32, numCU = 120 : i32, params = #rock.xdlops_gemm_params<kpackPerBlock = 2, mPerBlock = 64, nPerBlock = 128, kpack = 8, mPerWave = 32, nPerWave = 64, forceUnroll = true>, storeMethod = #rock<StoreMethod set>}> : (memref<1x25x168xf32>, memref<1x4200x112896xf32>, memref<1x168x112896xf32>) -> ()

Exception in gpu::mlir_op: /src/AMDMIGraphX/src/targets/gpu/mlir.cpp:731: run_backend_pipeline: MLIR backend compilation failed: Error: 'rock.gemm' op K dimensions don't match k_a = 9 k_b = 378
Note: see current operation: "rock.gemm"(%4, %7, %8) <{aTransposed, arch = "gfx908:sramecc+:xnack-", derivedBlockSize = 256 : i32, features = #rock<GemmFeatures mfma|dot|atomic_add>, gridSize = 3445 : i32, numCU = 120 : i32, params = #rock.xdlops_gemm_params<kpackPerBlock = 8, mPerBlock = 128, nPerBlock = 128, kpack = 4, mPerWave = 64, nPerWave = 64, forceUnroll = true>, storeMethod = #rock<StoreMethod set>}> : (memref<1x9x42xf32>, memref<1x378x440896xf32>, memref<1x42x440896xf32>) -> ()

Exception in gpu::mlir_op: /src/AMDMIGraphX/src/targets/gpu/mlir.cpp:731: run_backend_pipeline: MLIR backend compilation failed: Error: 'rock.gemm' op K dimensions don't match k_a = 9 k_b = 756
Note: see current operation: "rock.gemm"(%4, %7, %8) <{aTransposed, arch = "gfx908:sramecc+:xnack-", derivedBlockSize = 256 : i32, features = #rock<GemmFeatures mfma|dot|atomic_add>, gridSize = 3528 : i32, numCU = 120 : i32, params = #rock.xdlops_gemm_params<kpackPerBlock = 4, mPerBlock = 64, nPerBlock = 64, kpack = 8, mPerWave = 32, nPerWave = 32, forceUnroll = true>, storeMethod = #rock<StoreMethod set>}> : (memref<1x9x84xf32>, memref<1x756x112896xf32>, memref<1x84x112896xf32>) -> ()

Exception in gpu::mlir_op: /src/AMDMIGraphX/src/targets/gpu/mlir.cpp:731: run_backend_pipeline: MLIR backend compilation failed: Error: 'rock.gemm' op K dimensions don't match k_a = 9 k_b = 6048
Note: see current operation: "rock.gemm"(%4, %7, %8) <{aTransposed, arch = "gfx908:sramecc+:xnack-", derivedBlockSize = 256 : i32, features = #rock<GemmFeatures mfma|dot|atomic_add>, gridSize = 5082 : i32, numCU = 120 : i32, params = #rock.xdlops_gemm_params<kpackPerBlock = 8, mPerBlock = 32, nPerBlock = 32, kpack = 4, mPerWave = 16, nPerWave = 16, forceUnroll = true>, storeMethod = #rock<StoreMethod set>}> : (memref<1x9x672xf32>, memref<1x6048x7744xf32>, memref<1x672x7744xf32>) -> ()
Exception in gpu::mlir_op: /src/AMDMIGraphX/src/targets/gpu/mlir.cpp:731: run_backend_pipeline: MLIR backend compilation failed: Error: 'rock.gemm' op K dimensions don't match k_a = 49 k_b = 16464
Note: see current operation: "rock.gemm"(%4, %7, %8) <{aTransposed, arch = "gfx908:sramecc+:xnack-", derivedBlockSize = 128 : i32, features = #rock<GemmFeatures mfma|dot|atomic_add>, gridSize = 663 : i32, numCU = 120 : i32, params = #rock.xdlops_gemm_params<kpackPerBlock = 2, mPerBlock = 128, nPerBlock = 128, kpack = 8, mPerWave = 64, nPerWave = 128, forceUnroll = true>, storeMethod = #rock<StoreMethod set>}> : (memref<1x49x336xf32>, memref<1x16464x28224xf32>, memref<1x336x28224xf32>) -> ()

Exception in gpu::mlir_op: /src/AMDMIGraphX/src/targets/gpu/mlir.cpp:731: run_backend_pipeline: MLIR backend compilation failed: Error: 'rock.gemm' op K dimensions don't match k_a = 25 k_b = 1050
Note: see current operation: "rock.gemm"(%4, %7, %8) <{aTransposed, arch = "gfx908:sramecc+:xnack-", derivedBlockSize = 64 : i32, features = #rock<GemmFeatures mfma|dot|atomic_add>, gridSize = 82668 : i32, numCU = 120 : i32, params = #rock.xdlops_gemm_params<kpackPerBlock = 8, mPerBlock = 16, nPerBlock = 16, kpack = 8, mPerWave = 16, nPerWave = 16, forceUnroll = true>, storeMethod = #rock<StoreMethod set>}> : (memref<1x25x42xf32>, memref<1x1050x440896xf32>, memref<1x42x440896xf32>) -> ()

Exception in gpu::mlir_op: /src/AMDMIGraphX/src/targets/gpu/mlir.cpp:731: run_backend_pipeline: MLIR backend compilation failed: Error: 'rock.gemm' op K dimensions don't match k_a = 49 k_b = 2058
Note: see current operation: "rock.gemm"(%4, %7, %8) <{aTransposed, arch = "gfx908:sramecc+:xnack-", derivedBlockSize = 256 : i32, features = #rock<GemmFeatures mfma|dot|atomic_add>, gridSize = 6889 : i32, numCU = 120 : i32, params = #rock.xdlops_gemm_params<kpackPerBlock = 2, mPerBlock = 64, nPerBlock = 64, kpack = 8, mPerWave = 32, nPerWave = 32, forceUnroll = true>, storeMethod = #rock<StoreMethod set>}> : (memref<1x49x42xf32>, memref<1x2058x440896xf32>, memref<1x42x440896xf32>) -> ()

Exception in gpu::mlir_op: /src/AMDMIGraphX/src/targets/gpu/mlir.cpp:731: run_backend_pipeline: MLIR backend compilation failed: Error: 'rock.gemm' op K dimensions don't match k_a = 25 k_b = 2100
Note: see current operation: "rock.gemm"(%4, %7, %8) <{aTransposed, arch = "gfx908:sramecc+:xnack-", derivedBlockSize = 256 : i32, features = #rock<GemmFeatures mfma|dot|atomic_add>, gridSize = 882 : i32, numCU = 120 : i32, params = #rock.xdlops_gemm_params<kpackPerBlock = 8, mPerBlock = 64, nPerBlock = 256, kpack = 1, mPerWave = 64, nPerWave = 64, forceUnroll = true>, storeMethod = #rock<StoreMethod set>}> : (memref<1x25x84xf32>, memref<1x2100x112896xf32>, memref<1x84x112896xf32>) -> ()

Exception in gpu::mlir_op: /src/AMDMIGraphX/src/targets/gpu/mlir.cpp:731: run_backend_pipeline: MLIR backend compilation failed: Error: 'rock.gemm' op K dimensions don't match k_a = 25 k_b = 16800
Note: see current operation: "rock.gemm"(%4, %7, %8) <{aTransposed, arch = "gfx908:sramecc+:xnack-", derivedBlockSize = 256 : i32, features = #rock<GemmFeatures mfma|dot|atomic_add>, gridSize = 1331 : i32, numCU = 120 : i32, params = #rock.xdlops_gemm_params<kpackPerBlock = 2, mPerBlock = 64, nPerBlock = 64, kpack = 8, mPerWave = 32, nPerWave = 32, forceUnroll = true>, storeMethod = #rock<StoreMethod set>}> : (memref<1x25x672xf32>, memref<1x16800x7744xf32>, memref<1x672x7744xf32>) -> ()

Exception in gpu::mlir_op: /src/AMDMIGraphX/src/targets/gpu/mlir.cpp:731: run_backend_pipeline: MLIR backend compilation failed: Error: 'rock.gemm' op K dimensions don't match k_a = 49 k_b = 4116
Note: see current operation: "rock.gemm"(%4, %7, %8) <{aTransposed, arch = "gfx908:sramecc+:xnack-", derivedBlockSize = 256 : i32, features = #rock<GemmFeatures mfma|dot|atomic_add>, gridSize = 10584 : i32, numCU = 120 : i32, params = #rock.xdlops_gemm_params<kpackPerBlock = 8, mPerBlock = 16, nPerBlock = 64, kpack = 4, mPerWave = 16, nPerWave = 16, forceUnroll = true>, storeMethod = #rock<StoreMethod set>}> : (memref<1x49x84xf32>, memref<1x4116x112896xf32>, memref<1x84x112896xf32>) -> ()

Exception in gpu::mlir_op: /src/AMDMIGraphX/src/targets/gpu/mlir.cpp:731: run_backend_pipeline: MLIR backend compilation failed: Error: 'rock.gemm' op K dimensions don't match k_a = 49 k_b = 4704
Note: see current operation: "rock.gemm"(%4, %7, %8) <{aTransposed, arch = "gfx908:sramecc+:xnack-", derivedBlockSize = 256 : i32, features = #rock<GemmFeatures mfma|dot|atomic_add>, gridSize = 3445 : i32, numCU = 120 : i32, params = #rock.xdlops_gemm_params<kpackPerBlock = 4, mPerBlock = 128, nPerBlock = 128, kpack = 8, mPerWave = 64, nPerWave = 64, forceUnroll = true>, storeMethod = #rock<StoreMethod set>}> : (memref<1x49x96xf32>, memref<1x4704x440896xf32>, memref<1x96x440896xf32>) -> ()

Exception in gpu::mlir_op: /src/AMDMIGraphX/src/targets/gpu/mlir.cpp:731: run_backend_pipeline: MLIR backend compilation failed: Error: 'rock.gemm' op K dimensions don't match k_a = 25 k_b = 8400
Note: see current operation: "rock.gemm"(%4, %7, %8) <{aTransposed, arch = "gfx908:sramecc+:xnack-", derivedBlockSize = 256 : i32, features = #rock<GemmFeatures mfma|dot|atomic_add>, gridSize = 2646 : i32, numCU = 120 : i32, params = #rock.xdlops_gemm_params<kpackPerBlock = 4, mPerBlock = 64, nPerBlock = 64, kpack = 4, mPerWave = 16, nPerWave = 64, forceUnroll = true>, storeMethod = #rock<StoreMethod set>}> : (memref<1x25x336xf32>, memref<1x8400x28224xf32>, memref<1x336x28224xf32>) -> ()

Exception in gpu::mlir_op: /src/AMDMIGraphX/src/targets/gpu/mlir.cpp:731: run_backend_pipeline: MLIR backend compilation failed: Error: 'rock.gemm' op K dimensions don't match k_a = 49 k_b = 32928
Note: see current operation: "rock.gemm"(%4, %7, %8) <{aTransposed, arch = "gfx908:sramecc+:xnack-", derivedBlockSize = 256 : i32, features = #rock<GemmFeatures mfma|dot|atomic_add>, gridSize = 5082 : i32, numCU = 120 : i32, params = #rock.xdlops_gemm_params<kpackPerBlock = 8, mPerBlock = 32, nPerBlock = 32, kpack = 4, mPerWave = 16, nPerWave = 16, forceUnroll = true>, storeMethod = #rock<StoreMethod set>}> : (memref<1x49x672xf32>, memref<1x32928x7744xf32>, memref<1x672x7744xf32>) -> ()


Exception in gpu::mlir_op: /src/AMDMIGraphX/src/targets/gpu/mlir.cpp:731: run_backend_pipeline: MLIR backend compilation failed: Error: 'rock.gemm' op K dimensions don't match k_a = 25 k_b = 4200
Note: see current operation: "rock.gemm"(%5, %8, %9) <{aTransposed, arch = "gfx908:sramecc+:xnack-", derivedBlockSize = 256 : i32, features = #rock<GemmFeatures mfma|dot|atomic_add>, gridSize = 2646 : i32, numCU = 120 : i32, params = #rock.xdlops_gemm_params<kpackPerBlock = 2, mPerBlock = 64, nPerBlock = 128, kpack = 4, mPerWave = 32, nPerWave = 64, forceUnroll = true>, storeMethod = #rock<StoreMethod set>}> : (memref<1x25x168xf32>, memref<1x4200x112896xf32>, memref<1x168x112896xf32>) -> ()

Exception in gpu::mlir_op: /src/AMDMIGraphX/src/targets/gpu/mlir.cpp:731: run_backend_pipeline: MLIR backend compilation failed: Error: 'rock.gemm' op K dimensions don't match k_a = 9 k_b = 378
Note: see current operation: "rock.gemm"(%4, %7, %8) <{aTransposed, arch = "gfx908:sramecc+:xnack-", derivedBlockSize = 256 : i32, features = #rock<GemmFeatures mfma|dot|atomic_add>, gridSize = 3445 : i32, numCU = 120 : i32, params = #rock.xdlops_gemm_params<kpackPerBlock = 4, mPerBlock = 128, nPerBlock = 128, kpack = 8, mPerWave = 64, nPerWave = 64, forceUnroll = true>, storeMethod = #rock<StoreMethod set>}> : (memref<1x9x42xf32>, memref<1x378x440896xf32>, memref<1x42x440896xf32>) -> ()

Exception in gpu::mlir_op: /src/AMDMIGraphX/src/targets/gpu/mlir.cpp:731: run_backend_pipeline: MLIR backend compilation failed: Error: 'rock.gemm' op K dimensions don't match k_a = 9 k_b = 756
Note: see current operation: "rock.gemm"(%4, %7, %8) <{aTransposed, arch = "gfx908:sramecc+:xnack-", derivedBlockSize = 256 : i32, features = #rock<GemmFeatures mfma|dot|atomic_add>, gridSize = 3528 : i32, numCU = 120 : i32, params = #rock.xdlops_gemm_params<kpackPerBlock = 4, mPerBlock = 64, nPerBlock = 64, kpack = 8, mPerWave = 16, nPerWave = 64, forceUnroll = true>, storeMethod = #rock<StoreMethod set>}> : (memref<1x9x84xf32>, memref<1x756x112896xf32>, memref<1x84x112896xf32>) -> ()

Exception in gpu::mlir_op: /src/AMDMIGraphX/src/targets/gpu/mlir.cpp:731: run_backend_pipeline: MLIR backend compilation failed: Error: 'rock.gemm' op K dimensions don't match k_a = 9 k_b = 756
Note: see current operation: "rock.gemm"(%4, %7, %8) <{aTransposed, arch = "gfx908:sramecc+:xnack-", derivedBlockSize = 128 : i32, features = #rock<GemmFeatures mfma|dot|atomic_add>, gridSize = 19404 : i32, numCU = 120 : i32, params = #rock.xdlops_gemm_params<kpackPerBlock = 8, mPerBlock = 8, nPerBlock = 64, kpack = 8, mPerWave = 4, nPerWave = 64, forceUnroll = true>, storeMethod = #rock<StoreMethod set>}> : (memref<1x9x84xf32>, memref<1x756x112896xf32>, memref<1x84x112896xf32>) -> ()

Exception in gpu::mlir_op: /src/AMDMIGraphX/src/targets/gpu/mlir.cpp:731: run_backend_pipeline: MLIR backend compilation failed: Error: 'rock.gemm' op K dimensions don't match k_a = 25 k_b = 4200
Note: see current operation: "rock.gemm"(%5, %8, %9) <{aTransposed, arch = "gfx908:sramecc+:xnack-", derivedBlockSize = 256 : i32, features = #rock<GemmFeatures mfma|dot|atomic_add>, gridSize = 5292 : i32, numCU = 120 : i32, params = #rock.xdlops_gemm_params<kpackPerBlock = 8, mPerBlock = 64, nPerBlock = 64, kpack = 4, mPerWave = 32, nPerWave = 32, forceUnroll = true>, storeMethod = #rock<StoreMethod set>}> : (memref<1x25x168xf32>, memref<1x4200x112896xf32>, memref<1x168x112896xf32>) -> ()

Exception in gpu::mlir_op: /src/AMDMIGraphX/src/targets/gpu/mlir.cpp:731: run_backend_pipeline: MLIR backend compilation failed: Error: 'rock.gemm' op K dimensions don't match k_a = 25 k_b = 16800
Note: see current operation: "rock.gemm"(%4, %7, %8) <{aTransposed, arch = "gfx908:sramecc+:xnack-", derivedBlockSize = 256 : i32, features = #rock<GemmFeatures mfma|dot|atomic_add>, gridSize = 671 : i32, numCU = 120 : i32, params = #rock.xdlops_gemm_params<kpackPerBlock = 4, mPerBlock = 64, nPerBlock = 128, kpack = 4, mPerWave = 32, nPerWave = 64, forceUnroll = true>, storeMethod = #rock<StoreMethod set>}> : (memref<1x25x672xf32>, memref<1x16800x7744xf32>, memref<1x672x7744xf32>) -> ()

Exception in gpu::mlir_op: /src/AMDMIGraphX/src/targets/gpu/mlir.cpp:731: run_backend_pipeline: MLIR backend compilation failed: Error: 'rock.gemm' op K dimensions don't match k_a = 49 k_b = 4704
Note: see current operation: "rock.gemm"(%4, %7, %8) <{aTransposed, arch = "gfx908:sramecc+:xnack-", derivedBlockSize = 256 : i32, features = #rock<GemmFeatures mfma|dot|atomic_add>, gridSize = 3445 : i32, numCU = 120 : i32, params = #rock.xdlops_gemm_params<kpackPerBlock = 4, mPerBlock = 128, nPerBlock = 128, kpack = 4, mPerWave = 64, nPerWave = 64, forceUnroll = true>, storeMethod = #rock<StoreMethod set>}> : (memref<1x49x96xf32>, memref<1x4704x440896xf32>, memref<1x96x440896xf32>) -> ()

Exception in gpu::mlir_op: /src/AMDMIGraphX/src/targets/gpu/mlir.cpp:731: run_backend_pipeline: MLIR backend compilation failed: Error: 'rock.gemm' op K dimensions don't match k_a = 25 k_b = 2100
Note: see current operation: "rock.gemm"(%4, %7, %8) <{aTransposed, arch = "gfx908:sramecc+:xnack-", derivedBlockSize = 256 : i32, features = #rock<GemmFeatures mfma|dot|atomic_add>, gridSize = 882 : i32, numCU = 120 : i32, params = #rock.xdlops_gemm_params<kpackPerBlock = 4, mPerBlock = 64, nPerBlock = 256, kpack = 4, mPerWave = 64, nPerWave = 64, forceUnroll = true>, storeMethod = #rock<StoreMethod set>}> : (memref<1x25x84xf32>, memref<1x2100x112896xf32>, memref<1x84x112896xf32>) -> ()

Exception in gpu::mlir_op: /src/AMDMIGraphX/src/targets/gpu/mlir.cpp:731: run_backend_pipeline: MLIR backend compilation failed: Error: 'rock.gemm' op K dimensions don't match k_a = 25 k_b = 1050
Note: see current operation: "rock.gemm"(%4, %7, %8) <{aTransposed, arch = "gfx908:sramecc+:xnack-", derivedBlockSize = 128 : i32, features = #rock<GemmFeatures mfma|dot|atomic_add>, gridSize = 41334 : i32, numCU = 120 : i32, params = #rock.xdlops_gemm_params<kpackPerBlock = 8, mPerBlock = 8, nPerBlock = 64, kpack = 8, mPerWave = 4, nPerWave = 64, forceUnroll = true>, storeMethod = #rock<StoreMethod set>}> : (memref<1x25x42xf32>, memref<1x1050x440896xf32>, memref<1x42x440896xf32>) -> ()

Exception in gpu::mlir_op: /src/AMDMIGraphX/src/targets/gpu/mlir.cpp:731: run_backend_pipeline: MLIR backend compilation failed: Error: 'rock.gemm' op K dimensions don't match k_a = 49 k_b = 2058
Note: see current operation: "rock.gemm"(%4, %7, %8) <{aTransposed, arch = "gfx908:sramecc+:xnack-", derivedBlockSize = 64 : i32, features = #rock<GemmFeatures mfma|dot|atomic_add>, gridSize = 13778 : i32, numCU = 120 : i32, params = #rock.xdlops_gemm_params<kpackPerBlock = 4, mPerBlock = 32, nPerBlock = 64, kpack = 4, mPerWave = 32, nPerWave = 64, forceUnroll = true>, storeMethod = #rock<StoreMethod set>}> : (memref<1x49x42xf32>, memref<1x2058x440896xf32>, memref<1x42x440896xf32>) -> ()

Exception in gpu::mlir_op: /src/AMDMIGraphX/src/targets/gpu/mlir.cpp:731: run_backend_pipeline: MLIR backend compilation failed: Error: 'rock.gemm' op K dimensions don't match k_a = 49 k_b = 4116
Note: see current operation: "rock.gemm"(%4, %7, %8) <{aTransposed, arch = "gfx908:sramecc+:xnack-", derivedBlockSize = 128 : i32, features = #rock<GemmFeatures mfma|dot|atomic_add>, gridSize = 21168 : i32, numCU = 120 : i32, params = #rock.xdlops_gemm_params<kpackPerBlock = 8, mPerBlock = 16, nPerBlock = 32, kpack = 8, mPerWave = 16, nPerWave = 16, forceUnroll = true>, storeMethod = #rock<StoreMethod set>}> : (memref<1x49x84xf32>, memref<1x4116x112896xf32>, memref<1x84x112896xf32>) -> ()

Exception in gpu::mlir_op: /src/AMDMIGraphX/src/targets/gpu/mlir.cpp:731: run_backend_pipeline: MLIR backend compilation failed: Error: 'rock.gemm' op K dimensions don't match k_a = 49 k_b = 32928
Note: see current operation: "rock.gemm"(%4, %7, %8) <{aTransposed, arch = "gfx908:sramecc+:xnack-", derivedBlockSize = 256 : i32, features = #rock<GemmFeatures mfma|dot|atomic_add>, gridSize = 5082 : i32, numCU = 120 : i32, params = #rock.xdlops_gemm_params<kpackPerBlock = 4, mPerBlock = 32, nPerBlock = 32, kpack = 8, mPerWave = 16, nPerWave = 16, forceUnroll = true>, storeMethod = #rock<StoreMethod set>}> : (memref<1x49x672xf32>, memref<1x32928x7744xf32>, memref<1x672x7744xf32>) -> ()

Exception in gpu::mlir_op: /src/AMDMIGraphX/src/targets/gpu/mlir.cpp:731: run_backend_pipeline: MLIR backend compilation failed: Error: 'rock.gemm' op K dimensions don't match k_a = 9 k_b = 6048
Note: see current operation: "rock.gemm"(%4, %7, %8) <{aTransposed, arch = "gfx908:sramecc+:xnack-", derivedBlockSize = 256 : i32, features = #rock<GemmFeatures mfma|dot|atomic_add>, gridSize = 5082 : i32, numCU = 120 : i32, params = #rock.xdlops_gemm_params<kpackPerBlock = 4, mPerBlock = 32, nPerBlock = 32, kpack = 8, mPerWave = 16, nPerWave = 16, forceUnroll = true>, storeMethod = #rock<StoreMethod set>}> : (memref<1x9x672xf32>, memref<1x6048x7744xf32>, memref<1x672x7744xf32>) -> ()

Exception in gpu::mlir_op: /src/AMDMIGraphX/src/targets/gpu/mlir.cpp:731: run_backend_pipeline: MLIR backend compilation failed: Error: 'rock.gemm' op K dimensions don't match k_a = 25 k_b = 8400
Note: see current operation: "rock.gemm"(%4, %7, %8) <{aTransposed, arch = "gfx908:sramecc+:xnack-", derivedBlockSize = 256 : i32, features = #rock<GemmFeatures mfma|dot|atomic_add>, gridSize = 2646 : i32, numCU = 120 : i32, params = #rock.xdlops_gemm_params<kpackPerBlock = 2, mPerBlock = 64, nPerBlock = 64, kpack = 8, mPerWave = 32, nPerWave = 32, forceUnroll = true>, storeMethod = #rock<StoreMethod set>}> : (memref<1x25x336xf32>, memref<1x8400x28224xf32>, memref<1x336x28224xf32>) -> ()

Exception in gpu::mlir_op: /src/AMDMIGraphX/src/targets/gpu/mlir.cpp:731: run_backend_pipeline: MLIR backend compilation failed: Error: 'rock.gemm' op K dimensions don't match k_a = 49 k_b = 16464
Note: see current operation: "rock.gemm"(%4, %7, %8) <{aTransposed, arch = "gfx908:sramecc+:xnack-", derivedBlockSize = 256 : i32, features = #rock<GemmFeatures mfma|dot|atomic_add>, gridSize = 663 : i32, numCU = 120 : i32, params = #rock.xdlops_gemm_params<kpackPerBlock = 2, mPerBlock = 128, nPerBlock = 128, kpack = 8, mPerWave = 64, nPerWave = 64, forceUnroll = true>, storeMethod = #rock<StoreMethod set>}> : (memref<1x49x336xf32>, memref<1x16464x28224xf32>, memref<1x336x28224xf32>) -> ()

Exception in gpu::mlir_op: /src/AMDMIGraphX/src/targets/gpu/mlir.cpp:731: run_backend_pipeline: MLIR backend compilation failed: Error: 'rock.gemm' op K dimensions don't match k_a = 9 k_b = 756
Note: see current operation: "rock.gemm"(%4, %7, %8) <{aTransposed, arch = "gfx908:sramecc+:xnack-", derivedBlockSize = 256 : i32, features = #rock<GemmFeatures mfma|dot|atomic_add>, gridSize = 10584 : i32, numCU = 120 : i32, params = #rock.xdlops_gemm_params<kpackPerBlock = 8, mPerBlock = 32, nPerBlock = 32, kpack = 8, mPerWave = 16, nPerWave = 16, forceUnroll = true>, storeMethod = #rock<StoreMethod set>}> : (memref<1x9x84xf32>, memref<1x756x112896xf32>, memref<1x84x112896xf32>) -> ()

Exception in gpu::mlir_op: /src/AMDMIGraphX/src/targets/gpu/mlir.cpp:731: run_backend_pipeline: MLIR backend compilation failed: Error: 'rock.gemm' op K dimensions don't match k_a = 25 k_b = 16800
Note: see current operation: "rock.gemm"(%4, %7, %8) <{aTransposed, arch = "gfx908:sramecc+:xnack-", derivedBlockSize = 256 : i32, features = #rock<GemmFeatures mfma|dot|atomic_add>, gridSize = 671 : i32, numCU = 120 : i32, params = #rock.xdlops_gemm_params<kpackPerBlock = 2, mPerBlock = 64, nPerBlock = 128, kpack = 8, mPerWave = 32, nPerWave = 64, forceUnroll = true>, storeMethod = #rock<StoreMethod set>}> : (memref<1x25x672xf32>, memref<1x16800x7744xf32>, memref<1x672x7744xf32>) -> ()

Exception in gpu::mlir_op: /src/AMDMIGraphX/src/targets/gpu/mlir.cpp:731: run_backend_pipeline: MLIR backend compilation failed: Error: 'rock.gemm' op K dimensions don't match k_a = 25 k_b = 2100
Note: see current operation: "rock.gemm"(%4, %7, %8) <{aTransposed, arch = "gfx908:sramecc+:xnack-", derivedBlockSize = 256 : i32, features = #rock<GemmFeatures mfma|dot|atomic_add>, gridSize = 1764 : i32, numCU = 120 : i32, params = #rock.xdlops_gemm_params<kpackPerBlock = 4, mPerBlock = 64, nPerBlock = 128, kpack = 4, mPerWave = 32, nPerWave = 64, forceUnroll = true>, storeMethod = #rock<StoreMethod set>}> : (memref<1x25x84xf32>, memref<1x2100x112896xf32>, memref<1x84x112896xf32>) -> ()

Exception in gpu::mlir_op: /src/AMDMIGraphX/src/targets/gpu/mlir.cpp:731: run_backend_pipeline: MLIR backend compilation failed: Error: 'rock.gemm' op K dimensions don't match k_a = 49 k_b = 4116
Note: see current operation: "rock.gemm"(%4, %7, %8) <{aTransposed, arch = "gfx908:sramecc+:xnack-", derivedBlockSize = 128 : i32, features = #rock<GemmFeatures mfma|dot|atomic_add>, gridSize = 21168 : i32, numCU = 120 : i32, params = #rock.xdlops_gemm_params<kpackPerBlock = 8, mPerBlock = 16, nPerBlock = 32, kpack = 4, mPerWave = 16, nPerWave = 16, forceUnroll = true>, storeMethod = #rock<StoreMethod set>}> : (memref<1x49x84xf32>, memref<1x4116x112896xf32>, memref<1x84x112896xf32>) -> ()

Exception in gpu::mlir_op: /src/AMDMIGraphX/src/targets/gpu/mlir.cpp:731: run_backend_pipeline: MLIR backend compilation failed: Error: 'rock.gemm' op K dimensions don't match k_a = 9 k_b = 6048
Note: see current operation: "rock.gemm"(%4, %7, %8) <{aTransposed, arch = "gfx908:sramecc+:xnack-", derivedBlockSize = 256 : i32, features = #rock<GemmFeatures mfma|dot|atomic_add>, gridSize = 5082 : i32, numCU = 120 : i32, params = #rock.xdlops_gemm_params<kpackPerBlock = 8, mPerBlock = 16, nPerBlock = 64, kpack = 4, mPerWave = 16, nPerWave = 16, forceUnroll = true>, storeMethod = #rock<StoreMethod set>}> : (memref<1x9x672xf32>, memref<1x6048x7744xf32>, memref<1x672x7744xf32>) -> ()

Exception in gpu::mlir_op: /src/AMDMIGraphX/src/targets/gpu/mlir.cpp:731: run_backend_pipeline: MLIR backend compilation failed: Error: 'rock.gemm' op K dimensions don't match k_a = 49 k_b = 32928
Note: see current operation: "rock.gemm"(%4, %7, %8) <{aTransposed, arch = "gfx908:sramecc+:xnack-", derivedBlockSize = 256 : i32, features = #rock<GemmFeatures mfma|dot|atomic_add>, gridSize = 5082 : i32, numCU = 120 : i32, params = #rock.xdlops_gemm_params<kpackPerBlock = 8, mPerBlock = 16, nPerBlock = 64, kpack = 8, mPerWave = 16, nPerWave = 16, forceUnroll = true>, storeMethod = #rock<StoreMethod set>}> : (memref<1x49x672xf32>, memref<1x32928x7744xf32>, memref<1x672x7744xf32>) -> ()

Exception in gpu::mlir_op: /src/AMDMIGraphX/src/targets/gpu/mlir.cpp:731: run_backend_pipeline: MLIR backend compilation failed: Error: 'rock.gemm' op K dimensions don't match k_a = 25 k_b = 1050
Note: see current operation: "rock.gemm"(%4, %7, %8) <{aTransposed, arch = "gfx908:sramecc+:xnack-", derivedBlockSize = 256 : i32, features = #rock<GemmFeatures mfma|dot|atomic_add>, gridSize = 27556 : i32, numCU = 120 : i32, params = #rock.xdlops_gemm_params<kpackPerBlock = 8, mPerBlock = 32, nPerBlock = 32, kpack = 8, mPerWave = 16, nPerWave = 16, forceUnroll = true>, storeMethod = #rock<StoreMethod set>}> : (memref<1x25x42xf32>, memref<1x1050x440896xf32>, memref<1x42x440896xf32>) -> ()

Exception in gpu::mlir_op: /src/AMDMIGraphX/src/targets/gpu/mlir.cpp:731: run_backend_pipeline: MLIR backend compilation failed: Error: 'rock.gemm' op K dimensions don't match k_a = 25 k_b = 8400
Note: see current operation: "rock.gemm"(%4, %7, %8) <{aTransposed, arch = "gfx908:sramecc+:xnack-", derivedBlockSize = 128 : i32, features = #rock<GemmFeatures mfma|dot|atomic_add>, gridSize = 663 : i32, numCU = 120 : i32, params = #rock.xdlops_gemm_params<kpackPerBlock = 8, mPerBlock = 128, nPerBlock = 128, kpack = 1, mPerWave = 64, nPerWave = 128, forceUnroll = true>, storeMethod = #rock<StoreMethod set>}> : (memref<1x25x336xf32>, memref<1x8400x28224xf32>, memref<1x336x28224xf32>) -> ()

Exception in gpu::mlir_op: /src/AMDMIGraphX/src/targets/gpu/mlir.cpp:731: run_backend_pipeline: MLIR backend compilation failed: Error: 'rock.gemm' op K dimensions don't match k_a = 25 k_b = 4200
Note: see current operation: "rock.gemm"(%5, %8, %9) <{aTransposed, arch = "gfx908:sramecc+:xnack-", derivedBlockSize = 256 : i32, features = #rock<GemmFeatures mfma|dot|atomic_add>, gridSize = 5292 : i32, numCU = 120 : i32, params = #rock.xdlops_gemm_params<kpackPerBlock = 4, mPerBlock = 64, nPerBlock = 64, kpack = 8, mPerWave = 32, nPerWave = 32, forceUnroll = true>, storeMethod = #rock<StoreMethod set>}> : (memref<1x25x168xf32>, memref<1x4200x112896xf32>, memref<1x168x112896xf32>) -> ()

Exception in gpu::mlir_op: /src/AMDMIGraphX/src/targets/gpu/mlir.cpp:731: run_backend_pipeline: MLIR backend compilation failed: Error: 'rock.gemm' op K dimensions don't match k_a = 49 k_b = 4704
Note: see current operation: "rock.gemm"(%4, %7, %8) <{aTransposed, arch = "gfx908:sramecc+:xnack-", derivedBlockSize = 128 : i32, features = #rock<GemmFeatures mfma|dot|atomic_add>, gridSize = 3445 : i32, numCU = 120 : i32, params = #rock.xdlops_gemm_params<kpackPerBlock = 2, mPerBlock = 128, nPerBlock = 128, kpack = 8, mPerWave = 64, nPerWave = 128, forceUnroll = true>, storeMethod = #rock<StoreMethod set>}> : (memref<1x49x96xf32>, memref<1x4704x440896xf32>, memref<1x96x440896xf32>) -> ()

Exception in gpu::mlir_op: /src/AMDMIGraphX/src/targets/gpu/mlir.cpp:731: run_backend_pipeline: MLIR backend compilation failed: Error: 'rock.gemm' op K dimensions don't match k_a = 49 k_b = 2058
Note: see current operation: "rock.gemm"(%4, %7, %8) <{aTransposed, arch = "gfx908:sramecc+:xnack-", derivedBlockSize = 256 : i32, features = #rock<GemmFeatures mfma|dot|atomic_add>, gridSize = 13778 : i32, numCU = 120 : i32, params = #rock.xdlops_gemm_params<kpackPerBlock = 4, mPerBlock = 32, nPerBlock = 64, kpack = 4, mPerWave = 8, nPerWave = 64, forceUnroll = true>, storeMethod = #rock<StoreMethod set>}> : (memref<1x49x42xf32>, memref<1x2058x440896xf32>, memref<1x42x440896xf32>) -> ()

Exception in gpu::mlir_op: /src/AMDMIGraphX/src/targets/gpu/mlir.cpp:731: run_backend_pipeline: MLIR backend compilation failed: Error: 'rock.gemm' op K dimensions don't match k_a = 49 k_b = 16464
Note: see current operation: "rock.gemm"(%4, %7, %8) <{aTransposed, arch = "gfx908:sramecc+:xnack-", derivedBlockSize = 256 : i32, features = #rock<GemmFeatures mfma|dot|atomic_add>, gridSize = 1326 : i32, numCU = 120 : i32, params = #rock.xdlops_gemm_params<kpackPerBlock = 4, mPerBlock = 64, nPerBlock = 128, kpack = 4, mPerWave = 32, nPerWave = 64, forceUnroll = true>, storeMethod = #rock<StoreMethod set>}> : (memref<1x49x336xf32>, memref<1x16464x28224xf32>, memref<1x336x28224xf32>) -> ()

Exception in gpu::mlir_op: /src/AMDMIGraphX/src/targets/gpu/mlir.cpp:731: run_backend_pipeline: MLIR backend compilation failed: Error: 'rock.gemm' op K dimensions don't match k_a = 9 k_b = 756
Note: see current operation: "rock.gemm"(%4, %7, %8) <{aTransposed, arch = "gfx908:sramecc+:xnack-", derivedBlockSize = 256 : i32, features = #rock<GemmFeatures mfma|dot|atomic_add>, gridSize = 10584 : i32, numCU = 120 : i32, params = #rock.xdlops_gemm_params<kpackPerBlock = 8, mPerBlock = 16, nPerBlock = 64, kpack = 8, mPerWave = 16, nPerWave = 16, forceUnroll = true>, storeMethod = #rock<StoreMethod set>}> : (memref<1x9x84xf32>, memref<1x756x112896xf32>, memref<1x84x112896xf32>) -> ()

Exception in gpu::mlir_op: /src/AMDMIGraphX/src/targets/gpu/mlir.cpp:731: run_backend_pipeline: MLIR backend compilation failed: Error: 'rock.gemm' op K dimensions don't match k_a = 9 k_b = 756
Note: see current operation: "rock.gemm"(%4, %7, %8) <{aTransposed, arch = "gfx908:sramecc+:xnack-", derivedBlockSize = 128 : i32, features = #rock<GemmFeatures mfma|dot|atomic_add>, gridSize = 21168 : i32, numCU = 120 : i32, params = #rock.xdlops_gemm_params<kpackPerBlock = 8, mPerBlock = 16, nPerBlock = 32, kpack = 8, mPerWave = 16, nPerWave = 16, forceUnroll = true>, storeMethod = #rock<StoreMethod set>}> : (memref<1x9x84xf32>, memref<1x756x112896xf32>, memref<1x84x112896xf32>) -> ()

Exception in gpu::mlir_op: /src/AMDMIGraphX/src/targets/gpu/mlir.cpp:731: run_backend_pipeline: MLIR backend compilation failed: Error: 'rock.gemm' op K dimensions don't match k_a = 25 k_b = 1050
Note: see current operation: "rock.gemm"(%4, %7, %8) <{aTransposed, arch = "gfx908:sramecc+:xnack-", derivedBlockSize = 128 : i32, features = #rock<GemmFeatures mfma|dot|atomic_add>, gridSize = 3445 : i32, numCU = 120 : i32, params = #rock.xdlops_gemm_params<kpackPerBlock = 8, mPerBlock = 128, nPerBlock = 128, kpack = 1, mPerWave = 64, nPerWave = 128, forceUnroll = true>, storeMethod = #rock<StoreMethod set>}> : (memref<1x25x42xf32>, memref<1x1050x440896xf32>, memref<1x42x440896xf32>) -> ()

Exception in gpu::mlir_op: /src/AMDMIGraphX/src/targets/gpu/mlir.cpp:731: run_backend_pipeline: MLIR backend compilation failed: Error: 'rock.gemm' op K dimensions don't match k_a = 25 k_b = 2100
Note: see current operation: "rock.gemm"(%4, %7, %8) <{aTransposed, arch = "gfx908:sramecc+:xnack-", derivedBlockSize = 256 : i32, features = #rock<GemmFeatures mfma|dot|atomic_add>, gridSize = 1764 : i32, numCU = 120 : i32, params = #rock.xdlops_gemm_params<kpackPerBlock = 2, mPerBlock = 64, nPerBlock = 128, kpack = 8, mPerWave = 32, nPerWave = 64, forceUnroll = true>, storeMethod = #rock<StoreMethod set>}> : (memref<1x25x84xf32>, memref<1x2100x112896xf32>, memref<1x84x112896xf32>) -> ()
Exception in gpu::mlir_op: /src/AMDMIGraphX/src/targets/gpu/mlir.cpp:731: run_backend_pipeline: MLIR backend compilation failed: Error: 'rock.gemm' op K dimensions don't match k_a = 25 k_b = 16800
Note: see current operation: "rock.gemm"(%4, %7, %8) <{aTransposed, arch = "gfx908:sramecc+:xnack-", derivedBlockSize = 256 : i32, features = #rock<GemmFeatures mfma|dot|atomic_add>, gridSize = 671 : i32, numCU = 120 : i32, params = #rock.xdlops_gemm_params<kpackPerBlock = 2, mPerBlock = 64, nPerBlock = 128, kpack = 4, mPerWave = 32, nPerWave = 64, forceUnroll = true>, storeMethod = #rock<StoreMethod set>}> : (memref<1x25x672xf32>, memref<1x16800x7744xf32>, memref<1x672x7744xf32>) -> ()


Exception in gpu::mlir_op: /src/AMDMIGraphX/src/targets/gpu/mlir.cpp:731: run_backend_pipeline: MLIR backend compilation failed: Error: 'rock.gemm' op K dimensions don't match k_a = 25 k_b = 8400
Note: see current operation: "rock.gemm"(%4, %7, %8) <{aTransposed, arch = "gfx908:sramecc+:xnack-", derivedBlockSize = 256 : i32, features = #rock<GemmFeatures mfma|dot|atomic_add>, gridSize = 663 : i32, numCU = 120 : i32, params = #rock.xdlops_gemm_params<kpackPerBlock = 8, mPerBlock = 128, nPerBlock = 128, kpack = 1, mPerWave = 64, nPerWave = 64, forceUnroll = true>, storeMethod = #rock<StoreMethod set>}> : (memref<1x25x336xf32>, memref<1x8400x28224xf32>, memref<1x336x28224xf32>) -> ()
Exception in gpu::mlir_op: /src/AMDMIGraphX/src/targets/gpu/mlir.cpp:731: run_backend_pipeline: MLIR backend compilation failed: Error: 'rock.gemm' op K dimensions don't match k_a = 9 k_b = 6048
Note: see current operation: "rock.gemm"(%4, %7, %8) <{aTransposed, arch = "gfx908:sramecc+:xnack-", derivedBlockSize = 128 : i32, features = #rock<GemmFeatures mfma|dot|atomic_add>, gridSize = 10164 : i32, numCU = 120 : i32, params = #rock.xdlops_gemm_params<kpackPerBlock = 8, mPerBlock = 16, nPerBlock = 32, kpack = 4, mPerWave = 16, nPerWave = 16, forceUnroll = true>, storeMethod = #rock<StoreMethod set>}> : (memref<1x9x672xf32>, memref<1x6048x7744xf32>, memref<1x672x7744xf32>) -> ()
Exception in gpu::mlir_op: /src/AMDMIGraphX/src/targets/gpu/mlir.cpp:731: run_backend_pipeline: MLIR backend compilation failed: Error: 'rock.gemm' op K dimensions don't match k_a = 49 k_b = 32928
Note: see current operation: "rock.gemm"(%4, %7, %8) <{aTransposed, arch = "gfx908:sramecc+:xnack-", derivedBlockSize = 256 : i32, features = #rock<GemmFeatures mfma|dot|atomic_add>, gridSize = 5082 : i32, numCU = 120 : i32, params = #rock.xdlops_gemm_params<kpackPerBlock = 8, mPerBlock = 16, nPerBlock = 64, kpack = 4, mPerWave = 16, nPerWave = 16, forceUnroll = true>, storeMethod = #rock<StoreMethod set>}> : (memref<1x49x672xf32>, memref<1x32928x7744xf32>, memref<1x672x7744xf32>) -> ()

Exception in gpu::mlir_op: /src/AMDMIGraphX/src/targets/gpu/mlir.cpp:731: run_backend_pipeline: MLIR backend compilation failed: Error: 'rock.gemm' op K dimensions don't match k_a = 25 k_b = 4200
Note: see current operation: "rock.gemm"(%5, %8, %9) <{aTransposed, arch = "gfx908:sramecc+:xnack-", derivedBlockSize = 256 : i32, features = #rock<GemmFeatures mfma|dot|atomic_add>, gridSize = 5292 : i32, numCU = 120 : i32, params = #rock.xdlops_gemm_params<kpackPerBlock = 4, mPerBlock = 64, nPerBlock = 64, kpack = 4, mPerWave = 32, nPerWave = 32, forceUnroll = true>, storeMethod = #rock<StoreMethod set>}> : (memref<1x25x168xf32>, memref<1x4200x112896xf32>, memref<1x168x112896xf32>) -> ()

Exception in gpu::mlir_op: /src/AMDMIGraphX/src/targets/gpu/mlir.cpp:731: run_backend_pipeline: MLIR backend compilation failed: Error: 'rock.gemm' op K dimensions don't match k_a = 49 k_b = 16464
Note: see current operation: "rock.gemm"(%4, %7, %8) <{aTransposed, arch = "gfx908:sramecc+:xnack-", derivedBlockSize = 256 : i32, features = #rock<GemmFeatures mfma|dot|atomic_add>, gridSize = 1326 : i32, numCU = 120 : i32, params = #rock.xdlops_gemm_params<kpackPerBlock = 2, mPerBlock = 64, nPerBlock = 128, kpack = 8, mPerWave = 32, nPerWave = 64, forceUnroll = true>, storeMethod = #rock<StoreMethod set>}> : (memref<1x49x336xf32>, memref<1x16464x28224xf32>, memref<1x336x28224xf32>) -> ()


Exception in gpu::mlir_op: /src/AMDMIGraphX/src/targets/gpu/mlir.cpp:731: run_backend_pipeline: MLIR backend compilation failed: Error: 'rock.gemm' op K dimensions don't match k_a = 49 k_b = 2058
Note: see current operation: "rock.gemm"(%4, %7, %8) <{aTransposed, arch = "gfx908:sramecc+:xnack-", derivedBlockSize = 128 : i32, features = #rock<GemmFeatures mfma|dot|atomic_add>, gridSize = 13778 : i32, numCU = 120 : i32, params = #rock.xdlops_gemm_params<kpackPerBlock = 8, mPerBlock = 32, nPerBlock = 64, kpack = 4, mPerWave = 32, nPerWave = 32, forceUnroll = true>, storeMethod = #rock<StoreMethod set>}> : (memref<1x49x42xf32>, memref<1x2058x440896xf32>, memref<1x42x440896xf32>) -> ()

Exception in gpu::mlir_op: /src/AMDMIGraphX/src/targets/gpu/mlir.cpp:731: run_backend_pipeline: MLIR backend compilation failed: Error: 'rock.gemm' op K dimensions don't match k_a = 49 k_b = 4116
Note: see current operation: "rock.gemm"(%4, %7, %8) <{aTransposed, arch = "gfx908:sramecc+:xnack-", derivedBlockSize = 64 : i32, features = #rock<GemmFeatures mfma|dot|atomic_add>, gridSize = 42336 : i32, numCU = 120 : i32, params = #rock.xdlops_gemm_params<kpackPerBlock = 8, mPerBlock = 16, nPerBlock = 16, kpack = 8, mPerWave = 16, nPerWave = 16, forceUnroll = true>, storeMethod = #rock<StoreMethod set>}> : (memref<1x49x84xf32>, memref<1x4116x112896xf32>, memref<1x84x112896xf32>) -> ()

Exception in gpu::mlir_op: /src/AMDMIGraphX/src/targets/gpu/mlir.cpp:731: run_backend_pipeline: MLIR backend compilation failed: Error: 'rock.gemm' op K dimensions don't match k_a = 49 k_b = 4704
Note: see current operation: "rock.gemm"(%4, %7, %8) <{aTransposed, arch = "gfx908:sramecc+:xnack-", derivedBlockSize = 256 : i32, features = #rock<GemmFeatures mfma|dot|atomic_add>, gridSize = 3445 : i32, numCU = 120 : i32, params = #rock.xdlops_gemm_params<kpackPerBlock = 2, mPerBlock = 128, nPerBlock = 128, kpack = 8, mPerWave = 64, nPerWave = 64, forceUnroll = true>, storeMethod = #rock<StoreMethod set>}> : (memref<1x49x96xf32>, memref<1x4704x440896xf32>, memref<1x96x440896xf32>) -> ()


Exception in gpu::mlir_op: /src/AMDMIGraphX/src/targets/gpu/mlir.cpp:731: run_backend_pipeline: MLIR backend compilation failed: Error: 'rock.gemm' op K dimensions don't match k_a = 9 k_b = 756
Note: see current operation: "rock.gemm"(%4, %7, %8) <{aTransposed, arch = "gfx908:sramecc+:xnack-", derivedBlockSize = 64 : i32, features = #rock<GemmFeatures mfma|dot|atomic_add>, gridSize = 42336 : i32, numCU = 120 : i32, params = #rock.xdlops_gemm_params<kpackPerBlock = 8, mPerBlock = 16, nPerBlock = 16, kpack = 8, mPerWave = 16, nPerWave = 16, forceUnroll = true>, storeMethod = #rock<StoreMethod set>}> : (memref<1x9x84xf32>, memref<1x756x112896xf32>, memref<1x84x112896xf32>) -> ()

Exception in gpu::mlir_op: /src/AMDMIGraphX/src/targets/gpu/mlir.cpp:731: run_backend_pipeline: MLIR backend compilation failed: Error: 'rock.gemm' op K dimensions don't match k_a = 25 k_b = 1050
Note: see current operation: "rock.gemm"(%4, %7, %8) <{aTransposed, arch = "gfx908:sramecc+:xnack-", derivedBlockSize = 256 : i32, features = #rock<GemmFeatures mfma|dot|atomic_add>, gridSize = 3445 : i32, numCU = 120 : i32, params = #rock.xdlops_gemm_params<kpackPerBlock = 8, mPerBlock = 128, nPerBlock = 128, kpack = 1, mPerWave = 64, nPerWave = 64, forceUnroll = true>, storeMethod = #rock<StoreMethod set>}> : (memref<1x25x42xf32>, memref<1x1050x440896xf32>, memref<1x42x440896xf32>) -> ()

Exception in gpu::mlir_op: /src/AMDMIGraphX/src/targets/gpu/mlir.cpp:731: run_backend_pipeline: MLIR backend compilation failed: Error: 'rock.gemm' op K dimensions don't match k_a = 25 k_b = 16800
Note: see current operation: "rock.gemm"(%4, %7, %8) <{aTransposed, arch = "gfx908:sramecc+:xnack-", derivedBlockSize = 256 : i32, features = #rock<GemmFeatures mfma|dot|atomic_add>, gridSize = 341 : i32, numCU = 120 : i32, params = #rock.xdlops_gemm_params<kpackPerBlock = 8, mPerBlock = 64, nPerBlock = 256, kpack = 1, mPerWave = 64, nPerWave = 64, forceUnroll = true>, storeMethod = #rock<StoreMethod set>}> : (memref<1x25x672xf32>, memref<1x16800x7744xf32>, memref<1x672x7744xf32>) -> ()

Exception in gpu::mlir_op: /src/AMDMIGraphX/src/targets/gpu/mlir.cpp:731: run_backend_pipeline: MLIR backend compilation failed: Error: 'rock.gemm' op K dimensions don't match k_a = 49 k_b = 16464
Note: see current operation: "rock.gemm"(%4, %7, %8) <{aTransposed, arch = "gfx908:sramecc+:xnack-", derivedBlockSize = 256 : i32, features = #rock<GemmFeatures mfma|dot|atomic_add>, gridSize = 333 : i32, numCU = 120 : i32, params = #rock.xdlops_gemm_params<kpackPerBlock = 4, mPerBlock = 128, nPerBlock = 256, kpack = 4, mPerWave = 64, nPerWave = 128, forceUnroll = true>, storeMethod = #rock<StoreMethod set>}> : (memref<1x49x336xf32>, memref<1x16464x28224xf32>, memref<1x336x28224xf32>) -> ()
Exception in gpu::mlir_op: /src/AMDMIGraphX/src/targets/gpu/mlir.cpp:731: run_backend_pipeline: MLIR backend compilation failed: Error: 'rock.gemm' op K dimensions don't match k_a = 49 k_b = 4704
Note: see current operation: "rock.gemm"(%4, %7, %8) <{aTransposed, arch = "gfx908:sramecc+:xnack-", derivedBlockSize = 256 : i32, features = #rock<GemmFeatures mfma|dot|atomic_add>, gridSize = 6890 : i32, numCU = 120 : i32, params = #rock.xdlops_gemm_params<kpackPerBlock = 4, mPerBlock = 64, nPerBlock = 128, kpack = 4, mPerWave = 32, nPerWave = 64, forceUnroll = true>, storeMethod = #rock<StoreMethod set>}> : (memref<1x49x96xf32>, memref<1x4704x440896xf32>, memref<1x96x440896xf32>) -> ()


Exception in gpu::mlir_op: /src/AMDMIGraphX/src/targets/gpu/mlir.cpp:731: run_backend_pipeline: MLIR backend compilation failed: Error: 'rock.gemm' op K dimensions don't match k_a = 9 k_b = 6048
Note: see current operation: "rock.gemm"(%4, %7, %8) <{aTransposed, arch = "gfx908:sramecc+:xnack-", derivedBlockSize = 256 : i32, features = #rock<GemmFeatures mfma|dot|atomic_add>, gridSize = 1331 : i32, numCU = 120 : i32, params = #rock.xdlops_gemm_params<kpackPerBlock = 8, mPerBlock = 64, nPerBlock = 64, kpack = 4, mPerWave = 32, nPerWave = 32, forceUnroll = true>, storeMethod = #rock<StoreMethod set>}> : (memref<1x9x672xf32>, memref<1x6048x7744xf32>, memref<1x672x7744xf32>) -> ()

Exception in gpu::mlir_op: /src/AMDMIGraphX/src/targets/gpu/mlir.cpp:731: run_backend_pipeline: MLIR backend compilation failed: Error: 'rock.gemm' op K dimensions don't match k_a = 25 k_b = 4200
Note: see current operation: "rock.gemm"(%5, %8, %9) <{aTransposed, arch = "gfx908:sramecc+:xnack-", derivedBlockSize = 256 : i32, features = #rock<GemmFeatures mfma|dot|atomic_add>, gridSize = 5292 : i32, numCU = 120 : i32, params = #rock.xdlops_gemm_params<kpackPerBlock = 4, mPerBlock = 64, nPerBlock = 64, kpack = 8, mPerWave = 16, nPerWave = 64, forceUnroll = true>, storeMethod = #rock<StoreMethod set>}> : (memref<1x25x168xf32>, memref<1x4200x112896xf32>, memref<1x168x112896xf32>) -> ()
Exception in gpu::mlir_op: /src/AMDMIGraphX/src/targets/gpu/mlir.cpp:731: run_backend_pipeline: MLIR backend compilation failed: Error: 'rock.gemm' op K dimensions don't match k_a = 25 k_b = 8400
Note: see current operation: "rock.gemm"(%4, %7, %8) <{aTransposed, arch = "gfx908:sramecc+:xnack-", derivedBlockSize = 256 : i32, features = #rock<GemmFeatures mfma|dot|atomic_add>, gridSize = 663 : i32, numCU = 120 : i32, params = #rock.xdlops_gemm_params<kpackPerBlock = 8, mPerBlock = 128, nPerBlock = 128, kpack = 4, mPerWave = 64, nPerWave = 64, forceUnroll = true>, storeMethod = #rock<StoreMethod set>}> : (memref<1x25x336xf32>, memref<1x8400x28224xf32>, memref<1x336x28224xf32>) -> ()

Exception in gpu::mlir_op: /src/AMDMIGraphX/src/targets/gpu/mlir.cpp:731: run_backend_pipeline: MLIR backend compilation failed: Error: 'rock.gemm' op K dimensions don't match k_a = 49 k_b = 32928
Note: see current operation: "rock.gemm"(%4, %7, %8) <{aTransposed, arch = "gfx908:sramecc+:xnack-", derivedBlockSize = 128 : i32, features = #rock<GemmFeatures mfma|dot|atomic_add>, gridSize = 10164 : i32, numCU = 120 : i32, params = #rock.xdlops_gemm_params<kpackPerBlock = 8, mPerBlock = 16, nPerBlock = 32, kpack = 8, mPerWave = 16, nPerWave = 16, forceUnroll = true>, storeMethod = #rock<StoreMethod set>}> : (memref<1x49x672xf32>, memref<1x32928x7744xf32>, memref<1x672x7744xf32>) -> ()


Exception in gpu::mlir_op: /src/AMDMIGraphX/src/targets/gpu/mlir.cpp:731: run_backend_pipeline: MLIR backend compilation failed: Error: 'rock.gemm' op K dimensions don't match k_a = 49 k_b = 4116
Note: see current operation: "rock.gemm"(%4, %7, %8) <{aTransposed, arch = "gfx908:sramecc+:xnack-", derivedBlockSize = 64 : i32, features = #rock<GemmFeatures mfma|dot|atomic_add>, gridSize = 42336 : i32, numCU = 120 : i32, params = #rock.xdlops_gemm_params<kpackPerBlock = 4, mPerBlock = 16, nPerBlock = 16, kpack = 4, mPerWave = 16, nPerWave = 16, forceUnroll = true>, storeMethod = #rock<StoreMethod set>}> : (memref<1x49x84xf32>, memref<1x4116x112896xf32>, memref<1x84x112896xf32>) -> ()

Exception in gpu::mlir_op: /src/AMDMIGraphX/src/targets/gpu/mlir.cpp:731: run_backend_pipeline: MLIR backend compilation failed: Error: 'rock.gemm' op K dimensions don't match k_a = 49 k_b = 2058
Note: see current operation: "rock.gemm"(%4, %7, %8) <{aTransposed, arch = "gfx908:sramecc+:xnack-", derivedBlockSize = 256 : i32, features = #rock<GemmFeatures mfma|dot|atomic_add>, gridSize = 13778 : i32, numCU = 120 : i32, params = #rock.xdlops_gemm_params<kpackPerBlock = 8, mPerBlock = 32, nPerBlock = 64, kpack = 4, mPerWave = 8, nPerWave = 64, forceUnroll = true>, storeMethod = #rock<StoreMethod set>}> : (memref<1x49x42xf32>, memref<1x2058x440896xf32>, memref<1x42x440896xf32>) -> ()

Exception in gpu::mlir_op: /src/AMDMIGraphX/src/targets/gpu/mlir.cpp:731: run_backend_pipeline: MLIR backend compilation failed: Error: 'rock.gemm' op K dimensions don't match k_a = 25 k_b = 2100
Note: see current operation: "rock.gemm"(%4, %7, %8) <{aTransposed, arch = "gfx908:sramecc+:xnack-", derivedBlockSize = 256 : i32, features = #rock<GemmFeatures mfma|dot|atomic_add>, gridSize = 1764 : i32, numCU = 120 : i32, params = #rock.xdlops_gemm_params<kpackPerBlock = 2, mPerBlock = 64, nPerBlock = 128, kpack = 4, mPerWave = 32, nPerWave = 64, forceUnroll = true>, storeMethod = #rock<StoreMethod set>}> : (memref<1x25x84xf32>, memref<1x2100x112896xf32>, memref<1x84x112896xf32>) -> ()

Exception in gpu::mlir_op: /src/AMDMIGraphX/src/targets/gpu/mlir.cpp:731: run_backend_pipeline: MLIR backend compilation failed: Error: 'rock.gemm' op K dimensions don't match k_a = 25 k_b = 1050
Note: see current operation: "rock.gemm"(%4, %7, %8) <{aTransposed, arch = "gfx908:sramecc+:xnack-", derivedBlockSize = 256 : i32, features = #rock<GemmFeatures mfma|dot|atomic_add>, gridSize = 3445 : i32, numCU = 120 : i32, params = #rock.xdlops_gemm_params<kpackPerBlock = 8, mPerBlock = 128, nPerBlock = 128, kpack = 4, mPerWave = 64, nPerWave = 64, forceUnroll = true>, storeMethod = #rock<StoreMethod set>}> : (memref<1x25x42xf32>, memref<1x1050x440896xf32>, memref<1x42x440896xf32>) -> ()

Exception in gpu::mlir_op: /src/AMDMIGraphX/src/targets/gpu/mlir.cpp:731: run_backend_pipeline: MLIR backend compilation failed: Error: 'rock.gemm' op K dimensions don't match k_a = 25 k_b = 2100
Note: see current operation: "rock.gemm"(%4, %7, %8) <{aTransposed, arch = "gfx908:sramecc+:xnack-", derivedBlockSize = 256 : i32, features = #rock<GemmFeatures mfma|dot|atomic_add>, gridSize = 3528 : i32, numCU = 120 : i32, params = #rock.xdlops_gemm_params<kpackPerBlock = 8, mPerBlock = 64, nPerBlock = 64, kpack = 4, mPerWave = 32, nPerWave = 32, forceUnroll = true>, storeMethod = #rock<StoreMethod set>}> : (memref<1x25x84xf32>, memref<1x2100x112896xf32>, memref<1x84x112896xf32>) -> ()

Exception in gpu::mlir_op: /src/AMDMIGraphX/src/targets/gpu/mlir.cpp:731: run_backend_pipeline: MLIR backend compilation failed: Error: 'rock.gemm' op K dimensions don't match k_a = 49 k_b = 2058
Note: see current operation: "rock.gemm"(%4, %7, %8) <{aTransposed, arch = "gfx908:sramecc+:xnack-", derivedBlockSize = 128 : i32, features = #rock<GemmFeatures mfma|dot|atomic_add>, gridSize = 13778 : i32, numCU = 120 : i32, params = #rock.xdlops_gemm_params<kpackPerBlock = 2, mPerBlock = 32, nPerBlock = 64, kpack = 8, mPerWave = 32, nPerWave = 32, forceUnroll = true>, storeMethod = #rock<StoreMethod set>}> : (memref<1x49x42xf32>, memref<1x2058x440896xf32>, memref<1x42x440896xf32>) -> ()
Exception in gpu::mlir_op: /src/AMDMIGraphX/src/targets/gpu/mlir.cpp:731: run_backend_pipeline: MLIR backend compilation failed: Error: 'rock.gemm' op K dimensions don't match k_a = 49 k_b = 16464
Note: see current operation: "rock.gemm"(%4, %7, %8) <{aTransposed, arch = "gfx908:sramecc+:xnack-", derivedBlockSize = 256 : i32, features = #rock<GemmFeatures mfma|dot|atomic_add>, gridSize = 666 : i32, numCU = 120 : i32, params = #rock.xdlops_gemm_params<kpackPerBlock = 4, mPerBlock = 64, nPerBlock = 256, kpack = 4, mPerWave = 64, nPerWave = 64, forceUnroll = true>, storeMethod = #rock<StoreMethod set>}> : (memref<1x49x336xf32>, memref<1x16464x28224xf32>, memref<1x336x28224xf32>) -> ()

Exception in gpu::mlir_op: /src/AMDMIGraphX/src/targets/gpu/mlir.cpp:731: run_backend_pipeline: MLIR backend compilation failed: Error: 'rock.gemm' op K dimensions don't match k_a = 9 k_b = 6048
Note: see current operation: "rock.gemm"(%4, %7, %8) <{aTransposed, arch = "gfx908:sramecc+:xnack-", derivedBlockSize = 256 : i32, features = #rock<GemmFeatures mfma|dot|atomic_add>, gridSize = 1331 : i32, numCU = 120 : i32, params = #rock.xdlops_gemm_params<kpackPerBlock = 4, mPerBlock = 64, nPerBlock = 64, kpack = 8, mPerWave = 32, nPerWave = 32, forceUnroll = true>, storeMethod = #rock<StoreMethod set>}> : (memref<1x9x672xf32>, memref<1x6048x7744xf32>, memref<1x672x7744xf32>) -> ()


Exception in gpu::mlir_op: /src/AMDMIGraphX/src/targets/gpu/mlir.cpp:731: run_backend_pipeline: MLIR backend compilation failed: Error: 'rock.gemm' op K dimensions don't match k_a = 25 k_b = 8400
Note: see current operation: "rock.gemm"(%4, %7, %8) <{aTransposed, arch = "gfx908:sramecc+:xnack-", derivedBlockSize = 128 : i32, features = #rock<GemmFeatures mfma|dot|atomic_add>, gridSize = 663 : i32, numCU = 120 : i32, params = #rock.xdlops_gemm_params<kpackPerBlock = 4, mPerBlock = 128, nPerBlock = 128, kpack = 4, mPerWave = 64, nPerWave = 128, forceUnroll = true>, storeMethod = #rock<StoreMethod set>}> : (memref<1x25x336xf32>, memref<1x8400x28224xf32>, memref<1x336x28224xf32>) -> ()

Exception in gpu::mlir_op: /src/AMDMIGraphX/src/targets/gpu/mlir.cpp:731: run_backend_pipeline: MLIR backend compilation failed: Error: 'rock.gemm' op K dimensions don't match k_a = 25 k_b = 16800
Note: see current operation: "rock.gemm"(%4, %7, %8) <{aTransposed, arch = "gfx908:sramecc+:xnack-", derivedBlockSize = 256 : i32, features = #rock<GemmFeatures mfma|dot|atomic_add>, gridSize = 341 : i32, numCU = 120 : i32, params = #rock.xdlops_gemm_params<kpackPerBlock = 4, mPerBlock = 64, nPerBlock = 256, kpack = 4, mPerWave = 64, nPerWave = 64, forceUnroll = true>, storeMethod = #rock<StoreMethod set>}> : (memref<1x25x672xf32>, memref<1x16800x7744xf32>, memref<1x672x7744xf32>) -> ()

Exception in gpu::mlir_op: /src/AMDMIGraphX/src/targets/gpu/mlir.cpp:731: run_backend_pipeline: MLIR backend compilation failed: Error: 'rock.gemm' op K dimensions don't match k_a = 49 k_b = 4704
Note: see current operation: "rock.gemm"(%4, %7, %8) <{aTransposed, arch = "gfx908:sramecc+:xnack-", derivedBlockSize = 256 : i32, features = #rock<GemmFeatures mfma|dot|atomic_add>, gridSize = 6890 : i32, numCU = 120 : i32, params = #rock.xdlops_gemm_params<kpackPerBlock = 2, mPerBlock = 64, nPerBlock = 128, kpack = 8, mPerWave = 32, nPerWave = 64, forceUnroll = true>, storeMethod = #rock<StoreMethod set>}> : (memref<1x49x96xf32>, memref<1x4704x440896xf32>, memref<1x96x440896xf32>) -> ()

Exception in gpu::mlir_op: /src/AMDMIGraphX/src/targets/gpu/mlir.cpp:731: run_backend_pipeline: MLIR backend compilation failed: Error: 'rock.gemm' op K dimensions don't match k_a = 25 k_b = 4200
Note: see current operation: "rock.gemm"(%5, %8, %9) <{aTransposed, arch = "gfx908:sramecc+:xnack-", derivedBlockSize = 256 : i32, features = #rock<GemmFeatures mfma|dot|atomic_add>, gridSize = 5292 : i32, numCU = 120 : i32, params = #rock.xdlops_gemm_params<kpackPerBlock = 4, mPerBlock = 64, nPerBlock = 64, kpack = 4, mPerWave = 16, nPerWave = 64, forceUnroll = true>, storeMethod = #rock<StoreMethod set>}> : (memref<1x25x168xf32>, memref<1x4200x112896xf32>, memref<1x168x112896xf32>) -> ()

Exception in gpu::mlir_op: /src/AMDMIGraphX/src/targets/gpu/mlir.cpp:731: run_backend_pipeline: MLIR backend compilation failed: Error: 'rock.gemm' op K dimensions don't match k_a = 49 k_b = 4116
Note: see current operation: "rock.gemm"(%4, %7, %8) <{aTransposed, arch = "gfx908:sramecc+:xnack-", derivedBlockSize = 128 : i32, features = #rock<GemmFeatures mfma|dot|atomic_add>, gridSize = 882 : i32, numCU = 120 : i32, params = #rock.xdlops_gemm_params<kpackPerBlock = 8, mPerBlock = 128, nPerBlock = 128, kpack = 1, mPerWave = 64, nPerWave = 128, forceUnroll = true>, storeMethod = #rock<StoreMethod set>}> : (memref<1x49x84xf32>, memref<1x4116x112896xf32>, memref<1x84x112896xf32>) -> ()

Exception in gpu::mlir_op: /src/AMDMIGraphX/src/targets/gpu/mlir.cpp:731: run_backend_pipeline: MLIR backend compilation failed: Error: 'rock.gemm' op K dimensions don't match k_a = 49 k_b = 32928
Note: see current operation: "rock.gemm"(%4, %7, %8) <{aTransposed, arch = "gfx908:sramecc+:xnack-", derivedBlockSize = 128 : i32, features = #rock<GemmFeatures mfma|dot|atomic_add>, gridSize = 10164 : i32, numCU = 120 : i32, params = #rock.xdlops_gemm_params<kpackPerBlock = 8, mPerBlock = 16, nPerBlock = 32, kpack = 4, mPerWave = 16, nPerWave = 16, forceUnroll = true>, storeMethod = #rock<StoreMethod set>}> : (memref<1x49x672xf32>, memref<1x32928x7744xf32>, memref<1x672x7744xf32>) -> ()

Exception in gpu::mlir_op: /src/AMDMIGraphX/src/targets/gpu/mlir.cpp:731: run_backend_pipeline: MLIR backend compilation failed: Error: 'rock.gemm' op K dimensions don't match k_a = 49 k_b = 4704
Note: see current operation: "rock.gemm"(%4, %7, %8) <{aTransposed, arch = "gfx908:sramecc+:xnack-", derivedBlockSize = 256 : i32, features = #rock<GemmFeatures mfma|dot|atomic_add>, gridSize = 1723 : i32, numCU = 120 : i32, params = #rock.xdlops_gemm_params<kpackPerBlock = 4, mPerBlock = 128, nPerBlock = 256, kpack = 4, mPerWave = 64, nPerWave = 128, forceUnroll = true>, storeMethod = #rock<StoreMethod set>}> : (memref<1x49x96xf32>, memref<1x4704x440896xf32>, memref<1x96x440896xf32>) -> ()

Exception in gpu::mlir_op: /src/AMDMIGraphX/src/targets/gpu/mlir.cpp:731: run_backend_pipeline: MLIR backend compilation failed: Error: 'rock.gemm' op K dimensions don't match k_a = 25 k_b = 1050
Note: see current operation: "rock.gemm"(%4, %7, %8) <{aTransposed, arch = "gfx908:sramecc+:xnack-", derivedBlockSize = 128 : i32, features = #rock<GemmFeatures mfma|dot|atomic_add>, gridSize = 3445 : i32, numCU = 120 : i32, params = #rock.xdlops_gemm_params<kpackPerBlock = 4, mPerBlock = 128, nPerBlock = 128, kpack = 4, mPerWave = 64, nPerWave = 128, forceUnroll = true>, storeMethod = #rock<StoreMethod set>}> : (memref<1x25x42xf32>, memref<1x1050x440896xf32>, memref<1x42x440896xf32>) -> ()

Exception in gpu::mlir_op: /src/AMDMIGraphX/src/targets/gpu/mlir.cpp:731: run_backend_pipeline: MLIR backend compilation failed: Error: 'rock.gemm' op K dimensions don't match k_a = 25 k_b = 2100
Note: see current operation: "rock.gemm"(%4, %7, %8) <{aTransposed, arch = "gfx908:sramecc+:xnack-", derivedBlockSize = 256 : i32, features = #rock<GemmFeatures mfma|dot|atomic_add>, gridSize = 3528 : i32, numCU = 120 : i32, params = #rock.xdlops_gemm_params<kpackPerBlock = 4, mPerBlock = 64, nPerBlock = 64, kpack = 8, mPerWave = 32, nPerWave = 32, forceUnroll = true>, storeMethod = #rock<StoreMethod set>}> : (memref<1x25x84xf32>, memref<1x2100x112896xf32>, memref<1x84x112896xf32>) -> ()
Exception in gpu::mlir_op: /src/AMDMIGraphX/src/targets/gpu/mlir.cpp:731: run_backend_pipeline: MLIR backend compilation failed: Error: 'rock.gemm' op K dimensions don't match k_a = 25 k_b = 16800
Note: see current operation: "rock.gemm"(%4, %7, %8) <{aTransposed, arch = "gfx908:sramecc+:xnack-", derivedBlockSize = 128 : i32, features = #rock<GemmFeatures mfma|dot|atomic_add>, gridSize = 366 : i32, numCU = 120 : i32, params = #rock.xdlops_gemm_params<kpackPerBlock = 8, mPerBlock = 128, nPerBlock = 128, kpack = 1, mPerWave = 64, nPerWave = 128, forceUnroll = true>, storeMethod = #rock<StoreMethod set>}> : (memref<1x25x672xf32>, memref<1x16800x7744xf32>, memref<1x672x7744xf32>) -> ()

Exception in gpu::mlir_op: /src/AMDMIGraphX/src/targets/gpu/mlir.cpp:731: run_backend_pipeline: MLIR backend compilation failed: Error: 'rock.gemm' op K dimensions don't match k_a = 25 k_b = 4200
Note: see current operation: "rock.gemm"(%5, %8, %9) <{aTransposed, arch = "gfx908:sramecc+:xnack-", derivedBlockSize = 256 : i32, features = #rock<GemmFeatures mfma|dot|atomic_add>, gridSize = 5292 : i32, numCU = 120 : i32, params = #rock.xdlops_gemm_params<kpackPerBlock = 2, mPerBlock = 64, nPerBlock = 64, kpack = 8, mPerWave = 32, nPerWave = 32, forceUnroll = true>, storeMethod = #rock<StoreMethod set>}> : (memref<1x25x168xf32>, memref<1x4200x112896xf32>, memref<1x168x112896xf32>) -> ()
Exception in gpu::mlir_op: /src/AMDMIGraphX/src/targets/gpu/mlir.cpp:731: run_backend_pipeline: MLIR backend compilation failed: Error: 'rock.gemm' op K dimensions don't match k_a = 49 k_b = 4116
Note: see current operation: "rock.gemm"(%4, %7, %8) <{aTransposed, arch = "gfx908:sramecc+:xnack-", derivedBlockSize = 256 : i32, features = #rock<GemmFeatures mfma|dot|atomic_add>, gridSize = 882 : i32, numCU = 120 : i32, params = #rock.xdlops_gemm_params<kpackPerBlock = 8, mPerBlock = 128, nPerBlock = 128, kpack = 1, mPerWave = 64, nPerWave = 64, forceUnroll = true>, storeMethod = #rock<StoreMethod set>}> : (memref<1x49x84xf32>, memref<1x4116x112896xf32>, memref<1x84x112896xf32>) -> ()

Exception in gpu::mlir_op: /src/AMDMIGraphX/src/targets/gpu/mlir.cpp:731: run_backend_pipeline: MLIR backend compilation failed: Error: 'rock.gemm' op K dimensions don't match k_a = 49 k_b = 2058
Note: see current operation: "rock.gemm"(%4, %7, %8) <{aTransposed, arch = "gfx908:sramecc+:xnack-", derivedBlockSize = 256 : i32, features = #rock<GemmFeatures mfma|dot|atomic_add>, gridSize = 27556 : i32, numCU = 120 : i32, params = #rock.xdlops_gemm_params<kpackPerBlock = 8, mPerBlock = 32, nPerBlock = 32, kpack = 8, mPerWave = 16, nPerWave = 16, forceUnroll = true>, storeMethod = #rock<StoreMethod set>}> : (memref<1x49x42xf32>, memref<1x2058x440896xf32>, memref<1x42x440896xf32>) -> ()

Exception in gpu::mlir_op: /src/AMDMIGraphX/src/targets/gpu/mlir.cpp:731: run_backend_pipeline: MLIR backend compilation failed: Error: 'rock.gemm' op K dimensions don't match k_a = 49 k_b = 32928
Note: see current operation: "rock.gemm"(%4, %7, %8) <{aTransposed, arch = "gfx908:sramecc+:xnack-", derivedBlockSize = 64 : i32, features = #rock<GemmFeatures mfma|dot|atomic_add>, gridSize = 20328 : i32, numCU = 120 : i32, params = #rock.xdlops_gemm_params<kpackPerBlock = 8, mPerBlock = 16, nPerBlock = 16, kpack = 8, mPerWave = 16, nPerWave = 16, forceUnroll = true>, storeMethod = #rock<StoreMethod set>}> : (memref<1x49x672xf32>, memref<1x32928x7744xf32>, memref<1x672x7744xf32>) -> ()


Exception in gpu::mlir_op: /src/AMDMIGraphX/src/targets/gpu/mlir.cpp:731: run_backend_pipeline: MLIR backend compilation failed: Error: 'rock.gemm' op K dimensions don't match k_a = 25 k_b = 8400
Note: see current operation: "rock.gemm"(%4, %7, %8) <{aTransposed, arch = "gfx908:sramecc+:xnack-", derivedBlockSize = 256 : i32, features = #rock<GemmFeatures mfma|dot|atomic_add>, gridSize = 663 : i32, numCU = 120 : i32, params = #rock.xdlops_gemm_params<kpackPerBlock = 4, mPerBlock = 128, nPerBlock = 128, kpack = 8, mPerWave = 64, nPerWave = 64, forceUnroll = true>, storeMethod = #rock<StoreMethod set>}> : (memref<1x25x336xf32>, memref<1x8400x28224xf32>, memref<1x336x28224xf32>) -> ()

Exception in gpu::mlir_op: /src/AMDMIGraphX/src/targets/gpu/mlir.cpp:731: run_backend_pipeline: MLIR backend compilation failed: Error: 'rock.gemm' op K dimensions don't match k_a = 9 k_b = 6048
Note: see current operation: "rock.gemm"(%4, %7, %8) <{aTransposed, arch = "gfx908:sramecc+:xnack-", derivedBlockSize = 256 : i32, features = #rock<GemmFeatures mfma|dot|atomic_add>, gridSize = 1331 : i32, numCU = 120 : i32, params = #rock.xdlops_gemm_params<kpackPerBlock = 4, mPerBlock = 64, nPerBlock = 64, kpack = 8, mPerWave = 16, nPerWave = 64, forceUnroll = true>, storeMethod = #rock<StoreMethod set>}> : (memref<1x9x672xf32>, memref<1x6048x7744xf32>, memref<1x672x7744xf32>) -> ()


Exception in gpu::mlir_op: /src/AMDMIGraphX/src/targets/gpu/mlir.cpp:731: run_backend_pipeline: MLIR backend compilation failed: Error: 'rock.gemm' op K dimensions don't match k_a = 49 k_b = 4704
Note: see current operation: "rock.gemm"(%4, %7, %8) <{aTransposed, arch = "gfx908:sramecc+:xnack-", derivedBlockSize = 256 : i32, features = #rock<GemmFeatures mfma|dot|atomic_add>, gridSize = 3446 : i32, numCU = 120 : i32, params = #rock.xdlops_gemm_params<kpackPerBlock = 4, mPerBlock = 64, nPerBlock = 256, kpack = 4, mPerWave = 64, nPerWave = 64, forceUnroll = true>, storeMethod = #rock<StoreMethod set>}> : (memref<1x49x96xf32>, memref<1x4704x440896xf32>, memref<1x96x440896xf32>) -> ()

Exception in gpu::mlir_op: /src/AMDMIGraphX/src/targets/gpu/mlir.cpp:731: run_backend_pipeline: MLIR backend compilation failed: Error: 'rock.gemm' op K dimensions don't match k_a = 49 k_b = 2058
Note: see current operation: "rock.gemm"(%4, %7, %8) <{aTransposed, arch = "gfx908:sramecc+:xnack-", derivedBlockSize = 256 : i32, features = #rock<GemmFeatures mfma|dot|atomic_add>, gridSize = 27556 : i32, numCU = 120 : i32, params = #rock.xdlops_gemm_params<kpackPerBlock = 8, mPerBlock = 32, nPerBlock = 32, kpack = 4, mPerWave = 16, nPerWave = 16, forceUnroll = true>, storeMethod = #rock<StoreMethod set>}> : (memref<1x49x42xf32>, memref<1x2058x440896xf32>, memref<1x42x440896xf32>) -> ()
Exception in gpu::mlir_op: /src/AMDMIGraphX/src/targets/gpu/mlir.cpp:731: run_backend_pipeline: MLIR backend compilation failed: Error: 'rock.gemm' op K dimensions don't match k_a = 25 k_b = 16800
Note: see current operation: "rock.gemm"(%4, %7, %8) <{aTransposed, arch = "gfx908:sramecc+:xnack-", derivedBlockSize = 256 : i32, features = #rock<GemmFeatures mfma|dot|atomic_add>, gridSize = 366 : i32, numCU = 120 : i32, params = #rock.xdlops_gemm_params<kpackPerBlock = 8, mPerBlock = 128, nPerBlock = 128, kpack = 1, mPerWave = 64, nPerWave = 64, forceUnroll = true>, storeMethod = #rock<StoreMethod set>}> : (memref<1x25x672xf32>, memref<1x16800x7744xf32>, memref<1x672x7744xf32>) -> ()

Exception in gpu::mlir_op: /src/AMDMIGraphX/src/targets/gpu/mlir.cpp:731: run_backend_pipeline: MLIR backend compilation failed: Error: 'rock.gemm' op K dimensions don't match k_a = 25 k_b = 1050
Note: see current operation: "rock.gemm"(%4, %7, %8) <{aTransposed, arch = "gfx908:sramecc+:xnack-", derivedBlockSize = 256 : i32, features = #rock<GemmFeatures mfma|dot|atomic_add>, gridSize = 3445 : i32, numCU = 120 : i32, params = #rock.xdlops_gemm_params<kpackPerBlock = 4, mPerBlock = 128, nPerBlock = 128, kpack = 8, mPerWave = 64, nPerWave = 64, forceUnroll = true>, storeMethod = #rock<StoreMethod set>}> : (memref<1x25x42xf32>, memref<1x1050x440896xf32>, memref<1x42x440896xf32>) -> ()

Exception in gpu::mlir_op: /src/AMDMIGraphX/src/targets/gpu/mlir.cpp:731: run_backend_pipeline: MLIR backend compilation failed: Error: 'rock.gemm' op K dimensions don't match k_a = 25 k_b = 4200
Note: see current operation: "rock.gemm"(%5, %8, %9) <{aTransposed, arch = "gfx908:sramecc+:xnack-", derivedBlockSize = 256 : i32, features = #rock<GemmFeatures mfma|dot|atomic_add>, gridSize = 5292 : i32, numCU = 120 : i32, params = #rock.xdlops_gemm_params<kpackPerBlock = 4, mPerBlock = 32, nPerBlock = 128, kpack = 4, mPerWave = 32, nPerWave = 32, forceUnroll = true>, storeMethod = #rock<StoreMethod set>}> : (memref<1x25x168xf32>, memref<1x4200x112896xf32>, memref<1x168x112896xf32>) -> ()

Exception in gpu::mlir_op: /src/AMDMIGraphX/src/targets/gpu/mlir.cpp:731: run_backend_pipeline: MLIR backend compilation failed: Error: 'rock.gemm' op K dimensions don't match k_a = 25 k_b = 2100
Note: see current operation: "rock.gemm"(%4, %7, %8) <{aTransposed, arch = "gfx908:sramecc+:xnack-", derivedBlockSize = 256 : i32, features = #rock<GemmFeatures mfma|dot|atomic_add>, gridSize = 3528 : i32, numCU = 120 : i32, params = #rock.xdlops_gemm_params<kpackPerBlock = 4, mPerBlock = 64, nPerBlock = 64, kpack = 4, mPerWave = 32, nPerWave = 32, forceUnroll = true>, storeMethod = #rock<StoreMethod set>}> : (memref<1x25x84xf32>, memref<1x2100x112896xf32>, memref<1x84x112896xf32>) -> ()

Exception in gpu::mlir_op: /src/AMDMIGraphX/src/targets/gpu/mlir.cpp:731: run_backend_pipeline: MLIR backend compilation failed: Error: 'rock.gemm' op K dimensions don't match k_a = 49 k_b = 32928
Note: see current operation: "rock.gemm"(%4, %7, %8) <{aTransposed, arch = "gfx908:sramecc+:xnack-", derivedBlockSize = 64 : i32, features = #rock<GemmFeatures mfma|dot|atomic_add>, gridSize = 20328 : i32, numCU = 120 : i32, params = #rock.xdlops_gemm_params<kpackPerBlock = 4, mPerBlock = 16, nPerBlock = 16, kpack = 4, mPerWave = 16, nPerWave = 16, forceUnroll = true>, storeMethod = #rock<StoreMethod set>}> : (memref<1x49x672xf32>, memref<1x32928x7744xf32>, memref<1x672x7744xf32>) -> ()

Exception in gpu::mlir_op: /src/AMDMIGraphX/src/targets/gpu/mlir.cpp:731: run_backend_pipeline: MLIR backend compilation failed: Error: 'rock.gemm' op K dimensions don't match k_a = 9 k_b = 6048
Note: see current operation: "rock.gemm"(%4, %7, %8) <{aTransposed, arch = "gfx908:sramecc+:xnack-", derivedBlockSize = 256 : i32, features = #rock<GemmFeatures mfma|dot|atomic_add>, gridSize = 366 : i32, numCU = 120 : i32, params = #rock.xdlops_gemm_params<kpackPerBlock = 8, mPerBlock = 128, nPerBlock = 128, kpack = 4, mPerWave = 64, nPerWave = 64, forceUnroll = true>, storeMethod = #rock<StoreMethod set>}> : (memref<1x9x672xf32>, memref<1x6048x7744xf32>, memref<1x672x7744xf32>) -> ()

Exception in gpu::mlir_op: /src/AMDMIGraphX/src/targets/gpu/mlir.cpp:731: run_backend_pipeline: MLIR backend compilation failed: Error: 'rock.gemm' op K dimensions don't match k_a = 25 k_b = 8400
Note: see current operation: "rock.gemm"(%4, %7, %8) <{aTransposed, arch = "gfx908:sramecc+:xnack-", derivedBlockSize = 256 : i32, features = #rock<GemmFeatures mfma|dot|atomic_add>, gridSize = 663 : i32, numCU = 120 : i32, params = #rock.xdlops_gemm_params<kpackPerBlock = 4, mPerBlock = 128, nPerBlock = 128, kpack = 4, mPerWave = 64, nPerWave = 64, forceUnroll = true>, storeMethod = #rock<StoreMethod set>}> : (memref<1x25x336xf32>, memref<1x8400x28224xf32>, memref<1x336x28224xf32>) -> ()

Exception in gpu::mlir_op: /src/AMDMIGraphX/src/targets/gpu/mlir.cpp:731: run_backend_pipeline: MLIR backend compilation failed: Error: 'rock.gemm' op K dimensions don't match k_a = 49 k_b = 4116
Note: see current operation: "rock.gemm"(%4, %7, %8) <{aTransposed, arch = "gfx908:sramecc+:xnack-", derivedBlockSize = 256 : i32, features = #rock<GemmFeatures mfma|dot|atomic_add>, gridSize = 882 : i32, numCU = 120 : i32, params = #rock.xdlops_gemm_params<kpackPerBlock = 2, mPerBlock = 128, nPerBlock = 128, kpack = 4, mPerWave = 64, nPerWave = 64, forceUnroll = true>, storeMethod = #rock<StoreMethod set>}> : (memref<1x49x84xf32>, memref<1x4116x112896xf32>, memref<1x84x112896xf32>) -> ()


Exception in gpu::mlir_op: /src/AMDMIGraphX/src/targets/gpu/mlir.cpp:731: run_backend_pipeline: MLIR backend compilation failed: Error: 'rock.gemm' op K dimensions don't match k_a = 25 k_b = 2100
Note: see current operation: "rock.gemm"(%4, %7, %8) <{aTransposed, arch = "gfx908:sramecc+:xnack-", derivedBlockSize = 256 : i32, features = #rock<GemmFeatures mfma|dot|atomic_add>, gridSize = 3528 : i32, numCU = 120 : i32, params = #rock.xdlops_gemm_params<kpackPerBlock = 4, mPerBlock = 64, nPerBlock = 64, kpack = 8, mPerWave = 16, nPerWave = 64, forceUnroll = true>, storeMethod = #rock<StoreMethod set>}> : (memref<1x25x84xf32>, memref<1x2100x112896xf32>, memref<1x84x112896xf32>) -> ()

Exception in gpu::mlir_op: /src/AMDMIGraphX/src/targets/gpu/mlir.cpp:731: run_backend_pipeline: MLIR backend compilation failed: Error: 'rock.gemm' op K dimensions don't match k_a = 49 k_b = 4116
Note: see current operation: "rock.gemm"(%4, %7, %8) <{aTransposed, arch = "gfx908:sramecc+:xnack-", derivedBlockSize = 256 : i32, features = #rock<GemmFeatures mfma|dot|atomic_add>, gridSize = 882 : i32, numCU = 120 : i32, params = #rock.xdlops_gemm_params<kpackPerBlock = 8, mPerBlock = 64, nPerBlock = 256, kpack = 1, mPerWave = 64, nPerWave = 64, forceUnroll = true>, storeMethod = #rock<StoreMethod set>}> : (memref<1x49x84xf32>, memref<1x4116x112896xf32>, memref<1x84x112896xf32>) -> ()

Exception in gpu::mlir_op: /src/AMDMIGraphX/src/targets/gpu/mlir.cpp:731: run_backend_pipeline: MLIR backend compilation failed: Error: 'rock.gemm' op K dimensions don't match k_a = 25 k_b = 1050
Note: see current operation: "rock.gemm"(%4, %7, %8) <{aTransposed, arch = "gfx908:sramecc+:xnack-", derivedBlockSize = 256 : i32, features = #rock<GemmFeatures mfma|dot|atomic_add>, gridSize = 3445 : i32, numCU = 120 : i32, params = #rock.xdlops_gemm_params<kpackPerBlock = 4, mPerBlock = 128, nPerBlock = 128, kpack = 4, mPerWave = 64, nPerWave = 64, forceUnroll = true>, storeMethod = #rock<StoreMethod set>}> : (memref<1x25x42xf32>, memref<1x1050x440896xf32>, memref<1x42x440896xf32>) -> ()

Exception in gpu::mlir_op: /src/AMDMIGraphX/src/targets/gpu/mlir.cpp:731: run_backend_pipeline: MLIR backend compilation failed: Error: 'rock.gemm' op K dimensions don't match k_a = 25 k_b = 4200
Note: see current operation: "rock.gemm"(%5, %8, %9) <{aTransposed, arch = "gfx908:sramecc+:xnack-", derivedBlockSize = 64 : i32, features = #rock<GemmFeatures mfma|dot|atomic_add>, gridSize = 10584 : i32, numCU = 120 : i32, params = #rock.xdlops_gemm_params<kpackPerBlock = 4, mPerBlock = 32, nPerBlock = 64, kpack = 4, mPerWave = 32, nPerWave = 64, forceUnroll = true>, storeMethod = #rock<StoreMethod set>}> : (memref<1x25x168xf32>, memref<1x4200x112896xf32>, memref<1x168x112896xf32>) -> ()

Exception in gpu::mlir_op: /src/AMDMIGraphX/src/targets/gpu/mlir.cpp:731: run_backend_pipeline: MLIR backend compilation failed: Error: 'rock.gemm' op K dimensions don't match k_a = 25 k_b = 8400
Note: see current operation: "rock.gemm"(%4, %7, %8) <{aTransposed, arch = "gfx908:sramecc+:xnack-", derivedBlockSize = 128 : i32, features = #rock<GemmFeatures mfma|dot|atomic_add>, gridSize = 663 : i32, numCU = 120 : i32, params = #rock.xdlops_gemm_params<kpackPerBlock = 2, mPerBlock = 128, nPerBlock = 128, kpack = 8, mPerWave = 64, nPerWave = 128, forceUnroll = true>, storeMethod = #rock<StoreMethod set>}> : (memref<1x25x336xf32>, memref<1x8400x28224xf32>, memref<1x336x28224xf32>) -> ()

Exception in gpu::mlir_op: /src/AMDMIGraphX/src/targets/gpu/mlir.cpp:731: run_backend_pipeline: MLIR backend compilation failed: Error: 'rock.gemm' op K dimensions don't match k_a = 49 k_b = 32928
Note: see current operation: "rock.gemm"(%4, %7, %8) <{aTransposed, arch = "gfx908:sramecc+:xnack-", derivedBlockSize = 128 : i32, features = #rock<GemmFeatures mfma|dot|atomic_add>, gridSize = 10164 : i32, numCU = 120 : i32, params = #rock.xdlops_gemm_params<kpackPerBlock = 8, mPerBlock = 8, nPerBlock = 64, kpack = 8, mPerWave = 4, nPerWave = 64, forceUnroll = true>, storeMethod = #rock<StoreMethod set>}> : (memref<1x49x672xf32>, memref<1x32928x7744xf32>, memref<1x672x7744xf32>) -> ()

Exception in gpu::mlir_op: /src/AMDMIGraphX/src/targets/gpu/mlir.cpp:731: run_backend_pipeline: MLIR backend compilation failed: Error: 'rock.gemm' op K dimensions don't match k_a = 25 k_b = 16800
Note: see current operation: "rock.gemm"(%4, %7, %8) <{aTransposed, arch = "gfx908:sramecc+:xnack-", derivedBlockSize = 256 : i32, features = #rock<GemmFeatures mfma|dot|atomic_add>, gridSize = 366 : i32, numCU = 120 : i32, params = #rock.xdlops_gemm_params<kpackPerBlock = 8, mPerBlock = 128, nPerBlock = 128, kpack = 4, mPerWave = 64, nPerWave = 64, forceUnroll = true>, storeMethod = #rock<StoreMethod set>}> : (memref<1x25x672xf32>, memref<1x16800x7744xf32>, memref<1x672x7744xf32>) -> ()

Exception in gpu::mlir_op: /src/AMDMIGraphX/src/targets/gpu/mlir.cpp:731: run_backend_pipeline: MLIR backend compilation failed: Error: 'rock.gemm' op K dimensions don't match k_a = 9 k_b = 6048
Note: see current operation: "rock.gemm"(%4, %7, %8) <{aTransposed, arch = "gfx908:sramecc+:xnack-", derivedBlockSize = 256 : i32, features = #rock<GemmFeatures mfma|dot|atomic_add>, gridSize = 366 : i32, numCU = 120 : i32, params = #rock.xdlops_gemm_params<kpackPerBlock = 4, mPerBlock = 128, nPerBlock = 128, kpack = 8, mPerWave = 64, nPerWave = 64, forceUnroll = true>, storeMethod = #rock<StoreMethod set>}> : (memref<1x9x672xf32>, memref<1x6048x7744xf32>, memref<1x672x7744xf32>) -> ()

Exception in gpu::mlir_op: /src/AMDMIGraphX/src/targets/gpu/mlir.cpp:731: run_backend_pipeline: MLIR backend compilation failed: Error: 'rock.gemm' op K dimensions don't match k_a = 49 k_b = 2058
…
= 128, forceUnroll = true>, storeMethod = #rock<StoreMethod set>}> : (memref<1x9x84xf32>, memref<1x756x112896xf32>, memref<1x84x112896xf32>) -> ()

Exception in gpu::mlir_op: /src/AMDMIGraphX/src/targets/gpu/mlir.cpp:731: run_backend_pipeline: MLIR backend compilation failed: Error: 'rock.gemm' op K dimensions don't match k_a = 49 k_b = 4704
Note: see current operation: "rock.gemm"(%4, %7, %8) <{aTransposed, arch = "gfx908:sramecc+:xnack-", derivedBlockSize = 64 : i32, features = #rock<GemmFeatures mfma|dot|atomic_add>, gridSize = 165336 : i32, numCU = 120 : i32, params = #rock.xdlops_gemm_params<kpackPerBlock = 16, mPerBlock = 4, nPerBlock = 64, kpack = 1, mPerWave = 4, nPerWave = 64, forceUnroll = true>, storeMethod = #rock<StoreMethod set>}> : (memref<1x49x96xf32>, memref<1x4704x440896xf32>, memref<1x96x440896xf32>) -> ()

Exception in gpu::mlir_op: /src/AMDMIGraphX/src/targets/gpu/mlir.cpp:731: run_backend_pipeline: MLIR backend compilation failed: Error: 'rock.gemm' op K dimensions don't match k_a = 9 k_b = 756
Note: see current operation: "rock.gemm"(%4, %7, %8) <{aTransposed, arch = "gfx908:sramecc+:xnack-", derivedBlockSize = 256 : i32, features = #rock<GemmFeatures mfma|dot|atomic_add>, gridSize = 882 : i32, numCU = 120 : i32, params = #rock.xdlops_gemm_params<kpackPerBlock = 8, mPerBlock = 128, nPerBlock = 128, kpack = 1, mPerWave = 64, nPerWave = 64, forceUnroll = true>, storeMethod = #rock<StoreMethod set>}> : (memref<1x9x84xf32>, memref<1x756x112896xf32>, memref<1x84x112896xf32>) -> ()

Exception in gpu::mlir_op: /src/AMDMIGraphX/src/targets/gpu/mlir.cpp:731: run_backend_pipeline: MLIR backend compilation failed: Error: 'rock.gemm' op K dimensions don't match k_a = 49 k_b = 4704
Note: see current operation: "rock.gemm"(%4, %7, %8) <{aTransposed, arch = "gfx908:sramecc+:xnack-", derivedBlockSize = 64 : i32, features = #rock<GemmFeatures mfma|dot|atomic_add>, gridSize = 165336 : i32, numCU = 120 : i32, params = #rock.xdlops_gemm_params<kpackPerBlock = 2, mPerBlock = 4, nPerBlock = 64, kpack = 8, mPerWave = 4, nPerWave = 64, forceUnroll = true>, storeMethod = #rock<StoreMethod set>}> : (memref<1x49x96xf32>, memref<1x4704x440896xf32>, memref<1x96x440896xf32>) -> ()

Exception in gpu::mlir_op: /src/AMDMIGraphX/src/targets/gpu/mlir.cpp:731: run_backend_pipeline: MLIR backend compilation failed: Error: 'rock.gemm' op K dimensions don't match k_a = 9 k_b = 756
Note: see current operation: "rock.gemm"(%4, %7, %8) <{aTransposed, arch = "gfx908:sramecc+:xnack-", derivedBlockSize = 128 : i32, features = #rock<GemmFeatures mfma|dot|atomic_add>, gridSize = 882 : i32, numCU = 120 : i32, params = #rock.xdlops_gemm_params<kpackPerBlock = 4, mPerBlock = 128, nPerBlock = 128, kpack = 4, mPerWave = 64, nPerWave = 128, forceUnroll = true>, storeMethod = #rock<StoreMethod set>}> : (memref<1x9x84xf32>, memref<1x756x112896xf32>, memref<1x84x112896xf32>) -> ()

Exception in gpu::mlir_op: /src/AMDMIGraphX/src/targets/gpu/mlir.cpp:731: run_backend_pipeline: MLIR backend compilation failed: Error: 'rock.gemm' op K dimensions don't match k_a = 49 k_b = 4704
Note: see current operation: "rock.gemm"(%4, %7, %8) <{aTransposed, arch = "gfx908:sramecc+:xnack-", derivedBlockSize = 256 : i32, features = #rock<GemmFeatures mfma|dot|atomic_add>, gridSize = 10335 : i32, numCU = 120 : i32, params = #rock.xdlops_gemm_params<kpackPerBlock = 4, mPerBlock = 32, nPerBlock = 128, kpack = 4, mPerWave = 32, nPerWave = 32, forceUnroll = true>, storeMethod = #rock<StoreMethod set>}> : (memref<1x49x96xf32>, memref<1x4704x440896xf32>, memref<1x96x440896xf32>) -> ()

Exception in gpu::mlir_op: /src/AMDMIGraphX/src/targets/gpu/mlir.cpp:731: run_backend_pipeline: MLIR backend compilation failed: Error: 'rock.gemm' op K dimensions don't match k_a = 9 k_b = 756
Note: see current operation: "rock.gemm"(%4, %7, %8) <{aTransposed, arch = "gfx908:sramecc+:xnack-", derivedBlockSize = 256 : i32, features = #rock<GemmFeatures mfma|dot|atomic_add>, gridSize = 882 : i32, numCU = 120 : i32, params = #rock.xdlops_gemm_params<kpackPerBlock = 4, mPerBlock = 128, nPerBlock = 128, kpack = 4, mPerWave = 64, nPerWave = 64, forceUnroll = true>, storeMethod = #rock<StoreMethod set>}> : (memref<1x9x84xf32>, memref<1x756x112896xf32>, memref<1x84x112896xf32>) -> ()

Exception in gpu::mlir_op: /src/AMDMIGraphX/src/targets/gpu/mlir.cpp:731: run_backend_pipeline: MLIR backend compilation failed: Error: 'rock.gemm' op K dimensions don't match k_a = 49 k_b = 4704
Note: see current operation: "rock.gemm"(%4, %7, %8) <{aTransposed, arch = "gfx908:sramecc+:xnack-", derivedBlockSize = 128 : i32, features = #rock<GemmFeatures mfma|dot|atomic_add>, gridSize = 3445 : i32, numCU = 120 : i32, params = #rock.xdlops_gemm_params<kpackPerBlock = 8, mPerBlock = 128, nPerBlock = 128, kpack = 1, mPerWave = 64, nPerWave = 128, forceUnroll = true>, storeMethod = #rock<StoreMethod set>}> : (memref<1x49x96xf32>, memref<1x4704x440896xf32>, memref<1x96x440896xf32>) -> ()

Exception in gpu::mlir_op: /src/AMDMIGraphX/src/targets/gpu/mlir.cpp:731: run_backend_pipeline: MLIR backend compilation failed: Error: 'rock.gemm' op K dimensions don't match k_a = 9 k_b = 756
Note: see current operation: "rock.gemm"(%4, %7, %8) <{aTransposed, arch = "gfx908:sramecc+:xnack-", derivedBlockSize = 128 : i32, features = #rock<GemmFeatures mfma|dot|atomic_add>, gridSize = 882 : i32, numCU = 120 : i32, params = #rock.xdlops_gemm_params<kpackPerBlock = 2, mPerBlock = 128, nPerBlock = 128, kpack = 8, mPerWave = 64, nPerWave = 128, forceUnroll = true>, storeMethod = #rock<StoreMethod set>}> : (memref<1x9x84xf32>, memref<1x756x112896xf32>, memref<1x84x112896xf32>) -> ()

Exception in gpu::mlir_op: /src/AMDMIGraphX/src/targets/gpu/mlir.cpp:731: run_backend_pipeline: MLIR backend compilation failed: Error: 'rock.gemm' op K dimensions don't match k_a = 49 k_b = 4704
Note: see current operation: "rock.gemm"(%4, %7, %8) <{aTransposed, arch = "gfx908:sramecc+:xnack-", derivedBlockSize = 256 : i32, features = #rock<GemmFeatures mfma|dot|atomic_add>, gridSize = 3445 : i32, numCU = 120 : i32, params = #rock.xdlops_gemm_params<kpackPerBlock = 8, mPerBlock = 128, nPerBlock = 128, kpack = 1, mPerWave = 64, nPerWave = 64, forceUnroll = true>, storeMethod = #rock<StoreMethod set>}> : (memref<1x49x96xf32>, memref<1x4704x440896xf32>, memref<1x96x440896xf32>) -> ()

Exception in gpu::mlir_op: /src/AMDMIGraphX/src/targets/gpu/mlir.cpp:731: run_backend_pipeline: MLIR backend compilation failed: Error: 'rock.gemm' op K dimensions don't match k_a = 9 k_b = 756
Note: see current operation: "rock.gemm"(%4, %7, %8) <{aTransposed, arch = "gfx908:sramecc+:xnack-", derivedBlockSize = 256 : i32, features = #rock<GemmFeatures mfma|dot|atomic_add>, gridSize = 882 : i32, numCU = 120 : i32, params = #rock.xdlops_gemm_params<kpackPerBlock = 2, mPerBlock = 128, nPerBlock = 128, kpack = 8, mPerWave = 64, nPerWave = 64, forceUnroll = true>, storeMethod = #rock<StoreMethod set>}> : (memref<1x9x84xf32>, memref<1x756x112896xf32>, memref<1x84x112896xf32>) -> ()

Exception in gpu::mlir_op: /src/AMDMIGraphX/src/targets/gpu/mlir.cpp:731: run_backend_pipeline: MLIR backend compilation failed: Error: 'rock.gemm' op K dimensions don't match k_a = 49 k_b = 4704
Note: see current operation: "rock.gemm"(%4, %7, %8) <{aTransposed, arch = "gfx908:sramecc+:xnack-", derivedBlockSize = 256 : i32, features = #rock<GemmFeatures mfma|dot|atomic_add>, gridSize = 3445 : i32, numCU = 120 : i32, params = #rock.xdlops_gemm_params<kpackPerBlock = 2, mPerBlock = 128, nPerBlock = 128, kpack = 4, mPerWave = 64, nPerWave = 64, forceUnroll = true>, storeMethod = #rock<StoreMethod set>}> : (memref<1x49x96xf32>, memref<1x4704x440896xf32>, memref<1x96x440896xf32>) -> ()

Exception in gpu::mlir_op: /src/AMDMIGraphX/src/targets/gpu/mlir.cpp:731: run_backend_pipeline: MLIR backend compilation failed: Error: 'rock.gemm' op K dimensions don't match k_a = 9 k_b = 756
Note: see current operation: "rock.gemm"(%4, %7, %8) <{aTransposed, arch = "gfx908:sramecc+:xnack-", derivedBlockSize = 256 : i32, features = #rock<GemmFeatures mfma|dot|atomic_add>, gridSize = 882 : i32, numCU = 120 : i32, params = #rock.xdlops_gemm_params<kpackPerBlock = 2, mPerBlock = 128, nPerBlock = 128, kpack = 4, mPerWave = 64, nPerWave = 64, forceUnroll = true>, storeMethod = #rock<StoreMethod set>}> : (memref<1x9x84xf32>, memref<1x756x112896xf32>, memref<1x84x112896xf32>) -> ()

Exception in gpu::mlir_op: /src/AMDMIGraphX/src/targets/gpu/mlir.cpp:731: run_backend_pipeline: MLIR backend compilation failed: Error: 'rock.gemm' op K dimensions don't match k_a = 9 k_b = 756
Note: see current operation: "rock.gemm"(%4, %7, %8) <{aTransposed, arch = "gfx908:sramecc+:xnack-", derivedBlockSize = 256 : i32, features = #rock<GemmFeatures mfma|dot|atomic_add>, gridSize = 882 : i32, numCU = 120 : i32, params = #rock.xdlops_gemm_params<kpackPerBlock = 8, mPerBlock = 64, nPerBlock = 256, kpack = 1, mPerWave = 64, nPerWave = 64, forceUnroll = true>, storeMethod = #rock<StoreMethod set>}> : (memref<1x9x84xf32>, memref<1x756x112896xf32>, memref<1x84x112896xf32>) -> ()

Exception in gpu::mlir_op: /src/AMDMIGraphX/src/targets/gpu/mlir.cpp:731: run_backend_pipeline: MLIR backend compilation failed: Error: 'rock.gemm' op K dimensions don't match k_a = 49 k_b = 4704
Note: see current operation: "rock.gemm"(%4, %7, %8) <{aTransposed, arch = "gfx908:sramecc+:xnack-", derivedBlockSize = 256 : i32, features = #rock<GemmFeatures mfma|dot|atomic_add>, gridSize = 6890 : i32, numCU = 120 : i32, params = #rock.xdlops_gemm_params<kpackPerBlock = 2, mPerBlock = 64, nPerBlock = 128, kpack = 4, mPerWave = 32, nPerWave = 64, forceUnroll = true>, storeMethod = #rock<StoreMethod set>}> : (memref<1x49x96xf32>, memref<1x4704x440896xf32>, memref<1x96x440896xf32>) -> ()

Exception in gpu::mlir_op: /src/AMDMIGraphX/src/targets/gpu/mlir.cpp:731: run_backend_pipeline: MLIR backend compilation failed: Error: 'rock.gemm' op K dimensions don't match k_a = 9 k_b = 756
Note: see current operation: "rock.gemm"(%4, %7, %8) <{aTransposed, arch = "gfx908:sramecc+:xnack-", derivedBlockSize = 256 : i32, features = #rock<GemmFeatures mfma|dot|atomic_add>, gridSize = 882 : i32, numCU = 120 : i32, params = #rock.xdlops_gemm_params<kpackPerBlock = 4, mPerBlock = 64, nPerBlock = 256, kpack = 4, mPerWave = 64, nPerWave = 64, forceUnroll = true>, storeMethod = #rock<StoreMethod set>}> : (memref<1x9x84xf32>, memref<1x756x112896xf32>, memref<1x84x112896xf32>) -> ()

Exception in gpu::mlir_op: /src/AMDMIGraphX/src/targets/gpu/mlir.cpp:731: run_backend_pipeline: MLIR backend compilation failed: Error: 'rock.gemm' op K dimensions don't match k_a = 49 k_b = 4704
Note: see current operation: "rock.gemm"(%4, %7, %8) <{aTransposed, arch = "gfx908:sramecc+:xnack-", derivedBlockSize = 256 : i32, features = #rock<GemmFeatures mfma|dot|atomic_add>, gridSize = 3446 : i32, numCU = 120 : i32, params = #rock.xdlops_gemm_params<kpackPerBlock = 8, mPerBlock = 64, nPerBlock = 256, kpack = 1, mPerWave = 64, nPerWave = 64, forceUnroll = true>, storeMethod = #rock<StoreMethod set>}> : (memref<1x49x96xf32>, memref<1x4704x440896xf32>, memref<1x96x440896xf32>) -> ()

Exception in gpu::mlir_op: /src/AMDMIGraphX/src/targets/gpu/mlir.cpp:731: run_backend_pipeline: MLIR backend compilation failed: Error: 'rock.gemm' op K dimensions don't match k_a = 9 k_b = 756
Note: see current operation: "rock.gemm"(%4, %7, %8) <{aTransposed, arch = "gfx908:sramecc+:xnack-", derivedBlockSize = 256 : i32, features = #rock<GemmFeatures mfma|dot|atomic_add>, gridSize = 1764 : i32, numCU = 120 : i32, params = #rock.xdlops_gemm_params<kpackPerBlock = 4, mPerBlock = 64, nPerBlock = 128, kpack = 4, mPerWave = 32, nPerWave = 64, forceUnroll = true>, storeMethod = #rock<StoreMethod set>}> : (memref<1x9x84xf32>, memref<1x756x112896xf32>, memref<1x84x112896xf32>) -> ()

Exception in gpu::mlir_op: /src/AMDMIGraphX/src/targets/gpu/mlir.cpp:731: run_backend_pipeline: MLIR backend compilation failed: Error: 'rock.gemm' op K dimensions don't match k_a = 9 k_b = 756
Note: see current operation: "rock.gemm"(%4, %7, %8) <{aTransposed, arch = "gfx908:sramecc+:xnack-", derivedBlockSize = 256 : i32, features = #rock<GemmFeatures mfma|dot|atomic_add>, gridSize = 1764 : i32, numCU = 120 : i32, params = #rock.xdlops_gemm_params<kpackPerBlock = 2, mPerBlock = 64, nPerBlock = 128, kpack = 8, mPerWave = 32, nPerWave = 64, forceUnroll = true>, storeMethod = #rock<StoreMethod set>}> : (memref<1x9x84xf32>, memref<1x756x112896xf32>, memref<1x84x112896xf32>) -> ()

Exception in gpu::mlir_op: /src/AMDMIGraphX/src/targets/gpu/mlir.cpp:731: run_backend_pipeline: MLIR backend compilation failed: Error: 'rock.gemm' op K dimensions don't match k_a = 9 k_b = 756
Note: see current operation: "rock.gemm"(%4, %7, %8) <{aTransposed, arch = "gfx908:sramecc+:xnack-", derivedBlockSize = 256 : i32, features = #rock<GemmFeatures mfma|dot|atomic_add>, gridSize = 1764 : i32, numCU = 120 : i32, params = #rock.xdlops_gemm_params<kpackPerBlock = 2, mPerBlock = 64, nPerBlock = 128, kpack = 4, mPerWave = 32, nPerWave = 64, forceUnroll = true>, storeMethod = #rock<StoreMethod set>}> : (memref<1x9x84xf32>, memref<1x756x112896xf32>, memref<1x84x112896xf32>) -> ()

Exception in gpu::mlir_op: /src/AMDMIGraphX/src/targets/gpu/mlir.cpp:731: run_backend_pipeline: MLIR backend compilation failed: Error: 'rock.gemm' op K dimensions don't match k_a = 9 k_b = 756
Note: see current operation: "rock.gemm"(%4, %7, %8) <{aTransposed, arch = "gfx908:sramecc+:xnack-", derivedBlockSize = 256 : i32, features = #rock<GemmFeatures mfma|dot|atomic_add>, gridSize = 3528 : i32, numCU = 120 : i32, params = #rock.xdlops_gemm_params<kpackPerBlock = 4, mPerBlock = 64, nPerBlock = 64, kpack = 4, mPerWave = 32, nPerWave = 32, forceUnroll = true>, storeMethod = #rock<StoreMethod set>}> : (memref<1x9x84xf32>, memref<1x756x112896xf32>, memref<1x84x112896xf32>) -> ()

Exception in gpu::mlir_op: /src/AMDMIGraphX/src/targets/gpu/mlir.cpp:731: run_backend_pipeline: MLIR backend compilation failed: Error: 'rock.gemm' op K dimensions don't match k_a = 9 k_b = 756
Note: see current operation: "rock.gemm"(%4, %7, %8) <{aTransposed, arch = "gfx908:sramecc+:xnack-", derivedBlockSize = 256 : i32, features = #rock<GemmFeatures mfma|dot|atomic_add>, gridSize = 3528 : i32, numCU = 120 : i32, params = #rock.xdlops_gemm_params<kpackPerBlock = 4, mPerBlock = 64, nPerBlock = 64, kpack = 4, mPerWave = 16, nPerWave = 64, forceUnroll = true>, storeMethod = #rock<StoreMethod set>}> : (memref<1x9x84xf32>, memref<1x756x112896xf32>, memref<1x84x112896xf32>) -> ()

Exception in gpu::mlir_op: /src/AMDMIGraphX/src/targets/gpu/mlir.cpp:731: run_backend_pipeline: MLIR backend compilation failed: Error: 'rock.gemm' op K dimensions don't match k_a = 49 k_b = 16464
Note: see current operation: "rock.gemm"(%4, %7, %8) <{aTransposed, arch = "gfx908:sramecc+:xnack-", derivedBlockSize = 256 : i32, features = #rock<GemmFeatures mfma|dot|atomic_add>, gridSize = 4851 : i32, numCU = 120 : i32, params = #rock.xdlops_gemm_params<kpackPerBlock = 2, mPerBlock = 32, nPerBlock = 64, kpack = 4, mPerWave = 8, nPerWave = 64, forceUnroll = true>, storeMethod = #rock<StoreMethod set>}> : (memref<1x49x336xf32>, memref<1x16464x28224xf32>, memref<1x336x28224xf32>) -> ()

Exception in gpu::mlir_op: /src/AMDMIGraphX/src/targets/gpu/mlir.cpp:731: run_backend_pipeline: MLIR backend compilation failed: Error: 'rock.gemm' op K dimensions don't match k_a = 49 k_b = 16464
Note: see current operation: "rock.gemm"(%4, %7, %8) <{aTransposed, arch = "gfx908:sramecc+:xnack-", derivedBlockSize = 256 : i32, features = #rock<GemmFeatures mfma|dot|atomic_add>, gridSize = 9261 : i32, numCU = 120 : i32, params = #rock.xdlops_gemm_params<kpackPerBlock = 8, mPerBlock = 16, nPerBlock = 64, kpack = 8, mPerWave = 16, nPerWave = 16, forceUnroll = true>, storeMethod = #rock<StoreMethod set>}> : (memref<1x49x336xf32>, memref<1x16464x28224xf32>, memref<1x336x28224xf32>) -> ()

Exception in gpu::mlir_op: /src/AMDMIGraphX/src/targets/gpu/mlir.cpp:731: run_backend_pipeline: MLIR backend compilation failed: Error: 'rock.gemm' op K dimensions don't match k_a = 49 k_b = 16464
Note: see current operation: "rock.gemm"(%4, %7, %8) <{aTransposed, arch = "gfx908:sramecc+:xnack-", derivedBlockSize = 256 : i32, features = #rock<GemmFeatures mfma|dot|atomic_add>, gridSize = 9261 : i32, numCU = 120 : i32, params = #rock.xdlops_gemm_params<kpackPerBlock = 8, mPerBlock = 16, nPerBlock = 64, kpack = 4, mPerWave = 16, nPerWave = 16, forceUnroll = true>, storeMethod = #rock<StoreMethod set>}> : (memref<1x49x336xf32>, memref<1x16464x28224xf32>, memref<1x336x28224xf32>) -> ()

Exception in gpu::mlir_op: /src/AMDMIGraphX/src/targets/gpu/mlir.cpp:731: run_backend_pipeline: MLIR backend compilation failed: Error: 'rock.gemm' op K dimensions don't match k_a = 49 k_b = 16464
Note: see current operation: "rock.gemm"(%4, %7, %8) <{aTransposed, arch = "gfx908:sramecc+:xnack-", derivedBlockSize = 128 : i32, features = #rock<GemmFeatures mfma|dot|atomic_add>, gridSize = 18522 : i32, numCU = 120 : i32, params = #rock.xdlops_gemm_params<kpackPerBlock = 8, mPerBlock = 16, nPerBlock = 32, kpack = 8, mPerWave = 16, nPerWave = 16, forceUnroll = true>, storeMethod = #rock<StoreMethod set>}> : (memref<1x49x336xf32>, memref<1x16464x28224xf32>, memref<1x336x28224xf32>) -> ()

Exception in gpu::mlir_op: /src/AMDMIGraphX/src/targets/gpu/mlir.cpp:731: run_backend_pipeline: MLIR backend compilation failed: Error: 'rock.gemm' op K dimensions don't match k_a = 49 k_b = 16464
Note: see current operation: "rock.gemm"(%4, %7, %8) <{aTransposed, arch = "gfx908:sramecc+:xnack-", derivedBlockSize = 128 : i32, features = #rock<GemmFeatures mfma|dot|atomic_add>, gridSize = 18522 : i32, numCU = 120 : i32, params = #rock.xdlops_gemm_params<kpackPerBlock = 8, mPerBlock = 16, nPerBlock = 32, kpack = 4, mPerWave = 16, nPerWave = 16, forceUnroll = true>, storeMethod = #rock<StoreMethod set>}> : (memref<1x49x336xf32>, memref<1x16464x28224xf32>, memref<1x336x28224xf32>) -> ()

Exception in gpu::mlir_op: /src/AMDMIGraphX/src/targets/gpu/mlir.cpp:731: run_backend_pipeline: MLIR backend compilation failed: Error: 'rock.gemm' op K dimensions don't match k_a = 49 k_b = 16464
Note: see current operation: "rock.gemm"(%4, %7, %8) <{aTransposed, arch = "gfx908:sramecc+:xnack-", derivedBlockSize = 64 : i32, features = #rock<GemmFeatures mfma|dot|atomic_add>, gridSize = 37044 : i32, numCU = 120 : i32, params = #rock.xdlops_gemm_params<kpackPerBlock = 8, mPerBlock = 16, nPerBlock = 16, kpack = 8, mPerWave = 16, nPerWave = 16, forceUnroll = true>, storeMethod = #rock<StoreMethod set>}> : (memref<1x49x336xf32>, memref<1x16464x28224xf32>, memref<1x336x28224xf32>) -> ()

Exception in gpu::mlir_op: /src/AMDMIGraphX/src/targets/gpu/mlir.cpp:731: run_backend_pipeline: MLIR backend compilation failed: Error: 'rock.gemm' op K dimensions don't match k_a = 49 k_b = 16464
Note: see current operation: "rock.gemm"(%4, %7, %8) <{aTransposed, arch = "gfx908:sramecc+:xnack-", derivedBlockSize = 64 : i32, features = #rock<GemmFeatures mfma|dot|atomic_add>, gridSize = 37044 : i32, numCU = 120 : i32, params = #rock.xdlops_gemm_params<kpackPerBlock = 4, mPerBlock = 16, nPerBlock = 16, kpack = 4, mPerWave = 16, nPerWave = 16, forceUnroll = true>, storeMethod = #rock<StoreMethod set>}> : (memref<1x49x336xf32>, memref<1x16464x28224xf32>, memref<1x336x28224xf32>) -> ()

Exception in gpu::mlir_op: /src/AMDMIGraphX/src/targets/gpu/mlir.cpp:731: run_backend_pipeline: MLIR backend compilation failed: Error: 'rock.gemm' op K dimensions don't match k_a = 49 k_b = 16464
Note: see current operation: "rock.gemm"(%4, %7, %8) <{aTransposed, arch = "gfx908:sramecc+:xnack-", derivedBlockSize = 128 : i32, features = #rock<GemmFeatures mfma|dot|atomic_add>, gridSize = 18522 : i32, numCU = 120 : i32, params = #rock.xdlops_gemm_params<kpackPerBlock = 8, mPerBlock = 8, nPerBlock = 64, kpack = 8, mPerWave = 4, nPerWave = 64, forceUnroll = true>, storeMethod = #rock<StoreMethod set>}> : (memref<1x49x336xf32>, memref<1x16464x28224xf32>, memref<1x336x28224xf32>) -> ()

Exception in gpu::mlir_op: /src/AMDMIGraphX/src/targets/gpu/mlir.cpp:731: run_backend_pipeline: MLIR backend compilation failed: Error: 'rock.gemm' op K dimensions don't match k_a = 49 k_b = 16464
Note: see current operation: "rock.gemm"(%4, %7, %8) <{aTransposed, arch = "gfx908:sramecc+:xnack-", derivedBlockSize = 64 : i32, features = #rock<GemmFeatures mfma|dot|atomic_add>, gridSize = 37044 : i32, numCU = 120 : i32, params = #rock.xdlops_gemm_params<kpackPerBlock = 16, mPerBlock = 4, nPerBlock = 64, kpack = 1, mPerWave = 4, nPerWave = 64, forceUnroll = true>, storeMethod = #rock<StoreMethod set>}> : (memref<1x49x336xf32>, memref<1x16464x28224xf32>, memref<1x336x28224xf32>) -> ()

Exception in gpu::mlir_op: /src/AMDMIGraphX/src/targets/gpu/mlir.cpp:731: run_backend_pipeline: MLIR backend compilation failed: Error: 'rock.gemm' op K dimensions don't match k_a = 49 k_b = 16464
Note: see current operation: "rock.gemm"(%4, %7, %8) <{aTransposed, arch = "gfx908:sramecc+:xnack-", derivedBlockSize = 64 : i32, features = #rock<GemmFeatures mfma|dot|atomic_add>, gridSize = 37044 : i32, numCU = 120 : i32, params = #rock.xdlops_gemm_params<kpackPerBlock = 2, mPerBlock = 4, nPerBlock = 64, kpack = 8, mPerWave = 4, nPerWave = 64, forceUnroll = true>, storeMethod = #rock<StoreMethod set>}> : (memref<1x49x336xf32>, memref<1x16464x28224xf32>, memref<1x336x28224xf32>) -> ()

Exception in gpu::mlir_op: /src/AMDMIGraphX/src/targets/gpu/mlir.cpp:731: run_backend_pipeline: MLIR backend compilation failed: Error: 'rock.gemm' op K dimensions don't match k_a = 49 k_b = 16464
Note: see current operation: "rock.gemm"(%4, %7, %8) <{aTransposed, arch = "gfx908:sramecc+:xnack-", derivedBlockSize = 128 : i32, features = #rock<GemmFeatures mfma|dot|atomic_add>, gridSize = 663 : i32, numCU = 120 : i32, params = #rock.xdlops_gemm_params<kpackPerBlock = 8, mPerBlock = 128, nPerBlock = 128, kpack = 1, mPerWave = 64, nPerWave = 128, forceUnroll = true>, storeMethod = #rock<StoreMethod set>}> : (memref<1x49x336xf32>, memref<1x16464x28224xf32>, memref<1x336x28224xf32>) -> ()

Exception in gpu::mlir_op: /src/AMDMIGraphX/src/targets/gpu/mlir.cpp:731: run_backend_pipeline: MLIR backend compilation failed: Error: 'rock.gemm' op K dimensions don't match k_a = 49 k_b = 16464
Note: see current operation: "rock.gemm"(%4, %7, %8) <{aTransposed, arch = "gfx908:sramecc+:xnack-", derivedBlockSize = 256 : i32, features = #rock<GemmFeatures mfma|dot|atomic_add>, gridSize = 663 : i32, numCU = 120 : i32, params = #rock.xdlops_gemm_params<kpackPerBlock = 8, mPerBlock = 128, nPerBlock = 128, kpack = 1, mPerWave = 64, nPerWave = 64, forceUnroll = true>, storeMethod = #rock<StoreMethod set>}> : (memref<1x49x336xf32>, memref<1x16464x28224xf32>, memref<1x336x28224xf32>) -> ()

Exception in gpu::mlir_op: /src/AMDMIGraphX/src/targets/gpu/mlir.cpp:731: run_backend_pipeline: MLIR backend compilation failed: Error: 'rock.gemm' op K dimensions don't match k_a = 49 k_b = 16464
Note: see current operation: "rock.gemm"(%4, %7, %8) <{aTransposed, arch = "gfx908:sramecc+:xnack-", derivedBlockSize = 256 : i32, features = #rock<GemmFeatures mfma|dot|atomic_add>, gridSize = 663 : i32, numCU = 120 : i32, params = #rock.xdlops_gemm_params<kpackPerBlock = 2, mPerBlock = 128, nPerBlock = 128, kpack = 4, mPerWave = 64, nPerWave = 64, forceUnroll = true>, storeMethod = #rock<StoreMethod set>}> : (memref<1x49x336xf32>, memref<1x16464x28224xf32>, memref<1x336x28224xf32>) -> ()

Exception in gpu::mlir_op: /src/AMDMIGraphX/src/targets/gpu/mlir.cpp:731: run_backend_pipeline: MLIR backend compilation failed: Error: 'rock.gemm' op K dimensions don't match k_a = 49 k_b = 16464
Note: see current operation: "rock.gemm"(%4, %7, %8) <{aTransposed, arch = "gfx908:sramecc+:xnack-", derivedBlockSize = 256 : i32, features = #rock<GemmFeatures mfma|dot|atomic_add>, gridSize = 1326 : i32, numCU = 120 : i32, params = #rock.xdlops_gemm_params<kpackPerBlock = 2, mPerBlock = 64, nPerBlock = 128, kpack = 4, mPerWave = 32, nPerWave = 64, forceUnroll = true>, storeMethod = #rock<StoreMethod set>}> : (memref<1x49x336xf32>, memref<1x16464x28224xf32>, memref<1x336x28224xf32>) -> ()

Exception in gpu::mlir_op: /src/AMDMIGraphX/src/targets/gpu/mlir.cpp:731: run_backend_pipeline: MLIR backend compilation failed: Error: 'rock.gemm' op K dimensions don't match k_a = 49 k_b = 16464
Note: see current operation: "rock.gemm"(%4, %7, %8) <{aTransposed, arch = "gfx908:sramecc+:xnack-", derivedBlockSize = 256 : i32, features = #rock<GemmFeatures mfma|dot|atomic_add>, gridSize = 666 : i32, numCU = 120 : i32, params = #rock.xdlops_gemm_params<kpackPerBlock = 8, mPerBlock = 64, nPerBlock = 256, kpack = 1, mPerWave = 64, nPerWave = 64, forceUnroll = true>, storeMethod = #rock<StoreMethod set>}> : (memref<1x49x336xf32>, memref<1x16464x28224xf32>, memref<1x336x28224xf32>) -> ()

Exception in gpu::mlir_op: /src/AMDMIGraphX/src/targets/gpu/mlir.cpp:731: run_backend_pipeline: MLIR backend compilation failed: Error: 'rock.gemm' op K dimensions don't match k_a = 49 k_b = 16464
Note: see current operation: "rock.gemm"(%4, %7, %8) <{aTransposed, arch = "gfx908:sramecc+:xnack-", derivedBlockSize = 64 : i32, features = #rock<GemmFeatures mfma|dot|atomic_add>, gridSize = 4851 : i32, numCU = 120 : i32, params = #rock.xdlops_gemm_params<kpackPerBlock = 4, mPerBlock = 32, nPerBlock = 64, kpack = 4, mPerWave = 32, nPerWave = 64, forceUnroll = true>, storeMethod = #rock<StoreMethod set>}> : (memref<1x49x336xf32>, memref<1x16464x28224xf32>, memref<1x336x28224xf32>) -> ()

Exception in gpu::mlir_op: /src/AMDMIGraphX/src/targets/gpu/mlir.cpp:731: run_backend_pipeline: MLIR backend compilation failed: Error: 'rock.gemm' op K dimensions don't match k_a = 49 k_b = 16464
Note: see current operation: "rock.gemm"(%4, %7, %8) <{aTransposed, arch = "gfx908:sramecc+:xnack-", derivedBlockSize = 256 : i32, features = #rock<GemmFeatures mfma|dot|atomic_add>, gridSize = 4851 : i32, numCU = 120 : i32, params = #rock.xdlops_gemm_params<kpackPerBlock = 4, mPerBlock = 32, nPerBlock = 64, kpack = 4, mPerWave = 8, nPerWave = 64, forceUnroll = true>, storeMethod = #rock<StoreMethod set>}> : (memref<1x49x336xf32>, memref<1x16464x28224xf32>, memref<1x336x28224xf32>) -> ()

Exception in gpu::mlir_op: /src/AMDMIGraphX/src/targets/gpu/mlir.cpp:731: run_backend_pipeline: MLIR backend compilation failed: Error: 'rock.gemm' op K dimensions don't match k_a = 49 k_b = 16464
Note: see current operation: "rock.gemm"(%4, %7, %8) <{aTransposed, arch = "gfx908:sramecc+:xnack-", derivedBlockSize = 128 : i32, features = #rock<GemmFeatures mfma|dot|atomic_add>, gridSize = 4851 : i32, numCU = 120 : i32, params = #rock.xdlops_gemm_params<kpackPerBlock = 8, mPerBlock = 32, nPerBlock = 64, kpack = 4, mPerWave = 32, nPerWave = 32, forceUnroll = true>, storeMethod = #rock<StoreMethod set>}> : (memref<1x49x336xf32>, memref<1x16464x28224xf32>, memref<1x336x28224xf32>) -> ()

Exception in gpu::mlir_op: /src/AMDMIGraphX/src/targets/gpu/mlir.cpp:731: run_backend_pipeline: MLIR backend compilation failed: Error: 'rock.gemm' op K dimensions don't match k_a = 49 k_b = 16464
Note: see current operation: "rock.gemm"(%4, %7, %8) <{aTransposed, arch = "gfx908:sramecc+:xnack-", derivedBlockSize = 256 : i32, features = #rock<GemmFeatures mfma|dot|atomic_add>, gridSize = 4851 : i32, numCU = 120 : i32, params = #rock.xdlops_gemm_params<kpackPerBlock = 8, mPerBlock = 32, nPerBlock = 64, kpack = 4, mPerWave = 8, nPerWave = 64, forceUnroll = true>, storeMethod = #rock<StoreMethod set>}> : (memref<1x49x336xf32>, memref<1x16464x28224xf32>, memref<1x336x28224xf32>) -> ()

Exception in gpu::mlir_op: /src/AMDMIGraphX/src/targets/gpu/mlir.cpp:731: run_backend_pipeline: MLIR backend compilation failed: Error: 'rock.gemm' op K dimensions don't match k_a = 49 k_b = 16464
Note: see current operation: "rock.gemm"(%4, %7, %8) <{aTransposed, arch = "gfx908:sramecc+:xnack-", derivedBlockSize = 128 : i32, features = #rock<GemmFeatures mfma|dot|atomic_add>, gridSize = 4851 : i32, numCU = 120 : i32, params = #rock.xdlops_gemm_params<kpackPerBlock = 2, mPerBlock = 32, nPerBlock = 64, kpack = 8, mPerWave = 32, nPerWave = 32, forceUnroll = true>, storeMethod = #rock<StoreMethod set>}> : (memref<1x49x336xf32>, memref<1x16464x28224xf32>, memref<1x336x28224xf32>) -> ()

Exception in gpu::mlir_op: /src/AMDMIGraphX/src/targets/gpu/mlir.cpp:731: run_backend_pipeline: MLIR backend compilation failed: Error: 'rock.gemm' op K dimensions don't match k_a = 49 k_b = 16464
Note: see current operation: "rock.gemm"(%4, %7, %8) <{aTransposed, arch = "gfx908:sramecc+:xnack-", derivedBlockSize = 256 : i32, features = #rock<GemmFeatures mfma|dot|atomic_add>, gridSize = 9702 : i32, numCU = 120 : i32, params = #rock.xdlops_gemm_params<kpackPerBlock = 8, mPerBlock = 32, nPerBlock = 32, kpack = 8, mPerWave = 16, nPerWave = 16, forceUnroll = true>, storeMethod = #rock<StoreMethod set>}> : (memref<1x49x336xf32>, memref<1x16464x28224xf32>, memref<1x336x28224xf32>) -> ()

Exception in gpu::mlir_op: /src/AMDMIGraphX/src/targets/gpu/mlir.cpp:731: run_backend_pipeline: MLIR backend compilation failed: Error: 'rock.gemm' op K dimensions don't match k_a = 49 k_b = 16464
Note: see current operation: "rock.gemm"(%4, %7, %8) <{aTransposed, arch = "gfx908:sramecc+:xnack-", derivedBlockSize = 256 : i32, features = #rock<GemmFeatures mfma|dot|atomic_add>, gridSize = 9702 : i32, numCU = 120 : i32, params = #rock.xdlops_gemm_params<kpackPerBlock = 8, mPerBlock = 32, nPerBlock = 32, kpack = 4, mPerWave = 16, nPerWave = 16, forceUnroll = true>, storeMethod = #rock<StoreMethod set>}> : (memref<1x49x336xf32>, memref<1x16464x28224xf32>, memref<1x336x28224xf32>) -> ()

Exception in gpu::mlir_op: /src/AMDMIGraphX/src/targets/gpu/mlir.cpp:731: run_backend_pipeline: MLIR backend compilation failed: Error: 'rock.gemm' op K dimensions don't match k_a = 49 k_b = 16464
Note: see current operation: "rock.gemm"(%4, %7, %8) <{aTransposed, arch = "gfx908:sramecc+:xnack-", derivedBlockSize = 256 : i32, features = #rock<GemmFeatures mfma|dot|atomic_add>, gridSize = 9702 : i32, numCU = 120 : i32, params = #rock.xdlops_gemm_params<kpackPerBlock = 4, mPerBlock = 32, nPerBlock = 32, kpack = 8, mPerWave = 16, nPerWave = 16, forceUnroll = true>, storeMethod = #rock<StoreMethod set>}> : (memref<1x49x336xf32>, memref<1x16464x28224xf32>, memref<1x336x28224xf32>) -> ()

Exception in gpu::mlir_op: /src/AMDMIGraphX/src/targets/gpu/mlir.cpp:731: run_backend_pipeline: MLIR backend compilation failed: Error: 'rock.gemm' op K dimensions don't match k_a = 49 k_b = 16464
Note: see current operation: "rock.gemm"(%4, %7, %8) <{aTransposed, arch = "gfx908:sramecc+:xnack-", derivedBlockSize = 256 : i32, features = #rock<GemmFeatures mfma|dot|atomic_add>, gridSize = 2431 : i32, numCU = 120 : i32, params = #rock.xdlops_gemm_params<kpackPerBlock = 4, mPerBlock = 32, nPerBlock = 128, kpack = 4, mPerWave = 32, nPerWave = 32, forceUnroll = true>, storeMethod = #rock<StoreMethod set>}> : (memref<1x49x336xf32>, memref<1x16464x28224xf32>, memref<1x336x28224xf32>) -> ()

Exception in gpu::mlir_op: /src/AMDMIGraphX/src/targets/gpu/mlir.cpp:731: run_backend_pipeline: MLIR backend compilation failed: Error: 'rock.gemm' op K dimensions don't match k_a = 49 k_b = 16464
Note: see current operation: "rock.gemm"(%4, %7, %8) <{aTransposed, arch = "gfx908:sramecc+:xnack-", derivedBlockSize = 256 : i32, features = #rock<GemmFeatures mfma|dot|atomic_add>, gridSize = 2646 : i32, numCU = 120 : i32, params = #rock.xdlops_gemm_params<kpackPerBlock = 8, mPerBlock = 64, nPerBlock = 64, kpack = 4, mPerWave = 32, nPerWave = 32, forceUnroll = true>, storeMethod = #rock<StoreMethod set>}> : (memref<1x49x336xf32>, memref<1x16464x28224xf32>, memref<1x336x28224xf32>) -> ()

Exception in gpu::mlir_op: /src/AMDMIGraphX/src/targets/gpu/mlir.cpp:731: run_backend_pipeline: MLIR backend compilation failed: Error: 'rock.gemm' op K dimensions don't match k_a = 49 k_b = 16464
Note: see current operation: "rock.gemm"(%4, %7, %8) <{aTransposed, arch = "gfx908:sramecc+:xnack-", derivedBlockSize = 256 : i32, features = #rock<GemmFeatures mfma|dot|atomic_add>, gridSize = 2646 : i32, numCU = 120 : i32, params = #rock.xdlops_gemm_params<kpackPerBlock = 4, mPerBlock = 64, nPerBlock = 64, kpack = 8, mPerWave = 32, nPerWave = 32, forceUnroll = true>, storeMethod = #rock<StoreMethod set>}> : (memref<1x49x336xf32>, memref<1x16464x28224xf32>, memref<1x336x28224xf32>) -> ()

Exception in gpu::mlir_op: /src/AMDMIGraphX/src/targets/gpu/mlir.cpp:731: run_backend_pipeline: MLIR backend compilation failed: Error: 'rock.gemm' op K dimensions don't match k_a = 9 k_b = 6048
Note: see current operation: "rock.gemm"(%4, %7, %8) <{aTransposed, arch = "gfx908:sramecc+:xnack-", derivedBlockSize = 64 : i32, features = #rock<GemmFeatures mfma|dot|atomic_add>, gridSize = 2541 : i32, numCU = 120 : i32, params = #rock.xdlops_gemm_params<kpackPerBlock = 4, mPerBlock = 32, nPerBlock = 64, kpack = 4, mPerWave = 32, nPerWave = 64, forceUnroll = true>, storeMethod = #rock<StoreMethod set>}> : (memref<1x9x672xf32>, memref<1x6048x7744xf32>, memref<1x672x7744xf32>) -> ()

Exception in gpu::mlir_op: /src/AMDMIGraphX/src/targets/gpu/mlir.cpp:731: run_backend_pipeline: MLIR backend compilation failed: Error: 'rock.gemm' op K dimensions don't match k_a = 9 k_b = 6048
Note: see current operation: "rock.gemm"(%4, %7, %8) <{aTransposed, arch = "gfx908:sramecc+:xnack-", derivedBlockSize = 256 : i32, features = #rock<GemmFeatures mfma|dot|atomic_add>, gridSize = 2541 : i32, numCU = 120 : i32, params = #rock.xdlops_gemm_params<kpackPerBlock = 4, mPerBlock = 32, nPerBlock = 64, kpack = 4, mPerWave = 8, nPerWave = 64, forceUnroll = true>, storeMethod = #rock<StoreMethod set>}> : (memref<1x9x672xf32>, memref<1x6048x7744xf32>, memref<1x672x7744xf32>) -> ()

Exception in gpu::mlir_op: /src/AMDMIGraphX/src/targets/gpu/mlir.cpp:731: run_backend_pipeline: MLIR backend compilation failed: Error: 'rock.gemm' op K dimensions don't match k_a = 9 k_b = 6048
Note: see current operation: "rock.gemm"(%4, %7, %8) <{aTransposed, arch = "gfx908:sramecc+:xnack-", derivedBlockSize = 128 : i32, features = #rock<GemmFeatures mfma|dot|atomic_add>, gridSize = 2541 : i32, numCU = 120 : i32, params = #rock.xdlops_gemm_params<kpackPerBlock = 2, mPerBlock = 32, nPerBlock = 64, kpack = 8, mPerWave = 32, nPerWave = 32, forceUnroll = true>, storeMethod = #rock<StoreMethod set>}> : (memref<1x9x672xf32>, memref<1x6048x7744xf32>, memref<1x672x7744xf32>) -> ()

Exception in gpu::mlir_op: /src/AMDMIGraphX/src/targets/gpu/mlir.cpp:731: run_backend_pipeline: MLIR backend compilation failed: Error: 'rock.gemm' op K dimensions don't match k_a = 9 k_b = 6048
Note: see current operation: "rock.gemm"(%4, %7, %8) <{aTransposed, arch = "gfx908:sramecc+:xnack-", derivedBlockSize = 256 : i32, features = #rock<GemmFeatures mfma|dot|atomic_add>, gridSize = 2541 : i32, numCU = 120 : i32, params = #rock.xdlops_gemm_params<kpackPerBlock = 2, mPerBlock = 32, nPerBlock = 64, kpack = 4, mPerWave = 8, nPerWave = 64, forceUnroll = true>, storeMethod = #rock<StoreMethod set>}> : (memref<1x9x672xf32>, memref<1x6048x7744xf32>, memref<1x672x7744xf32>) -> ()

Exception in gpu::mlir_op: /src/AMDMIGraphX/src/targets/gpu/mlir.cpp:731: run_backend_pipeline: MLIR backend compilation failed: Error: 'rock.gemm' op K dimensions don't match k_a = 9 k_b = 6048
Note: see current operation: "rock.gemm"(%4, %7, %8) <{aTransposed, arch = "gfx908:sramecc+:xnack-", derivedBlockSize = 64 : i32, features = #rock<GemmFeatures mfma|dot|atomic_add>, gridSize = 20328 : i32, numCU = 120 : i32, params = #rock.xdlops_gemm_params<kpackPerBlock = 4, mPerBlock = 16, nPerBlock = 16, kpack = 4, mPerWave = 16, nPerWave = 16, forceUnroll = true>, storeMethod = #rock<StoreMethod set>}> : (memref<1x9x672xf32>, memref<1x6048x7744xf32>, memref<1x672x7744xf32>) -> ()

Exception in gpu::mlir_op: /src/AMDMIGraphX/src/targets/gpu/mlir.cpp:731: run_backend_pipeline: MLIR backend compilation failed: Error: 'rock.gemm' op K dimensions don't match k_a = 9 k_b = 6048
Note: see current operation: "rock.gemm"(%4, %7, %8) <{aTransposed, arch = "gfx908:sramecc+:xnack-", derivedBlockSize = 64 : i32, features = #rock<GemmFeatures mfma|dot|atomic_add>, gridSize = 20328 : i32, numCU = 120 : i32, params = #rock.xdlops_gemm_params<kpackPerBlock = 16, mPerBlock = 4, nPerBlock = 64, kpack = 1, mPerWave = 4, nPerWave = 64, forceUnroll = true>, storeMethod = #rock<StoreMethod set>}> : (memref<1x9x672xf32>, memref<1x6048x7744xf32>, memref<1x672x7744xf32>) -> ()

Exception in gpu::mlir_op: /src/AMDMIGraphX/src/targets/gpu/mlir.cpp:731: run_backend_pipeline: MLIR backend compilation failed: Error: 'rock.gemm' op K dimensions don't match k_a = 9 k_b = 6048
Note: see current operation: "rock.gemm"(%4, %7, %8) <{aTransposed, arch = "gfx908:sramecc+:xnack-", derivedBlockSize = 64 : i32, features = #rock<GemmFeatures mfma|dot|atomic_add>, gridSize = 20328 : i32, numCU = 120 : i32, params = #rock.xdlops_gemm_params<kpackPerBlock = 2, mPerBlock = 4, nPerBlock = 64, kpack = 8, mPerWave = 4, nPerWave = 64, forceUnroll = true>, storeMethod = #rock<StoreMethod set>}> : (memref<1x9x672xf32>, memref<1x6048x7744xf32>, memref<1x672x7744xf32>) -> ()

Exception in gpu::mlir_op: /src/AMDMIGraphX/src/targets/gpu/mlir.cpp:731: run_backend_pipeline: MLIR backend compilation failed: Error: 'rock.gemm' op K dimensions don't match k_a = 9 k_b = 6048
Note: see current operation: "rock.gemm"(%4, %7, %8) <{aTransposed, arch = "gfx908:sramecc+:xnack-", derivedBlockSize = 256 : i32, features = #rock<GemmFeatures mfma|dot|atomic_add>, gridSize = 1281 : i32, numCU = 120 : i32, params = #rock.xdlops_gemm_params<kpackPerBlock = 4, mPerBlock = 32, nPerBlock = 128, kpack = 4, mPerWave = 32, nPerWave = 32, forceUnroll = true>, storeMethod = #rock<StoreMethod set>}> : (memref<1x9x672xf32>, memref<1x6048x7744xf32>, memref<1x672x7744xf32>) -> ()

Exception in gpu::mlir_op: /src/AMDMIGraphX/src/targets/gpu/mlir.cpp:731: run_backend_pipeline: MLIR backend compilation failed: Error: 'rock.gemm' op K dimensions don't match k_a = 9 k_b = 6048
Note: see current operation: "rock.gemm"(%4, %7, %8) <{aTransposed, arch = "gfx908:sramecc+:xnack-", derivedBlockSize = 256 : i32, features = #rock<GemmFeatures mfma|dot|atomic_add>, gridSize = 1331 : i32, numCU = 120 : i32, params = #rock.xdlops_gemm_params<kpackPerBlock = 4, mPerBlock = 64, nPerBlock = 64, kpack = 4, mPerWave = 32, nPerWave = 32, forceUnroll = true>, storeMethod = #rock<StoreMethod set>}> : (memref<1x9x672xf32>, memref<1x6048x7744xf32>, memref<1x672x7744xf32>) -> ()

Exception in gpu::mlir_op: /src/AMDMIGraphX/src/targets/gpu/mlir.cpp:731: run_backend_pipeline: MLIR backend compilation failed: Error: 'rock.gemm' op K dimensions don't match k_a = 9 k_b = 6048
Note: see current operation: "rock.gemm"(%4, %7, %8) <{aTransposed, arch = "gfx908:sramecc+:xnack-", derivedBlockSize = 256 : i32, features = #rock<GemmFeatures mfma|dot|atomic_add>, gridSize = 1331 : i32, numCU = 120 : i32, params = #rock.xdlops_gemm_params<kpackPerBlock = 4, mPerBlock = 64, nPerBlock = 64, kpack = 4, mPerWave = 16, nPerWave = 64, forceUnroll = true>, storeMethod = #rock<StoreMethod set>}> : (memref<1x9x672xf32>, memref<1x6048x7744xf32>, memref<1x672x7744xf32>) -> ()

Exception in gpu::mlir_op: /src/AMDMIGraphX/src/targets/gpu/mlir.cpp:731: run_backend_pipeline: MLIR backend compilation failed: Error: 'rock.gemm' op K dimensions don't match k_a = 9 k_b = 6048
Note: see current operation: "rock.gemm"(%4, %7, %8) <{aTransposed, arch = "gfx908:sramecc+:xnack-", derivedBlockSize = 256 : i32, features = #rock<GemmFeatures mfma|dot|atomic_add>, gridSize = 1331 : i32, numCU = 120 : i32, params = #rock.xdlops_gemm_params<kpackPerBlock = 2, mPerBlock = 64, nPerBlock = 64, kpack = 8, mPerWave = 32, nPerWave = 32, forceUnroll = true>, storeMethod = #rock<StoreMethod set>}> : (memref<1x9x672xf32>, memref<1x6048x7744xf32>, memref<1x672x7744xf32>) -> ()

Exception in gpu::mlir_op: /src/AMDMIGraphX/src/targets/gpu/mlir.cpp:731: run_backend_pipeline: MLIR backend compilation failed: Error: 'rock.gemm' op K dimensions don't match k_a = 9 k_b = 6048
Note: see current operation: "rock.gemm"(%4, %7, %8) <{aTransposed, arch = "gfx908:sramecc+:xnack-", derivedBlockSize = 256 : i32, features = #rock<GemmFeatures mfma|dot|atomic_add>, gridSize = 671 : i32, numCU = 120 : i32, params = #rock.xdlops_gemm_params<kpackPerBlock = 4, mPerBlock = 64, nPerBlock = 128, kpack = 4, mPerWave = 32, nPerWave = 64, forceUnroll = true>, storeMethod = #rock<StoreMethod set>}> : (memref<1x9x672xf32>, memref<1x6048x7744xf32>, memref<1x672x7744xf32>) -> ()

Exception in gpu::mlir_op: /src/AMDMIGraphX/src/targets/gpu/mlir.cpp:731: run_backend_pipeline: MLIR backend compilation failed: Error: 'rock.gemm' op K dimensions don't match k_a = 9 k_b = 6048
Note: see current operation: "rock.gemm"(%4, %7, %8) <{aTransposed, arch = "gfx908:sramecc+:xnack-", derivedBlockSize = 256 : i32, features = #rock<GemmFeatures mfma|dot|atomic_add>, gridSize = 671 : i32, numCU = 120 : i32, params = #rock.xdlops_gemm_params<kpackPerBlock = 2, mPerBlock = 64, nPerBlock = 128, kpack = 8, mPerWave = 32, nPerWave = 64, forceUnroll = true>, storeMethod = #rock<StoreMethod set>}> : (memref<1x9x672xf32>, memref<1x6048x7744xf32>, memref<1x672x7744xf32>) -> ()

Exception in gpu::mlir_op: /src/AMDMIGraphX/src/targets/gpu/mlir.cpp:731: run_backend_pipeline: MLIR backend compilation failed: Error: 'rock.gemm' op K dimensions don't match k_a = 9 k_b = 6048
Note: see current operation: "rock.gemm"(%4, %7, %8) <{aTransposed, arch = "gfx908:sramecc+:xnack-", derivedBlockSize = 256 : i32, features = #rock<GemmFeatures mfma|dot|atomic_add>, gridSize = 671 : i32, numCU = 120 : i32, params = #rock.xdlops_gemm_params<kpackPerBlock = 2, mPerBlock = 64, nPerBlock = 128, kpack = 4, mPerWave = 32, nPerWave = 64, forceUnroll = true>, storeMethod = #rock<StoreMethod set>}> : (memref<1x9x672xf32>, memref<1x6048x7744xf32>, memref<1x672x7744xf32>) -> ()

Exception in gpu::mlir_op: /src/AMDMIGraphX/src/targets/gpu/mlir.cpp:731: run_backend_pipeline: MLIR backend compilation failed: Error: 'rock.gemm' op K dimensions don't match k_a = 9 k_b = 6048
Note: see current operation: "rock.gemm"(%4, %7, %8) <{aTransposed, arch = "gfx908:sramecc+:xnack-", derivedBlockSize = 256 : i32, features = #rock<GemmFeatures mfma|dot|atomic_add>, gridSize = 341 : i32, numCU = 120 : i32, params = #rock.xdlops_gemm_params<kpackPerBlock = 8, mPerBlock = 64, nPerBlock = 256, kpack = 1, mPerWave = 64, nPerWave = 64, forceUnroll = true>, storeMethod = #rock<StoreMethod set>}> : (memref<1x9x672xf32>, memref<1x6048x7744xf32>, memref<1x672x7744xf32>) -> ()

Exception in gpu::mlir_op: /src/AMDMIGraphX/src/targets/gpu/mlir.cpp:731: run_backend_pipeline: MLIR backend compilation failed: Error: 'rock.gemm' op K dimensions don't match k_a = 9 k_b = 6048
Note: see current operation: "rock.gemm"(%4, %7, %8) <{aTransposed, arch = "gfx908:sramecc+:xnack-", derivedBlockSize = 256 : i32, features = #rock<GemmFeatures mfma|dot|atomic_add>, gridSize = 341 : i32, numCU = 120 : i32, params = #rock.xdlops_gemm_params<kpackPerBlock = 4, mPerBlock = 64, nPerBlock = 256, kpack = 4, mPerWave = 64, nPerWave = 64, forceUnroll = true>, storeMethod = #rock<StoreMethod set>}> : (memref<1x9x672xf32>, memref<1x6048x7744xf32>, memref<1x672x7744xf32>) -> ()

Exception in gpu::mlir_op: /src/AMDMIGraphX/src/targets/gpu/mlir.cpp:731: run_backend_pipeline: MLIR backend compilation failed: Error: 'rock.gemm' op K dimensions don't match k_a = 9 k_b = 6048
Note: see current operation: "rock.gemm"(%4, %7, %8) <{aTransposed, arch = "gfx908:sramecc+:xnack-", derivedBlockSize = 128 : i32, features = #rock<GemmFeatures mfma|dot|atomic_add>, gridSize = 366 : i32, numCU = 120 : i32, params = #rock.xdlops_gemm_params<kpackPerBlock = 8, mPerBlock = 128, nPerBlock = 128, kpack = 1, mPerWave = 64, nPerWave = 128, forceUnroll = true>, storeMethod = #rock<StoreMethod set>}> : (memref<1x9x672xf32>, memref<1x6048x7744xf32>, memref<1x672x7744xf32>) -> ()

Exception in gpu::mlir_op: /src/AMDMIGraphX/src/targets/gpu/mlir.cpp:731: run_backend_pipeline: MLIR backend compilation failed: Error: 'rock.gemm' op K dimensions don't match k_a = 9 k_b = 6048
Note: see current operation: "rock.gemm"(%4, %7, %8) <{aTransposed, arch = "gfx908:sramecc+:xnack-", derivedBlockSize = 256 : i32, features = #rock<GemmFeatures mfma|dot|atomic_add>, gridSize = 366 : i32, numCU = 120 : i32, params = #rock.xdlops_gemm_params<kpackPerBlock = 8, mPerBlock = 128, nPerBlock = 128, kpack = 1, mPerWave = 64, nPerWave = 64, forceUnroll = true>, storeMethod = #rock<StoreMethod set>}> : (memref<1x9x672xf32>, memref<1x6048x7744xf32>, memref<1x672x7744xf32>) -> ()

Exception in gpu::mlir_op: /src/AMDMIGraphX/src/targets/gpu/mlir.cpp:731: run_backend_pipeline: MLIR backend compilation failed: Error: 'rock.gemm' op K dimensions don't match k_a = 49 k_b = 4116
Note: see current operation: "rock.gemm"(%4, %7, %8) <{aTransposed, arch = "gfx908:sramecc+:xnack-", derivedBlockSize = 256 : i32, features = #rock<GemmFeatures mfma|dot|atomic_add>, gridSize = 5292 : i32, numCU = 120 : i32, params = #rock.xdlops_gemm_params<kpackPerBlock = 2, mPerBlock = 32, nPerBlock = 64, kpack = 4, mPerWave = 8, nPerWave = 64, forceUnroll = true>, storeMethod = #rock<StoreMethod set>}> : (memref<1x49x84xf32>, memref<1x4116x112896xf32>, memref<1x84x112896xf32>) -> ()

Exception in gpu::mlir_op: /src/AMDMIGraphX/src/targets/gpu/mlir.cpp:731: run_backend_pipeline: MLIR backend compilation failed: Error: 'rock.gemm' op K dimensions don't match k_a = 49 k_b = 4116
Note: see current operation: "rock.gemm"(%4, %7, %8) <{aTransposed, arch = "gfx908:sramecc+:xnack-", derivedBlockSize = 64 : i32, features = #rock<GemmFeatures mfma|dot|atomic_add>, gridSize = 37044 : i32, numCU = 120 : i32, params = #rock.xdlops_gemm_params<kpackPerBlock = 16, mPerBlock = 4, nPerBlock = 64, kpack = 1, mPerWave = 4, nPerWave = 64, forceUnroll = true>, storeMethod = #rock<StoreMethod set>}> : (memref<1x49x84xf32>, memref<1x4116x112896xf32>, memref<1x84x112896xf32>) -> ()

Exception in gpu::mlir_op: /src/AMDMIGraphX/src/targets/gpu/mlir.cpp:731: run_backend_pipeline: MLIR backend compilation failed: Error: 'rock.gemm' op K dimensions don't match k_a = 49 k_b = 4116
Note: see current operation: "rock.gemm"(%4, %7, %8) <{aTransposed, arch = "gfx908:sramecc+:xnack-", derivedBlockSize = 64 : i32, features = #rock<GemmFeatures mfma|dot|atomic_add>, gridSize = 37044 : i32, numCU = 120 : i32, params = #rock.xdlops_gemm_params<kpackPerBlock = 2, mPerBlock = 4, nPerBlock = 64, kpack = 8, mPerWave = 4, nPerWave = 64, forceUnroll = true>, storeMethod = #rock<StoreMethod set>}> : (memref<1x49x84xf32>, memref<1x4116x112896xf32>, memref<1x84x112896xf32>) -> ()

Exception in gpu::mlir_op: /src/AMDMIGraphX/src/targets/gpu/mlir.cpp:731: run_backend_pipeline: MLIR backend compilation failed: Error: 'rock.gemm' op K dimensions don't match k_a = 49 k_b = 4116
Note: see current operation: "rock.gemm"(%4, %7, %8) <{aTransposed, arch = "gfx908:sramecc+:xnack-", derivedBlockSize = 128 : i32, features = #rock<GemmFeatures mfma|dot|atomic_add>, gridSize = 19404 : i32, numCU = 120 : i32, params = #rock.xdlops_gemm_params<kpackPerBlock = 8, mPerBlock = 8, nPerBlock = 64, kpack = 8, mPerWave = 4, nPerWave = 64, forceUnroll = true>, storeMethod = #rock<StoreMethod set>}> : (memref<1x49x84xf32>, memref<1x4116x112896xf32>, memref<1x84x112896xf32>) -> ()

Exception in gpu::mlir_op: /src/AMDMIGraphX/src/targets/gpu/mlir.cpp:731: run_backend_pipeline: MLIR backend compilation failed: Error: 'rock.gemm' op K dimensions don't match k_a = 49 k_b = 4116
Note: see current operation: "rock.gemm"(%4, %7, %8) <{aTransposed, arch = "gfx908:sramecc+:xnack-", derivedBlockSize = 256 : i32, features = #rock<GemmFeatures mfma|dot|atomic_add>, gridSize = 2646 : i32, numCU = 120 : i32, params = #rock.xdlops_gemm_params<kpackPerBlock = 4, mPerBlock = 32, nPerBlock = 128, kpack = 4, mPerWave = 32, nPerWave = 32, forceUnroll = true>, storeMethod = #rock<StoreMethod set>}> : (memref<1x49x84xf32>, memref<1x4116x112896xf32>, memref<1x84x112896xf32>) -> ()

Exception in gpu::mlir_op: /src/AMDMIGraphX/src/targets/gpu/mlir.cpp:731: run_backend_pipeline: MLIR backend compilation failed: Error: 'rock.gemm' op K dimensions don't match k_a = 49 k_b = 4116
Note: see current operation: "rock.gemm"(%4, %7, %8) <{aTransposed, arch = "gfx908:sramecc+:xnack-", derivedBlockSize = 64 : i32, features = #rock<GemmFeatures mfma|dot|atomic_add>, gridSize = 5292 : i32, numCU = 120 : i32, params = #rock.xdlops_gemm_params<kpackPerBlock = 4, mPerBlock = 32, nPerBlock = 64, kpack = 4, mPerWave = 32, nPerWave = 64, forceUnroll = true>, storeMethod = #rock<StoreMethod set>}> : (memref<1x49x84xf32>, memref<1x4116x112896xf32>, memref<1x84x112896xf32>) -> ()

Exception in gpu::mlir_op: /src/AMDMIGraphX/src/targets/gpu/mlir.cpp:731: run_backend_pipeline: MLIR backend compilation failed: Error: 'rock.gemm' op K dimensions don't match k_a = 49 k_b = 32928
Note: see current operation: "rock.gemm"(%4, %7, %8) <{aTransposed, arch = "gfx908:sramecc+:xnack-", derivedBlockSize = 256 : i32, features = #rock<GemmFeatures mfma|dot|atomic_add>, gridSize = 2541 : i32, numCU = 120 : i32, params = #rock.xdlops_gemm_params<kpackPerBlock = 2, mPerBlock = 32, nPerBlock = 64, kpack = 4, mPerWave = 8, nPerWave = 64, forceUnroll = true>, storeMethod = #rock<StoreMethod set>}> : (memref<1x49x672xf32>, memref<1x32928x7744xf32>, memref<1x672x7744xf32>) -> ()

terminate called after throwing an instance of 'migraphx::version_2_9_0::exception'
  what():  /src/AMDMIGraphX/src/targets/gpu/compile_ops.cpp:218: benchmark: No valid tuned compilation.
timeout: the monitored command dumped core
