Exception in gpu::mlir_op: /src/AMDMIGraphX/src/targets/gpu/mlir.cpp:731: run_backend_pipeline: MLIR backend compilation failed: Error: 'rock.gemm' op K dimensions don't match k_a = 9 k_b = 9216
Note: see current operation: "rock.gemm"(%8, %11, %12) <{aTransposed, arch = "gfx908:sramecc+:xnack-", derivedBlockSize = 256 : i32, features = #rock<GemmFeatures mfma|dot|atomic_add>, gridSize = 64 : i32, numCU = 120 : i32, params = #rock.xdlops_gemm_params<kpackPerBlock = 8, mPerBlock = 32, nPerBlock = 32, kpack = 4, mPerWave = 16, nPerWave = 16, forceUnroll = true>, storeMethod = #rock<StoreMethod set>}> : (memref<1x9x1024xf32>, memref<1x9216x49xf32>, memref<1x1024x49xf32>) -> ()
Exception in gpu::mlir_op: /src/AMDMIGraphX/src/targets/gpu/mlir.cpp:731: run_backend_pipeline: MLIR backend compilation failed: Error: 'rock.gemm' op K dimensions don't match k_a = 9 k_b = 288
Note: see current operation: "rock.gemm"(%8, %11, %12) <{aTransposed, arch = "gfx908:sramecc+:xnack-", derivedBlockSize = 256 : i32, features = #rock<GemmFeatures mfma|dot|atomic_add>, gridSize = 49 : i32, numCU = 120 : i32, params = #rock.xdlops_gemm_params<kpackPerBlock = 4, mPerBlock = 128, nPerBlock = 256, kpack = 4, mPerWave = 64, nPerWave = 128, forceUnroll = true>, storeMethod = #rock<StoreMethod set>}> : (memref<1x9x32xf32>, memref<1x288x12544xf32>, memref<1x32x12544xf32>) -> ()
Exception in gpu::mlir_op: /src/AMDMIGraphX/src/targets/gpu/mlir.cpp:731: run_backend_pipeline: MLIR backend compilation failed: Error: 'rock.gemm' op K dimensions don't match k_a = 9 k_b = 4608
Note: see current operation: "rock.gemm"(%8, %11, %12) <{aTransposed, arch = "gfx908:sramecc+:xnack-", derivedBlockSize = 256 : i32, features = #rock<GemmFeatures mfma|dot|atomic_add>, gridSize = 64 : i32, numCU = 120 : i32, params = #rock.xdlops_gemm_params<kpackPerBlock = 4, mPerBlock = 32, nPerBlock = 64, kpack = 4, mPerWave = 8, nPerWave = 64, forceUnroll = true>, storeMethod = #rock<StoreMethod set>}> : (memref<1x9x512xf32>, memref<1x4608x196xf32>, memref<1x512x196xf32>) -> ()

Exception in gpu::mlir_op: /src/AMDMIGraphX/src/targets/gpu/mlir.cpp:731: run_backend_pipeline: MLIR backend compilation failed: Error: 'rock.gemm' op K dimensions don't match k_a = 9 k_b = 2304
Note: see current operation: "rock.gemm"(%8, %11, %12) <{aTransposed, arch = "gfx908:sramecc+:xnack-", derivedBlockSize = 128 : i32, features = #rock<GemmFeatures mfma|dot|atomic_add>, gridSize = 14 : i32, numCU = 120 : i32, params = #rock.xdlops_gemm_params<kpackPerBlock = 4, mPerBlock = 128, nPerBlock = 128, kpack = 4, mPerWave = 64, nPerWave = 128, forceUnroll = true>, storeMethod = #rock<StoreMethod set>}> : (memref<1x9x256xf32>, memref<1x2304x784xf32>, memref<1x256x784xf32>) -> ()

Exception in gpu::mlir_op: /src/AMDMIGraphX/src/targets/gpu/mlir.cpp:731: run_backend_pipeline: MLIR backend compilation failed: Error: 'rock.gemm' op K dimensions don't match k_a = 9 k_b = 576
Note: see current operation: "rock.gemm"(%8, %11, %12) <{aTransposed, arch = "gfx908:sramecc+:xnack-", derivedBlockSize = 128 : i32, features = #rock<GemmFeatures mfma|dot|atomic_add>, gridSize = 392 : i32, numCU = 120 : i32, params = #rock.xdlops_gemm_params<kpackPerBlock = 8, mPerBlock = 8, nPerBlock = 64, kpack = 8, mPerWave = 4, nPerWave = 64, forceUnroll = true>, storeMethod = #rock<StoreMethod set>}> : (memref<1x9x64xf32>, memref<1x576x3136xf32>, memref<1x64x3136xf32>) -> ()

Exception in gpu::mlir_op: /src/AMDMIGraphX/src/targets/gpu/mlir.cpp:731: run_backend_pipeline: MLIR backend compilation failed: Error: 'rock.gemm' op K dimensions don't match k_a = 9 k_b = 9216
Note: see current operation: "rock.gemm"(%8, %11, %12) <{aTransposed, arch = "gfx908:sramecc+:xnack-", derivedBlockSize = 256 : i32, features = #rock<GemmFeatures mfma|dot|atomic_add>, gridSize = 16 : i32, numCU = 120 : i32, params = #rock.xdlops_gemm_params<kpackPerBlock = 2, mPerBlock = 64, nPerBlock = 64, kpack = 8, mPerWave = 32, nPerWave = 32, forceUnroll = true>, storeMethod = #rock<StoreMethod set>}> : (memref<1x9x1024xf32>, memref<1x9216x49xf32>, memref<1x1024x49xf32>) -> ()

Exception in gpu::mlir_op: /src/AMDMIGraphX/src/targets/gpu/mlir.cpp:731: run_backend_pipeline: MLIR backend compilation failed: Error: 'rock.gemm' op K dimensions don't match k_a = 9 k_b = 576
Note: see current operation: "rock.gemm"(%8, %11, %12) <{aTransposed, arch = "gfx908:sramecc+:xnack-", derivedBlockSize = 256 : i32, features = #rock<GemmFeatures mfma|dot|atomic_add>, gridSize = 50 : i32, numCU = 120 : i32, params = #rock.xdlops_gemm_params<kpackPerBlock = 4, mPerBlock = 32, nPerBlock = 128, kpack = 4, mPerWave = 32, nPerWave = 32, forceUnroll = true>, storeMethod = #rock<StoreMethod set>}> : (memref<1x9x64xf32>, memref<1x576x3136xf32>, memref<1x64x3136xf32>) -> ()


Exception in gpu::mlir_op: /src/AMDMIGraphX/src/targets/gpu/mlir.cpp:731: run_backend_pipeline: MLIR backend compilation failed: Error: 'rock.gemm' op K dimensions don't match k_a = 9 k_b = 4608
Note: see current operation: "rock.gemm"(%8, %11, %12) <{aTransposed, arch = "gfx908:sramecc+:xnack-", derivedBlockSize = 128 : i32, features = #rock<GemmFeatures mfma|dot|atomic_add>, gridSize = 4 : i32, numCU = 120 : i32, params = #rock.xdlops_gemm_params<kpackPerBlock = 8, mPerBlock = 128, nPerBlock = 128, kpack = 1, mPerWave = 64, nPerWave = 128, forceUnroll = true>, storeMethod = #rock<StoreMethod set>}> : (memref<1x9x512xf32>, memref<1x4608x49xf32>, memref<1x512x49xf32>) -> ()

Exception in gpu::mlir_op: /src/AMDMIGraphX/src/targets/gpu/mlir.cpp:731: run_backend_pipeline: MLIR backend compilation failed: Error: 'rock.gemm' op K dimensions don't match k_a = 9 k_b = 4608
Note: see current operation: "rock.gemm"(%8, %11, %12) <{aTransposed, arch = "gfx908:sramecc+:xnack-", derivedBlockSize = 256 : i32, features = #rock<GemmFeatures mfma|dot|atomic_add>, gridSize = 8 : i32, numCU = 120 : i32, params = #rock.xdlops_gemm_params<kpackPerBlock = 4, mPerBlock = 64, nPerBlock = 256, kpack = 4, mPerWave = 64, nPerWave = 64, forceUnroll = true>, storeMethod = #rock<StoreMethod set>}> : (memref<1x9x512xf32>, memref<1x4608x49xf32>, memref<1x512x49xf32>) -> ()

Exception in gpu::mlir_op: /src/AMDMIGraphX/src/targets/gpu/mlir.cpp:731: run_backend_pipeline: MLIR backend compilation failed: Error: 'rock.gemm' op K dimensions don't match k_a = 9 k_b = 2304
Note: see current operation: "rock.gemm"(%8, %11, %12) <{aTransposed, arch = "gfx908:sramecc+:xnack-", derivedBlockSize = 256 : i32, features = #rock<GemmFeatures mfma|dot|atomic_add>, gridSize = 4 : i32, numCU = 120 : i32, params = #rock.xdlops_gemm_params<kpackPerBlock = 8, mPerBlock = 128, nPerBlock = 128, kpack = 4, mPerWave = 64, nPerWave = 64, forceUnroll = true>, storeMethod = #rock<StoreMethod set>}> : (memref<1x9x256xf32>, memref<1x2304x196xf32>, memref<1x256x196xf32>) -> ()

Exception in gpu::mlir_op: /src/AMDMIGraphX/src/targets/gpu/mlir.cpp:731: run_backend_pipeline: MLIR backend compilation failed: Error: 'rock.gemm' op K dimensions don't match k_a = 9 k_b = 1152
Note: see current operation: "rock.gemm"(%8, %11, %12) <{aTransposed, arch = "gfx908:sramecc+:xnack-", derivedBlockSize = 256 : i32, features = #rock<GemmFeatures mfma|dot|atomic_add>, gridSize = 28 : i32, numCU = 120 : i32, params = #rock.xdlops_gemm_params<kpackPerBlock = 4, mPerBlock = 32, nPerBlock = 128, kpack = 4, mPerWave = 32, nPerWave = 32, forceUnroll = true>, storeMethod = #rock<StoreMethod set>}> : (memref<1x9x128xf32>, memref<1x1152x784xf32>, memref<1x128x784xf32>) -> ()

Exception in gpu::mlir_op: /src/AMDMIGraphX/src/targets/gpu/mlir.cpp:731: run_backend_pipeline: MLIR backend compilation failed: Error: 'rock.gemm' op K dimensions don't match k_a = 9 k_b = 2304
Note: see current operation: "rock.gemm"(%8, %11, %12) <{aTransposed, arch = "gfx908:sramecc+:xnack-", derivedBlockSize = 256 : i32, features = #rock<GemmFeatures mfma|dot|atomic_add>, gridSize = 200 : i32, numCU = 120 : i32, params = #rock.xdlops_gemm_params<kpackPerBlock = 8, mPerBlock = 32, nPerBlock = 32, kpack = 8, mPerWave = 16, nPerWave = 16, forceUnroll = true>, storeMethod = #rock<StoreMethod set>}> : (memref<1x9x256xf32>, memref<1x2304x784xf32>, memref<1x256x784xf32>) -> ()

Exception in gpu::mlir_op: /src/AMDMIGraphX/src/targets/gpu/mlir.cpp:731: run_backend_pipeline: MLIR backend compilation failed: Error: 'rock.gemm' op K dimensions don't match k_a = 9 k_b = 1152
Note: see current operation: "rock.gemm"(%8, %11, %12) <{aTransposed, arch = "gfx908:sramecc+:xnack-", derivedBlockSize = 256 : i32, features = #rock<GemmFeatures mfma|dot|atomic_add>, gridSize = 392 : i32, numCU = 120 : i32, params = #rock.xdlops_gemm_params<kpackPerBlock = 8, mPerBlock = 32, nPerBlock = 32, kpack = 4, mPerWave = 16, nPerWave = 16, forceUnroll = true>, storeMethod = #rock<StoreMethod set>}> : (memref<1x9x128xf32>, memref<1x1152x3136xf32>, memref<1x128x3136xf32>) -> ()


Exception in gpu::mlir_op: /src/AMDMIGraphX/src/targets/gpu/mlir.cpp:731: run_backend_pipeline: MLIR backend compilation failed: Error: 'rock.gemm' op K dimensions don't match k_a = 9 k_b = 1152
Note: see current operation: "rock.gemm"(%8, %11, %12) <{aTransposed, arch = "gfx908:sramecc+:xnack-", derivedBlockSize = 128 : i32, features = #rock<GemmFeatures mfma|dot|atomic_add>, gridSize = 196 : i32, numCU = 120 : i32, params = #rock.xdlops_gemm_params<kpackPerBlock = 2, mPerBlock = 32, nPerBlock = 64, kpack = 8, mPerWave = 32, nPerWave = 32, forceUnroll = true>, storeMethod = #rock<StoreMethod set>}> : (memref<1x9x128xf32>, memref<1x1152x3136xf32>, memref<1x128x3136xf32>) -> ()

Exception in gpu::mlir_op: /src/AMDMIGraphX/src/targets/gpu/mlir.cpp:731: run_backend_pipeline: MLIR backend compilation failed: Error: 'rock.gemm' op K dimensions don't match k_a = 9 k_b = 2304
Note: see current operation: "rock.gemm"(%8, %11, %12) <{aTransposed, arch = "gfx908:sramecc+:xnack-", derivedBlockSize = 256 : i32, features = #rock<GemmFeatures mfma|dot|atomic_add>, gridSize = 4 : i32, numCU = 120 : i32, params = #rock.xdlops_gemm_params<kpackPerBlock = 8, mPerBlock = 128, nPerBlock = 128, kpack = 1, mPerWave = 64, nPerWave = 64, forceUnroll = true>, storeMethod = #rock<StoreMethod set>}> : (memref<1x9x256xf32>, memref<1x2304x196xf32>, memref<1x256x196xf32>) -> ()

Exception in gpu::mlir_op: /src/AMDMIGraphX/src/targets/gpu/mlir.cpp:731: run_backend_pipeline: MLIR backend compilation failed: Error: 'rock.gemm' op K dimensions don't match k_a = 9 k_b = 288
Note: see current operation: "rock.gemm"(%8, %11, %12) <{aTransposed, arch = "gfx908:sramecc+:xnack-", derivedBlockSize = 128 : i32, features = #rock<GemmFeatures mfma|dot|atomic_add>, gridSize = 98 : i32, numCU = 120 : i32, params = #rock.xdlops_gemm_params<kpackPerBlock = 8, mPerBlock = 128, nPerBlock = 128, kpack = 1, mPerWave = 64, nPerWave = 128, forceUnroll = true>, storeMethod = #rock<StoreMethod set>}> : (memref<1x9x32xf32>, memref<1x288x12544xf32>, memref<1x32x12544xf32>) -> ()

Exception in gpu::mlir_op: /src/AMDMIGraphX/src/targets/gpu/mlir.cpp:731: run_backend_pipeline: MLIR backend compilation failed: Error: 'rock.gemm' op K dimensions don't match k_a = 9 k_b = 576
Note: see current operation: "rock.gemm"(%8, %11, %12) <{aTransposed, arch = "gfx908:sramecc+:xnack-", derivedBlockSize = 256 : i32, features = #rock<GemmFeatures mfma|dot|atomic_add>, gridSize = 25 : i32, numCU = 120 : i32, params = #rock.xdlops_gemm_params<kpackPerBlock = 8, mPerBlock = 128, nPerBlock = 128, kpack = 4, mPerWave = 64, nPerWave = 64, forceUnroll = true>, storeMethod = #rock<StoreMethod set>}> : (memref<1x9x64xf32>, memref<1x576x3136xf32>, memref<1x64x3136xf32>) -> ()

Exception in gpu::mlir_op: /src/AMDMIGraphX/src/targets/gpu/mlir.cpp:731: run_backend_pipeline: MLIR backend compilation failed: Error: 'rock.gemm' op K dimensions don't match k_a = 9 k_b = 1152
Note: see current operation: "rock.gemm"(%8, %11, %12) <{aTransposed, arch = "gfx908:sramecc+:xnack-", derivedBlockSize = 256 : i32, features = #rock<GemmFeatures mfma|dot|atomic_add>, gridSize = 392 : i32, numCU = 120 : i32, params = #rock.xdlops_gemm_params<kpackPerBlock = 4, mPerBlock = 32, nPerBlock = 32, kpack = 8, mPerWave = 16, nPerWave = 16, forceUnroll = true>, storeMethod = #rock<StoreMethod set>}> : (memref<1x9x128xf32>, memref<1x1152x3136xf32>, memref<1x128x3136xf32>) -> ()

Exception in gpu::mlir_op: /src/AMDMIGraphX/src/targets/gpu/mlir.cpp:731: run_backend_pipeline: MLIR backend compilation failed: Error: 'rock.gemm' op K dimensions don't match k_a = 9 k_b = 9216
Note: see current operation: "rock.gemm"(%8, %11, %12) <{aTransposed, arch = "gfx908:sramecc+:xnack-", derivedBlockSize = 256 : i32, features = #rock<GemmFeatures mfma|dot|atomic_add>, gridSize = 64 : i32, numCU = 120 : i32, params = #rock.xdlops_gemm_params<kpackPerBlock = 4, mPerBlock = 32, nPerBlock = 32, kpack = 8, mPerWave = 16, nPerWave = 16, forceUnroll = true>, storeMethod = #rock<StoreMethod set>}> : (memref<1x9x1024xf32>, memref<1x9216x49xf32>, memref<1x1024x49xf32>) -> ()

Exception in gpu::mlir_op: /src/AMDMIGraphX/src/targets/gpu/mlir.cpp:731: run_backend_pipeline: MLIR backend compilation failed: Error: 'rock.gemm' op K dimensions don't match k_a = 9 k_b = 2304
Note: see current operation: "rock.gemm"(%8, %11, %12) <{aTransposed, arch = "gfx908:sramecc+:xnack-", derivedBlockSize = 128 : i32, features = #rock<GemmFeatures mfma|dot|atomic_add>, gridSize = 4 : i32, numCU = 120 : i32, params = #rock.xdlops_gemm_params<kpackPerBlock = 4, mPerBlock = 128, nPerBlock = 128, kpack = 4, mPerWave = 64, nPerWave = 128, forceUnroll = true>, storeMethod = #rock<StoreMethod set>}> : (memref<1x9x256xf32>, memref<1x2304x196xf32>, memref<1x256x196xf32>) -> ()

Exception in gpu::mlir_op: /src/AMDMIGraphX/src/targets/gpu/mlir.cpp:731: run_backend_pipeline: MLIR backend compilation failed: Error: 'rock.gemm' op K dimensions don't match k_a = 9 k_b = 1152
Note: see current operation: "rock.gemm"(%8, %11, %12) <{aTransposed, arch = "gfx908:sramecc+:xnack-", derivedBlockSize = 256 : i32, features = #rock<GemmFeatures mfma|dot|atomic_add>, gridSize = 196 : i32, numCU = 120 : i32, params = #rock.xdlops_gemm_params<kpackPerBlock = 2, mPerBlock = 32, nPerBlock = 64, kpack = 4, mPerWave = 8, nPerWave = 64, forceUnroll = true>, storeMethod = #rock<StoreMethod set>}> : (memref<1x9x128xf32>, memref<1x1152x3136xf32>, memref<1x128x3136xf32>) -> ()

Exception in gpu::mlir_op: /src/AMDMIGraphX/src/targets/gpu/mlir.cpp:731: run_backend_pipeline: MLIR backend compilation failed: Error: 'rock.gemm' op K dimensions don't match k_a = 9 k_b = 4608
Note: see current operation: "rock.gemm"(%8, %11, %12) <{aTransposed, arch = "gfx908:sramecc+:xnack-", derivedBlockSize = 128 : i32, features = #rock<GemmFeatures mfma|dot|atomic_add>, gridSize = 64 : i32, numCU = 120 : i32, params = #rock.xdlops_gemm_params<kpackPerBlock = 2, mPerBlock = 32, nPerBlock = 64, kpack = 8, mPerWave = 32, nPerWave = 32, forceUnroll = true>, storeMethod = #rock<StoreMethod set>}> : (memref<1x9x512xf32>, memref<1x4608x196xf32>, memref<1x512x196xf32>) -> ()

Exception in gpu::mlir_op: /src/AMDMIGraphX/src/targets/gpu/mlir.cpp:731: run_backend_pipeline: MLIR backend compilation failed: Error: 'rock.gemm' op K dimensions don't match k_a = 9 k_b = 9216
Note: see current operation: "rock.gemm"(%8, %11, %12) <{aTransposed, arch = "gfx908:sramecc+:xnack-", derivedBlockSize = 64 : i32, features = #rock<GemmFeatures mfma|dot|atomic_add>, gridSize = 32 : i32, numCU = 120 : i32, params = #rock.xdlops_gemm_params<kpackPerBlock = 4, mPerBlock = 32, nPerBlock = 64, kpack = 4, mPerWave = 32, nPerWave = 64, forceUnroll = true>, storeMethod = #rock<StoreMethod set>}> : (memref<1x9x1024xf32>, memref<1x9216x49xf32>, memref<1x1024x49xf32>) -> ()

Exception in gpu::mlir_op: /src/AMDMIGraphX/src/targets/gpu/mlir.cpp:731: run_backend_pipeline: MLIR backend compilation failed: Error: 'rock.gemm' op K dimensions don't match k_a = 9 k_b = 4608
Note: see current operation: "rock.gemm"(%8, %11, %12) <{aTransposed, arch = "gfx908:sramecc+:xnack-", derivedBlockSize = 256 : i32, features = #rock<GemmFeatures mfma|dot|atomic_add>, gridSize = 4 : i32, numCU = 120 : i32, params = #rock.xdlops_gemm_params<kpackPerBlock = 8, mPerBlock = 128, nPerBlock = 128, kpack = 1, mPerWave = 64, nPerWave = 64, forceUnroll = true>, storeMethod = #rock<StoreMethod set>}> : (memref<1x9x512xf32>, memref<1x4608x49xf32>, memref<1x512x49xf32>) -> ()

Exception in gpu::mlir_op: /src/AMDMIGraphX/src/targets/gpu/mlir.cpp:731: run_backend_pipeline: MLIR backend compilation failed: Error: 'rock.gemm' op K dimensions don't match k_a = 9 k_b = 2304
Note: see current operation: "rock.gemm"(%8, %11, %12) <{aTransposed, arch = "gfx908:sramecc+:xnack-", derivedBlockSize = 128 : i32, features = #rock<GemmFeatures mfma|dot|atomic_add>, gridSize = 400 : i32, numCU = 120 : i32, params = #rock.xdlops_gemm_params<kpackPerBlock = 8, mPerBlock = 16, nPerBlock = 32, kpack = 8, mPerWave = 16, nPerWave = 16, forceUnroll = true>, storeMethod = #rock<StoreMethod set>}> : (memref<1x9x256xf32>, memref<1x2304x784xf32>, memref<1x256x784xf32>) -> ()

Exception in gpu::mlir_op: /src/AMDMIGraphX/src/targets/gpu/mlir.cpp:731: run_backend_pipeline: MLIR backend compilation failed: Error: 'rock.gemm' op K dimensions don't match k_a = 9 k_b = 576
Note: see current operation: "rock.gemm"(%8, %11, %12) <{aTransposed, arch = "gfx908:sramecc+:xnack-", derivedBlockSize = 256 : i32, features = #rock<GemmFeatures mfma|dot|atomic_add>, gridSize = 13 : i32, numCU = 120 : i32, params = #rock.xdlops_gemm_params<kpackPerBlock = 8, mPerBlock = 64, nPerBlock = 256, kpack = 1, mPerWave = 64, nPerWave = 64, forceUnroll = true>, storeMethod = #rock<StoreMethod set>}> : (memref<1x9x64xf32>, memref<1x576x3136xf32>, memref<1x64x3136xf32>) -> ()

Exception in gpu::mlir_op: /src/AMDMIGraphX/src/targets/gpu/mlir.cpp:731: run_backend_pipeline: MLIR backend compilation failed: Error: 'rock.gemm' op K dimensions don't match k_a = 9 k_b = 2304
Note: see current operation: "rock.gemm"(%8, %11, %12) <{aTransposed, arch = "gfx908:sramecc+:xnack-", derivedBlockSize = 256 : i32, features = #rock<GemmFeatures mfma|dot|atomic_add>, gridSize = 4 : i32, numCU = 120 : i32, params = #rock.xdlops_gemm_params<kpackPerBlock = 4, mPerBlock = 128, nPerBlock = 128, kpack = 8, mPerWave = 64, nPerWave = 64, forceUnroll = true>, storeMethod = #rock<StoreMethod set>}> : (memref<1x9x256xf32>, memref<1x2304x196xf32>, memref<1x256x196xf32>) -> ()

Exception in gpu::mlir_op: /src/AMDMIGraphX/src/targets/gpu/mlir.cpp:731: run_backend_pipeline: MLIR backend compilation failed: Error: 'rock.gemm' op K dimensions don't match k_a = 9 k_b = 4608
Note: see current operation: "rock.gemm"(%8, %11, %12) <{aTransposed, arch = "gfx908:sramecc+:xnack-", derivedBlockSize = 256 : i32, features = #rock<GemmFeatures mfma|dot|atomic_add>, gridSize = 32 : i32, numCU = 120 : i32, params = #rock.xdlops_gemm_params<kpackPerBlock = 8, mPerBlock = 32, nPerBlock = 32, kpack = 8, mPerWave = 16, nPerWave = 16, forceUnroll = true>, storeMethod = #rock<StoreMethod set>}> : (memref<1x9x512xf32>, memref<1x4608x49xf32>, memref<1x512x49xf32>) -> ()

Exception in gpu::mlir_op: /src/AMDMIGraphX/src/targets/gpu/mlir.cpp:731: run_backend_pipeline: MLIR backend compilation failed: Error: 'rock.gemm' op K dimensions don't match k_a = 9 k_b = 1152
Note: see current operation: "rock.gemm"(%8, %11, %12) <{aTransposed, arch = "gfx908:sramecc+:xnack-", derivedBlockSize = 256 : i32, features = #rock<GemmFeatures mfma|dot|atomic_add>, gridSize = 4 : i32, numCU = 120 : i32, params = #rock.xdlops_gemm_params<kpackPerBlock = 4, mPerBlock = 128, nPerBlock = 256, kpack = 4, mPerWave = 64, nPerWave = 128, forceUnroll = true>, storeMethod = #rock<StoreMethod set>}> : (memref<1x9x128xf32>, memref<1x1152x784xf32>, memref<1x128x784xf32>) -> ()

Exception in gpu::mlir_op: /src/AMDMIGraphX/src/targets/gpu/mlir.cpp:731: run_backend_pipeline: MLIR backend compilation failed: Error: 'rock.gemm' op K dimensions don't match k_a = 9 k_b = 2304
Note: see current operation: "rock.gemm"(%8, %11, %12) <{aTransposed, arch = "gfx908:sramecc+:xnack-", derivedBlockSize = 256 : i32, features = #rock<GemmFeatures mfma|dot|atomic_add>, gridSize = 14 : i32, numCU = 120 : i32, params = #rock.xdlops_gemm_params<kpackPerBlock = 4, mPerBlock = 128, nPerBlock = 128, kpack = 4, mPerWave = 64, nPerWave = 64, forceUnroll = true>, storeMethod = #rock<StoreMethod set>}> : (memref<1x9x256xf32>, memref<1x2304x784xf32>, memref<1x256x784xf32>) -> ()

Exception in gpu::mlir_op: /src/AMDMIGraphX/src/targets/gpu/mlir.cpp:731: run_backend_pipeline: MLIR backend compilation failed: Error: 'rock.gemm' op K dimensions don't match k_a = 9 k_b = 288
Note: see current operation: "rock.gemm"(%8, %11, %12) <{aTransposed, arch = "gfx908:sramecc+:xnack-", derivedBlockSize = 256 : i32, features = #rock<GemmFeatures mfma|dot|atomic_add>, gridSize = 98 : i32, numCU = 120 : i32, params = #rock.xdlops_gemm_params<kpackPerBlock = 8, mPerBlock = 128, nPerBlock = 128, kpack = 1, mPerWave = 64, nPerWave = 64, forceUnroll = true>, storeMethod = #rock<StoreMethod set>}> : (memref<1x9x32xf32>, memref<1x288x12544xf32>, memref<1x32x12544xf32>) -> ()

Exception in gpu::mlir_op: /src/AMDMIGraphX/src/targets/gpu/mlir.cpp:731: run_backend_pipeline: MLIR backend compilation failed: Error: 'rock.gemm' op K dimensions don't match k_a = 9 k_b = 9216
Note: see current operation: "rock.gemm"(%8, %11, %12) <{aTransposed, arch = "gfx908:sramecc+:xnack-", derivedBlockSize = 256 : i32, features = #rock<GemmFeatures mfma|dot|atomic_add>, gridSize = 64 : i32, numCU = 120 : i32, params = #rock.xdlops_gemm_params<kpackPerBlock = 8, mPerBlock = 16, nPerBlock = 64, kpack = 4, mPerWave = 16, nPerWave = 16, forceUnroll = true>, storeMethod = #rock<StoreMethod set>}> : (memref<1x9x1024xf32>, memref<1x9216x49xf32>, memref<1x1024x49xf32>) -> ()
Exception in gpu::mlir_op: /src/AMDMIGraphX/src/targets/gpu/mlir.cpp:731: run_backend_pipeline: MLIR backend compilation failed: Error: 'rock.gemm' op K dimensions don't match k_a = 9 k_b = 1152
Note: see current operation: "rock.gemm"(%8, %11, %12) <{aTransposed, arch = "gfx908:sramecc+:xnack-", derivedBlockSize = 256 : i32, features = #rock<GemmFeatures mfma|dot|atomic_add>, gridSize = 392 : i32, numCU = 120 : i32, params = #rock.xdlops_gemm_params<kpackPerBlock = 8, mPerBlock = 16, nPerBlock = 64, kpack = 4, mPerWave = 16, nPerWave = 16, forceUnroll = true>, storeMethod = #rock<StoreMethod set>}> : (memref<1x9x128xf32>, memref<1x1152x3136xf32>, memref<1x128x3136xf32>) -> ()


Exception in gpu::mlir_op: /src/AMDMIGraphX/src/targets/gpu/mlir.cpp:731: run_backend_pipeline: MLIR backend compilation failed: Error: 'rock.gemm' op K dimensions don't match k_a = 9 k_b = 4608
Note: see current operation: "rock.gemm"(%8, %11, %12) <{aTransposed, arch = "gfx908:sramecc+:xnack-", derivedBlockSize = 256 : i32, features = #rock<GemmFeatures mfma|dot|atomic_add>, gridSize = 64 : i32, numCU = 120 : i32, params = #rock.xdlops_gemm_params<kpackPerBlock = 2, mPerBlock = 32, nPerBlock = 64, kpack = 4, mPerWave = 8, nPerWave = 64, forceUnroll = true>, storeMethod = #rock<StoreMethod set>}> : (memref<1x9x512xf32>, memref<1x4608x196xf32>, memref<1x512x196xf32>) -> ()

Exception in gpu::mlir_op: /src/AMDMIGraphX/src/targets/gpu/mlir.cpp:731: run_backend_pipeline: MLIR backend compilation failed: Error: 'rock.gemm' op K dimensions don't match k_a = 9 k_b = 2304
Note: see current operation: "rock.gemm"(%8, %11, %12) <{aTransposed, arch = "gfx908:sramecc+:xnack-", derivedBlockSize = 256 : i32, features = #rock<GemmFeatures mfma|dot|atomic_add>, gridSize = 4 : i32, numCU = 120 : i32, params = #rock.xdlops_gemm_params<kpackPerBlock = 4, mPerBlock = 128, nPerBlock = 128, kpack = 4, mPerWave = 64, nPerWave = 64, forceUnroll = true>, storeMethod = #rock<StoreMethod set>}> : (memref<1x9x256xf32>, memref<1x2304x196xf32>, memref<1x256x196xf32>) -> ()

Exception in gpu::mlir_op: /src/AMDMIGraphX/src/targets/gpu/mlir.cpp:731: run_backend_pipeline: MLIR backend compilation failed: Error: 'rock.gemm' op K dimensions don't match k_a = 9 k_b = 576
Note: see current operation: "rock.gemm"(%8, %11, %12) <{aTransposed, arch = "gfx908:sramecc+:xnack-", derivedBlockSize = 256 : i32, features = #rock<GemmFeatures mfma|dot|atomic_add>, gridSize = 25 : i32, numCU = 120 : i32, params = #rock.xdlops_gemm_params<kpackPerBlock = 4, mPerBlock = 128, nPerBlock = 128, kpack = 8, mPerWave = 64, nPerWave = 64, forceUnroll = true>, storeMethod = #rock<StoreMethod set>}> : (memref<1x9x64xf32>, memref<1x576x3136xf32>, memref<1x64x3136xf32>) -> ()

Exception in gpu::mlir_op: /src/AMDMIGraphX/src/targets/gpu/mlir.cpp:731: run_backend_pipeline: MLIR backend compilation failed: Error: 'rock.gemm' op K dimensions don't match k_a = 9 k_b = 1152
Note: see current operation: "rock.gemm"(%8, %11, %12) <{aTransposed, arch = "gfx908:sramecc+:xnack-", derivedBlockSize = 64 : i32, features = #rock<GemmFeatures mfma|dot|atomic_add>, gridSize = 1568 : i32, numCU = 120 : i32, params = #rock.xdlops_gemm_params<kpackPerBlock = 4, mPerBlock = 16, nPerBlock = 16, kpack = 4, mPerWave = 16, nPerWave = 16, forceUnroll = true>, storeMethod = #rock<StoreMethod set>}> : (memref<1x9x128xf32>, memref<1x1152x3136xf32>, memref<1x128x3136xf32>) -> ()

Exception in gpu::mlir_op: /src/AMDMIGraphX/src/targets/gpu/mlir.cpp:731: run_backend_pipeline: MLIR backend compilation failed: Error: 'rock.gemm' op K dimensions don't match k_a = 9 k_b = 576
Note: see current operation: "rock.gemm"(%8, %11, %12) <{aTransposed, arch = "gfx908:sramecc+:xnack-", derivedBlockSize = 256 : i32, features = #rock<GemmFeatures mfma|dot|atomic_add>, gridSize = 13 : i32, numCU = 120 : i32, params = #rock.xdlops_gemm_params<kpackPerBlock = 4, mPerBlock = 64, nPerBlock = 256, kpack = 4, mPerWave = 64, nPerWave = 64, forceUnroll = true>, storeMethod = #rock<StoreMethod set>}> : (memref<1x9x64xf32>, memref<1x576x3136xf32>, memref<1x64x3136xf32>) -> ()

Exception in gpu::mlir_op: /src/AMDMIGraphX/src/targets/gpu/mlir.cpp:731: run_backend_pipeline: MLIR backend compilation failed: Error: 'rock.gemm' op K dimensions don't match k_a = 9 k_b = 9216
Note: see current operation: "rock.gemm"(%8, %11, %12) <{aTransposed, arch = "gfx908:sramecc+:xnack-", derivedBlockSize = 256 : i32, features = #rock<GemmFeatures mfma|dot|atomic_add>, gridSize = 32 : i32, numCU = 120 : i32, params = #rock.xdlops_gemm_params<kpackPerBlock = 4, mPerBlock = 32, nPerBlock = 64, kpack = 4, mPerWave = 8, nPerWave = 64, forceUnroll = true>, storeMethod = #rock<StoreMethod set>}> : (memref<1x9x1024xf32>, memref<1x9216x49xf32>, memref<1x1024x49xf32>) -> ()

Exception in gpu::mlir_op: /src/AMDMIGraphX/src/targets/gpu/mlir.cpp:731: run_backend_pipeline: MLIR backend compilation failed: Error: 'rock.gemm' op K dimensions don't match k_a = 9 k_b = 4608
Note: see current operation: "rock.gemm"(%8, %11, %12) <{aTransposed, arch = "gfx908:sramecc+:xnack-", derivedBlockSize = 128 : i32, features = #rock<GemmFeatures mfma|dot|atomic_add>, gridSize = 4 : i32, numCU = 120 : i32, params = #rock.xdlops_gemm_params<kpackPerBlock = 4, mPerBlock = 128, nPerBlock = 128, kpack = 4, mPerWave = 64, nPerWave = 128, forceUnroll = true>, storeMethod = #rock<StoreMethod set>}> : (memref<1x9x512xf32>, memref<1x4608x49xf32>, memref<1x512x49xf32>) -> ()

Exception in gpu::mlir_op: /src/AMDMIGraphX/src/targets/gpu/mlir.cpp:731: run_backend_pipeline: MLIR backend compilation failed: Error: 'rock.gemm' op K dimensions don't match k_a = 9 k_b = 2304
Note: see current operation: "rock.gemm"(%8, %11, %12) <{aTransposed, arch = "gfx908:sramecc+:xnack-", derivedBlockSize = 256 : i32, features = #rock<GemmFeatures mfma|dot|atomic_add>, gridSize = 208 : i32, numCU = 120 : i32, params = #rock.xdlops_gemm_params<kpackPerBlock = 8, mPerBlock = 16, nPerBlock = 64, kpack = 8, mPerWave = 16, nPerWave = 16, forceUnroll = true>, storeMethod = #rock<StoreMethod set>}> : (memref<1x9x256xf32>, memref<1x2304x784xf32>, memref<1x256x784xf32>) -> ()

Exception in gpu::mlir_op: /src/AMDMIGraphX/src/targets/gpu/mlir.cpp:731: run_backend_pipeline: MLIR backend compilation failed: Error: 'rock.gemm' op K dimensions don't match k_a = 9 k_b = 2304
Note: see current operation: "rock.gemm"(%8, %11, %12) <{aTransposed, arch = "gfx908:sramecc+:xnack-", derivedBlockSize = 256 : i32, features = #rock<GemmFeatures mfma|dot|atomic_add>, gridSize = 16 : i32, numCU = 120 : i32, params = #rock.xdlops_gemm_params<kpackPerBlock = 8, mPerBlock = 64, nPerBlock = 64, kpack = 4, mPerWave = 32, nPerWave = 32, forceUnroll = true>, storeMethod = #rock<StoreMethod set>}> : (memref<1x9x256xf32>, memref<1x2304x196xf32>, memref<1x256x196xf32>) -> ()

Exception in gpu::mlir_op: /src/AMDMIGraphX/src/targets/gpu/mlir.cpp:731: run_backend_pipeline: MLIR backend compilation failed: Error: 'rock.gemm' op K dimensions don't match k_a = 9 k_b = 1152
Note: see current operation: "rock.gemm"(%8, %11, %12) <{aTransposed, arch = "gfx908:sramecc+:xnack-", derivedBlockSize = 256 : i32, features = #rock<GemmFeatures mfma|dot|atomic_add>, gridSize = 8 : i32, numCU = 120 : i32, params = #rock.xdlops_gemm_params<kpackPerBlock = 8, mPerBlock = 64, nPerBlock = 256, kpack = 1, mPerWave = 64, nPerWave = 64, forceUnroll = true>, storeMethod = #rock<StoreMethod set>}> : (memref<1x9x128xf32>, memref<1x1152x784xf32>, memref<1x128x784xf32>) -> ()

Exception in gpu::mlir_op: /src/AMDMIGraphX/src/targets/gpu/mlir.cpp:731: run_backend_pipeline: MLIR backend compilation failed: Error: 'rock.gemm' op K dimensions don't match k_a = 9 k_b = 4608
Note: see current operation: "rock.gemm"(%8, %11, %12) <{aTransposed, arch = "gfx908:sramecc+:xnack-", derivedBlockSize = 256 : i32, features = #rock<GemmFeatures mfma|dot|atomic_add>, gridSize = 32 : i32, numCU = 120 : i32, params = #rock.xdlops_gemm_params<kpackPerBlock = 8, mPerBlock = 16, nPerBlock = 64, kpack = 8, mPerWave = 16, nPerWave = 16, forceUnroll = true>, storeMethod = #rock<StoreMethod set>}> : (memref<1x9x512xf32>, memref<1x4608x49xf32>, memref<1x512x49xf32>) -> ()

Exception in gpu::mlir_op: /src/AMDMIGraphX/src/targets/gpu/mlir.cpp:731: run_backend_pipeline: MLIR backend compilation failed: Error: 'rock.gemm' op K dimensions don't match k_a = 9 k_b = 2304
Note: see current operation: "rock.gemm"(%8, %11, %12) <{aTransposed, arch = "gfx908:sramecc+:xnack-", derivedBlockSize = 128 : i32, features = #rock<GemmFeatures mfma|dot|atomic_add>, gridSize = 14 : i32, numCU = 120 : i32, params = #rock.xdlops_gemm_params<kpackPerBlock = 2, mPerBlock = 128, nPerBlock = 128, kpack = 8, mPerWave = 64, nPerWave = 128, forceUnroll = true>, storeMethod = #rock<StoreMethod set>}> : (memref<1x9x256xf32>, memref<1x2304x784xf32>, memref<1x256x784xf32>) -> ()

Exception in gpu::mlir_op: /src/AMDMIGraphX/src/targets/gpu/mlir.cpp:731: run_backend_pipeline: MLIR backend compilation failed: Error: 'rock.gemm' op K dimensions don't match k_a = 9 k_b = 288
Note: see current operation: "rock.gemm"(%8, %11, %12) <{aTransposed, arch = "gfx908:sramecc+:xnack-", derivedBlockSize = 128 : i32, features = #rock<GemmFeatures mfma|dot|atomic_add>, gridSize = 98 : i32, numCU = 120 : i32, params = #rock.xdlops_gemm_params<kpackPerBlock = 4, mPerBlock = 128, nPerBlock = 128, kpack = 4, mPerWave = 64, nPerWave = 128, forceUnroll = true>, storeMethod = #rock<StoreMethod set>}> : (memref<1x9x32xf32>, memref<1x288x12544xf32>, memref<1x32x12544xf32>) -> ()

Exception in gpu::mlir_op: /src/AMDMIGraphX/src/targets/gpu/mlir.cpp:731: run_backend_pipeline: MLIR backend compilation failed: Error: 'rock.gemm' op K dimensions don't match k_a = 9 k_b = 9216
Note: see current operation: "rock.gemm"(%8, %11, %12) <{aTransposed, arch = "gfx908:sramecc+:xnack-", derivedBlockSize = 128 : i32, features = #rock<GemmFeatures mfma|dot|atomic_add>, gridSize = 128 : i32, numCU = 120 : i32, params = #rock.xdlops_gemm_params<kpackPerBlock = 8, mPerBlock = 16, nPerBlock = 32, kpack = 4, mPerWave = 16, nPerWave = 16, forceUnroll = true>, storeMethod = #rock<StoreMethod set>}> : (memref<1x9x1024xf32>, memref<1x9216x49xf32>, memref<1x1024x49xf32>) -> ()

Exception in gpu::mlir_op: /src/AMDMIGraphX/src/targets/gpu/mlir.cpp:731: run_backend_pipeline: MLIR backend compilation failed: Error: 'rock.gemm' op K dimensions don't match k_a = 9 k_b = 1152
Note: see current operation: "rock.gemm"(%8, %11, %12) <{aTransposed, arch = "gfx908:sramecc+:xnack-", derivedBlockSize = 128 : i32, features = #rock<GemmFeatures mfma|dot|atomic_add>, gridSize = 784 : i32, numCU = 120 : i32, params = #rock.xdlops_gemm_params<kpackPerBlock = 8, mPerBlock = 16, nPerBlock = 32, kpack = 4, mPerWave = 16, nPerWave = 16, forceUnroll = true>, storeMethod = #rock<StoreMethod set>}> : (memref<1x9x128xf32>, memref<1x1152x3136xf32>, memref<1x128x3136xf32>) -> ()

Exception in gpu::mlir_op: /src/AMDMIGraphX/src/targets/gpu/mlir.cpp:731: run_backend_pipeline: MLIR backend compilation failed: Error: 'rock.gemm' op K dimensions don't match k_a = 9 k_b = 2304
Note: see current operation: "rock.gemm"(%8, %11, %12) <{aTransposed, arch = "gfx908:sramecc+:xnack-", derivedBlockSize = 128 : i32, features = #rock<GemmFeatures mfma|dot|atomic_add>, gridSize = 4 : i32, numCU = 120 : i32, params = #rock.xdlops_gemm_params<kpackPerBlock = 2, mPerBlock = 128, nPerBlock = 128, kpack = 8, mPerWave = 64, nPerWave = 128, forceUnroll = true>, storeMethod = #rock<StoreMethod set>}> : (memref<1x9x256xf32>, memref<1x2304x196xf32>, memref<1x256x196xf32>) -> ()

Exception in gpu::mlir_op: /src/AMDMIGraphX/src/targets/gpu/mlir.cpp:731: run_backend_pipeline: MLIR backend compilation failed: Error: 'rock.gemm' op K dimensions don't match k_a = 9 k_b = 4608
Note: see current operation: "rock.gemm"(%8, %11, %12) <{aTransposed, arch = "gfx908:sramecc+:xnack-", derivedBlockSize = 64 : i32, features = #rock<GemmFeatures mfma|dot|atomic_add>, gridSize = 512 : i32, numCU = 120 : i32, params = #rock.xdlops_gemm_params<kpackPerBlock = 16, mPerBlock = 4, nPerBlock = 64, kpack = 1, mPerWave = 4, nPerWave = 64, forceUnroll = true>, storeMethod = #rock<StoreMethod set>}> : (memref<1x9x512xf32>, memref<1x4608x196xf32>, memref<1x512x196xf32>) -> ()

Exception in gpu::mlir_op: /src/AMDMIGraphX/src/targets/gpu/mlir.cpp:731: run_backend_pipeline: MLIR backend compilation failed: Error: 'rock.gemm' op K dimensions don't match k_a = 9 k_b = 1152
Note: see current operation: "rock.gemm"(%8, %11, %12) <{aTransposed, arch = "gfx908:sramecc+:xnack-", derivedBlockSize = 64 : i32, features = #rock<GemmFeatures mfma|dot|atomic_add>, gridSize = 1568 : i32, numCU = 120 : i32, params = #rock.xdlops_gemm_params<kpackPerBlock = 16, mPerBlock = 4, nPerBlock = 64, kpack = 1, mPerWave = 4, nPerWave = 64, forceUnroll = true>, storeMethod = #rock<StoreMethod set>}> : (memref<1x9x128xf32>, memref<1x1152x3136xf32>, memref<1x128x3136xf32>) -> ()

Exception in gpu::mlir_op: /src/AMDMIGraphX/src/targets/gpu/mlir.cpp:731: run_backend_pipeline: MLIR backend compilation failed: Error: 'rock.gemm' op K dimensions don't match k_a = 9 k_b = 576
Note: see current operation: "rock.gemm"(%8, %11, %12) <{aTransposed, arch = "gfx908:sramecc+:xnack-", derivedBlockSize = 256 : i32, features = #rock<GemmFeatures mfma|dot|atomic_add>, gridSize = 49 : i32, numCU = 120 : i32, params = #rock.xdlops_gemm_params<kpackPerBlock = 8, mPerBlock = 64, nPerBlock = 64, kpack = 4, mPerWave = 32, nPerWave = 32, forceUnroll = true>, storeMethod = #rock<StoreMethod set>}> : (memref<1x9x64xf32>, memref<1x576x3136xf32>, memref<1x64x3136xf32>) -> ()

Exception in gpu::mlir_op: /src/AMDMIGraphX/src/targets/gpu/mlir.cpp:731: run_backend_pipeline: MLIR backend compilation failed: Error: 'rock.gemm' op K dimensions don't match k_a = 9 k_b = 9216
Note: see current operation: "rock.gemm"(%8, %11, %12) <{aTransposed, arch = "gfx908:sramecc+:xnack-", derivedBlockSize = 128 : i32, features = #rock<GemmFeatures mfma|dot|atomic_add>, gridSize = 32 : i32, numCU = 120 : i32, params = #rock.xdlops_gemm_params<kpackPerBlock = 2, mPerBlock = 32, nPerBlock = 64, kpack = 8, mPerWave = 32, nPerWave = 32, forceUnroll = true>, storeMethod = #rock<StoreMethod set>}> : (memref<1x9x1024xf32>, memref<1x9216x49xf32>, memref<1x1024x49xf32>) -> ()

Exception in gpu::mlir_op: /src/AMDMIGraphX/src/targets/gpu/mlir.cpp:731: run_backend_pipeline: MLIR backend compilation failed: Error: 'rock.gemm' op K dimensions don't match k_a = 9 k_b = 4608
Note: see current operation: "rock.gemm"(%8, %11, %12) <{aTransposed, arch = "gfx908:sramecc+:xnack-", derivedBlockSize = 256 : i32, features = #rock<GemmFeatures mfma|dot|atomic_add>, gridSize = 4 : i32, numCU = 120 : i32, params = #rock.xdlops_gemm_params<kpackPerBlock = 4, mPerBlock = 128, nPerBlock = 128, kpack = 4, mPerWave = 64, nPerWave = 64, forceUnroll = true>, storeMethod = #rock<StoreMethod set>}> : (memref<1x9x512xf32>, memref<1x4608x49xf32>, memref<1x512x49xf32>) -> ()

Exception in gpu::mlir_op: /src/AMDMIGraphX/src/targets/gpu/mlir.cpp:731: run_backend_pipeline: MLIR backend compilation failed: Error: 'rock.gemm' op K dimensions don't match k_a = 9 k_b = 2304
Note: see current operation: "rock.gemm"(%8, %11, %12) <{aTransposed, arch = "gfx908:sramecc+:xnack-", derivedBlockSize = 256 : i32, features = #rock<GemmFeatures mfma|dot|atomic_add>, gridSize = 14 : i32, numCU = 120 : i32, params = #rock.xdlops_gemm_params<kpackPerBlock = 2, mPerBlock = 128, nPerBlock = 128, kpack = 8, mPerWave = 64, nPerWave = 64, forceUnroll = true>, storeMethod = #rock<StoreMethod set>}> : (memref<1x9x256xf32>, memref<1x2304x784xf32>, memref<1x256x784xf32>) -> ()

Exception in gpu::mlir_op: /src/AMDMIGraphX/src/targets/gpu/mlir.cpp:731: run_backend_pipeline: MLIR backend compilation failed: Error: 'rock.gemm' op K dimensions don't match k_a = 9 k_b = 2304
Note: see current operation: "rock.gemm"(%8, %11, %12) <{aTransposed, arch = "gfx908:sramecc+:xnack-", derivedBlockSize = 256 : i32, features = #rock<GemmFeatures mfma|dot|atomic_add>, gridSize = 16 : i32, numCU = 120 : i32, params = #rock.xdlops_gemm_params<kpackPerBlock = 4, mPerBlock = 64, nPerBlock = 64, kpack = 8, mPerWave = 32, nPerWave = 32, forceUnroll = true>, storeMethod = #rock<StoreMethod set>}> : (memref<1x9x256xf32>, memref<1x2304x196xf32>, memref<1x256x196xf32>) -> ()

Exception in gpu::mlir_op: /src/AMDMIGraphX/src/targets/gpu/mlir.cpp:731: run_backend_pipeline: MLIR backend compilation failed: Error: 'rock.gemm' op K dimensions don't match k_a = 9 k_b = 2304
Note: see current operation: "rock.gemm"(%8, %11, %12) <{aTransposed, arch = "gfx908:sramecc+:xnack-", derivedBlockSize = 128 : i32, features = #rock<GemmFeatures mfma|dot|atomic_add>, gridSize = 416 : i32, numCU = 120 : i32, params = #rock.xdlops_gemm_params<kpackPerBlock = 8, mPerBlock = 8, nPerBlock = 64, kpack = 8, mPerWave = 4, nPerWave = 64, forceUnroll = true>, storeMethod = #rock<StoreMethod set>}> : (memref<1x9x256xf32>, memref<1x2304x784xf32>, memref<1x256x784xf32>) -> ()

Exception in gpu::mlir_op: /src/AMDMIGraphX/src/targets/gpu/mlir.cpp:731: run_backend_pipeline: MLIR backend compilation failed: Error: 'rock.gemm' op K dimensions don't match k_a = 9 k_b = 4608
Note: see current operation: "rock.gemm"(%8, %11, %12) <{aTransposed, arch = "gfx908:sramecc+:xnack-", derivedBlockSize = 128 : i32, features = #rock<GemmFeatures mfma|dot|atomic_add>, gridSize = 64 : i32, numCU = 120 : i32, params = #rock.xdlops_gemm_params<kpackPerBlock = 8, mPerBlock = 16, nPerBlock = 32, kpack = 8, mPerWave = 16, nPerWave = 16, forceUnroll = true>, storeMethod = #rock<StoreMethod set>}> : (memref<1x9x512xf32>, memref<1x4608x49xf32>, memref<1x512x49xf32>) -> ()

Exception in gpu::mlir_op: /src/AMDMIGraphX/src/targets/gpu/mlir.cpp:731: run_backend_pipeline: MLIR backend compilation failed: Error: 'rock.gemm' op K dimensions don't match k_a = 9 k_b = 1152
Note: see current operation: "rock.gemm"(%8, %11, %12) <{aTransposed, arch = "gfx908:sramecc+:xnack-", derivedBlockSize = 256 : i32, features = #rock<GemmFeatures mfma|dot|atomic_add>, gridSize = 8 : i32, numCU = 120 : i32, params = #rock.xdlops_gemm_params<kpackPerBlock = 4, mPerBlock = 64, nPerBlock = 256, kpack = 4, mPerWave = 64, nPerWave = 64, forceUnroll = true>, storeMethod = #rock<StoreMethod set>}> : (memref<1x9x128xf32>, memref<1x1152x784xf32>, memref<1x128x784xf32>) -> ()

Exception in gpu::mlir_op: /src/AMDMIGraphX/src/targets/gpu/mlir.cpp:731: run_backend_pipeline: MLIR backend compilation failed: Error: 'rock.gemm' op K dimensions don't match k_a = 9 k_b = 288
Note: see current operation: "rock.gemm"(%8, %11, %12) <{aTransposed, arch = "gfx908:sramecc+:xnack-", derivedBlockSize = 256 : i32, features = #rock<GemmFeatures mfma|dot|atomic_add>, gridSize = 98 : i32, numCU = 120 : i32, params = #rock.xdlops_gemm_params<kpackPerBlock = 4, mPerBlock = 128, nPerBlock = 128, kpack = 4, mPerWave = 64, nPerWave = 64, forceUnroll = true>, storeMethod = #rock<StoreMethod set>}> : (memref<1x9x32xf32>, memref<1x288x12544xf32>, memref<1x32x12544xf32>) -> ()

Exception in gpu::mlir_op: /src/AMDMIGraphX/src/targets/gpu/mlir.cpp:731: run_backend_pipeline: MLIR backend compilation failed: Error: 'rock.gemm' op K dimensions don't match k_a = 9 k_b = 1152
Note: see current operation: "rock.gemm"(%8, %11, %12) <{aTransposed, arch = "gfx908:sramecc+:xnack-", derivedBlockSize = 256 : i32, features = #rock<GemmFeatures mfma|dot|atomic_add>, gridSize = 25 : i32, numCU = 120 : i32, params = #rock.xdlops_gemm_params<kpackPerBlock = 8, mPerBlock = 128, nPerBlock = 128, kpack = 4, mPerWave = 64, nPerWave = 64, forceUnroll = true>, storeMethod = #rock<StoreMethod set>}> : (memref<1x9x128xf32>, memref<1x1152x3136xf32>, memref<1x128x3136xf32>) -> ()

Exception in gpu::mlir_op: /src/AMDMIGraphX/src/targets/gpu/mlir.cpp:731: run_backend_pipeline: MLIR backend compilation failed: Error: 'rock.gemm' op K dimensions don't match k_a = 9 k_b = 9216
Note: see current operation: "rock.gemm"(%8, %11, %12) <{aTransposed, arch = "gfx908:sramecc+:xnack-", derivedBlockSize = 256 : i32, features = #rock<GemmFeatures mfma|dot|atomic_add>, gridSize = 8 : i32, numCU = 120 : i32, params = #rock.xdlops_gemm_params<kpackPerBlock = 4, mPerBlock = 128, nPerBlock = 256, kpack = 4, mPerWave = 64, nPerWave = 128, forceUnroll = true>, storeMethod = #rock<StoreMethod set>}> : (memref<1x9x1024xf32>, memref<1x9216x49xf32>, memref<1x1024x49xf32>) -> ()

Exception in gpu::mlir_op: /src/AMDMIGraphX/src/targets/gpu/mlir.cpp:731: run_backend_pipeline: MLIR backend compilation failed: Error: 'rock.gemm' op K dimensions don't match k_a = 9 k_b = 1152
Note: see current operation: "rock.gemm"(%8, %11, %12) <{aTransposed, arch = "gfx908:sramecc+:xnack-", derivedBlockSize = 64 : i32, features = #rock<GemmFeatures mfma|dot|atomic_add>, gridSize = 1568 : i32, numCU = 120 : i32, params = #rock.xdlops_gemm_params<kpackPerBlock = 2, mPerBlock = 4, nPerBlock = 64, kpack = 8, mPerWave = 4, nPerWave = 64, forceUnroll = true>, storeMethod = #rock<StoreMethod set>}> : (memref<1x9x128xf32>, memref<1x1152x3136xf32>, memref<1x128x3136xf32>) -> ()

Exception in gpu::mlir_op: /src/AMDMIGraphX/src/targets/gpu/mlir.cpp:731: run_backend_pipeline: MLIR backend compilation failed: Error: 'rock.gemm' op K dimensions don't match k_a = 9 k_b = 2304
Note: see current operation: "rock.gemm"(%8, %11, %12) <{aTransposed, arch = "gfx908:sramecc+:xnack-", derivedBlockSize = 256 : i32, features = #rock<GemmFeatures mfma|dot|atomic_add>, gridSize = 4 : i32, numCU = 120 : i32, params = #rock.xdlops_gemm_params<kpackPerBlock = 2, mPerBlock = 128, nPerBlock = 128, kpack = 8, mPerWave = 64, nPerWave = 64, forceUnroll = true>, storeMethod = #rock<StoreMethod set>}> : (memref<1x9x256xf32>, memref<1x2304x196xf32>, memref<1x256x196xf32>) -> ()

Exception in gpu::mlir_op: /src/AMDMIGraphX/src/targets/gpu/mlir.cpp:731: run_backend_pipeline: MLIR backend compilation failed: Error: 'rock.gemm' op K dimensions don't match k_a = 9 k_b = 4608
Note: see current operation: "rock.gemm"(%8, %11, %12) <{aTransposed, arch = "gfx908:sramecc+:xnack-", derivedBlockSize = 64 : i32, features = #rock<GemmFeatures mfma|dot|atomic_add>, gridSize = 512 : i32, numCU = 120 : i32, params = #rock.xdlops_gemm_params<kpackPerBlock = 2, mPerBlock = 4, nPerBlock = 64, kpack = 8, mPerWave = 4, nPerWave = 64, forceUnroll = true>, storeMethod = #rock<StoreMethod set>}> : (memref<1x9x512xf32>, memref<1x4608x196xf32>, memref<1x512x196xf32>) -> ()

Exception in gpu::mlir_op: /src/AMDMIGraphX/src/targets/gpu/mlir.cpp:731: run_backend_pipeline: MLIR backend compilation failed: Error: 'rock.gemm' op K dimensions don't match k_a = 9 k_b = 576
Note: see current operation: "rock.gemm"(%8, %11, %12) <{aTransposed, arch = "gfx908:sramecc+:xnack-", derivedBlockSize = 256 : i32, features = #rock<GemmFeatures mfma|dot|atomic_add>, gridSize = 49 : i32, numCU = 120 : i32, params = #rock.xdlops_gemm_params<kpackPerBlock = 4, mPerBlock = 64, nPerBlock = 64, kpack = 8, mPerWave = 32, nPerWave = 32, forceUnroll = true>, storeMethod = #rock<StoreMethod set>}> : (memref<1x9x64xf32>, memref<1x576x3136xf32>, memref<1x64x3136xf32>) -> ()

Exception in gpu::mlir_op: /src/AMDMIGraphX/src/targets/gpu/mlir.cpp:731: run_backend_pipeline: MLIR backend compilation failed: Error: 'rock.gemm' op K dimensions don't match k_a = 9 k_b = 2304
Note: see current operation: "rock.gemm"(%8, %11, %12) <{aTransposed, arch = "gfx908:sramecc+:xnack-", derivedBlockSize = 256 : i32, features = #rock<GemmFeatures mfma|dot|atomic_add>, gridSize = 14 : i32, numCU = 120 : i32, params = #rock.xdlops_gemm_params<kpackPerBlock = 2, mPerBlock = 128, nPerBlock = 128, kpack = 4, mPerWave = 64, nPerWave = 64, forceUnroll = true>, storeMethod = #rock<StoreMethod set>}> : (memref<1x9x256xf32>, memref<1x2304x784xf32>, memref<1x256x784xf32>) -> ()

Exception in gpu::mlir_op: /src/AMDMIGraphX/src/targets/gpu/mlir.cpp:731: run_backend_pipeline: MLIR backend compilation failed: Error: 'rock.gemm' op K dimensions don't match k_a = 9 k_b = 2304
Note: see current operation: "rock.gemm"(%8, %11, %12) <{aTransposed, arch = "gfx908:sramecc+:xnack-", derivedBlockSize = 256 : i32, features = #rock<GemmFeatures mfma|dot|atomic_add>, gridSize = 16 : i32, numCU = 120 : i32, params = #rock.xdlops_gemm_params<kpackPerBlock = 4, mPerBlock = 64, nPerBlock = 64, kpack = 8, mPerWave = 16, nPerWave = 64, forceUnroll = true>, storeMethod = #rock<StoreMethod set>}> : (memref<1x9x256xf32>, memref<1x2304x196xf32>, memref<1x256x196xf32>) -> ()

Exception in gpu::mlir_op: /src/AMDMIGraphX/src/targets/gpu/mlir.cpp:731: run_backend_pipeline: MLIR backend compilation failed: Error: 'rock.gemm' op K dimensions don't match k_a = 9 k_b = 4608
Note: see current operation: "rock.gemm"(%8, %11, %12) <{aTransposed, arch = "gfx908:sramecc+:xnack-", derivedBlockSize = 128 : i32, features = #rock<GemmFeatures mfma|dot|atomic_add>, gridSize = 4 : i32, numCU = 120 : i32, params = #rock.xdlops_gemm_params<kpackPerBlock = 2, mPerBlock = 128, nPerBlock = 128, kpack = 8, mPerWave = 64, nPerWave = 128, forceUnroll = true>, storeMethod = #rock<StoreMethod set>}> : (memref<1x9x512xf32>, memref<1x4608x49xf32>, memref<1x512x49xf32>) -> ()

Exception in gpu::mlir_op: /src/AMDMIGraphX/src/targets/gpu/mlir.cpp:731: run_backend_pipeline: MLIR backend compilation failed: Error: 'rock.gemm' op K dimensions don't match k_a = 9 k_b = 9216
Note: see current operation: "rock.gemm"(%8, %11, %12) <{aTransposed, arch = "gfx908:sramecc+:xnack-", derivedBlockSize = 256 : i32, features = #rock<GemmFeatures mfma|dot|atomic_add>, gridSize = 32 : i32, numCU = 120 : i32, params = #rock.xdlops_gemm_params<kpackPerBlock = 2, mPerBlock = 32, nPerBlock = 64, kpack = 4, mPerWave = 8, nPerWave = 64, forceUnroll = true>, storeMethod = #rock<StoreMethod set>}> : (memref<1x9x1024xf32>, memref<1x9216x49xf32>, memref<1x1024x49xf32>) -> ()

Exception in gpu::mlir_op: /src/AMDMIGraphX/src/targets/gpu/mlir.cpp:731: run_backend_pipeline: MLIR backend compilation failed: Error: 'rock.gemm' op K dimensions don't match k_a = 9 k_b = 4608
Note: see current operation: "rock.gemm"(%8, %11, %12) <{aTransposed, arch = "gfx908:sramecc+:xnack-", derivedBlockSize = 64 : i32, features = #rock<GemmFeatures mfma|dot|atomic_add>, gridSize = 128 : i32, numCU = 120 : i32, params = #rock.xdlops_gemm_params<kpackPerBlock = 8, mPerBlock = 16, nPerBlock = 16, kpack = 8, mPerWave = 16, nPerWave = 16, forceUnroll = true>, storeMethod = #rock<StoreMethod set>}> : (memref<1x9x512xf32>, memref<1x4608x49xf32>, memref<1x512x49xf32>) -> ()

Exception in gpu::mlir_op: /src/AMDMIGraphX/src/targets/gpu/mlir.cpp:731: run_backend_pipeline: MLIR backend compilation failed: Error: 'rock.gemm' op K dimensions don't match k_a = 9 k_b = 1152
Note: see current operation: "rock.gemm"(%8, %11, %12) <{aTransposed, arch = "gfx908:sramecc+:xnack-", derivedBlockSize = 256 : i32, features = #rock<GemmFeatures mfma|dot|atomic_add>, gridSize = 100 : i32, numCU = 120 : i32, params = #rock.xdlops_gemm_params<kpackPerBlock = 8, mPerBlock = 32, nPerBlock = 32, kpack = 4, mPerWave = 16, nPerWave = 16, forceUnroll = true>, storeMethod = #rock<StoreMethod set>}> : (memref<1x9x128xf32>, memref<1x1152x784xf32>, memref<1x128x784xf32>) -> ()

Exception in gpu::mlir_op: /src/AMDMIGraphX/src/targets/gpu/mlir.cpp:731: run_backend_pipeline: MLIR backend compilation failed: Error: 'rock.gemm' op K dimensions don't match k_a = 9 k_b = 288
Note: see current operation: "rock.gemm"(%8, %11, %12) <{aTransposed, arch = "gfx908:sramecc+:xnack-", derivedBlockSize = 128 : i32, features = #rock<GemmFeatures mfma|dot|atomic_add>, gridSize = 98 : i32, numCU = 120 : i32, params = #rock.xdlops_gemm_params<kpackPerBlock = 2, mPerBlock = 128, nPerBlock = 128, kpack = 8, mPerWave = 64, nPerWave = 128, forceUnroll = true>, storeMethod = #rock<StoreMethod set>}> : (memref<1x9x32xf32>, memref<1x288x12544xf32>, memref<1x32x12544xf32>) -> ()

Exception in gpu::mlir_op: /src/AMDMIGraphX/src/targets/gpu/mlir.cpp:731: run_backend_pipeline: MLIR backend compilation failed: Error: 'rock.gemm' op K dimensions don't match k_a = 9 k_b = 4608
Note: see current operation: "rock.gemm"(%8, %11, %12) <{aTransposed, arch = "gfx908:sramecc+:xnack-", derivedBlockSize = 256 : i32, features = #rock<GemmFeatures mfma|dot|atomic_add>, gridSize = 112 : i32, numCU = 120 : i32, params = #rock.xdlops_gemm_params<kpackPerBlock = 8, mPerBlock = 32, nPerBlock = 32, kpack = 4, mPerWave = 16, nPerWave = 16, forceUnroll = true>, storeMethod = #rock<StoreMethod set>}> : (memref<1x9x512xf32>, memref<1x4608x196xf32>, memref<1x512x196xf32>) -> ()

Exception in gpu::mlir_op: /src/AMDMIGraphX/src/targets/gpu/mlir.cpp:731: run_backend_pipeline: MLIR backend compilation failed: Error: 'rock.gemm' op K dimensions don't match k_a = 9 k_b = 1152
Note: see current operation: "rock.gemm"(%8, %11, %12) <{aTransposed, arch = "gfx908:sramecc+:xnack-", derivedBlockSize = 256 : i32, features = #rock<GemmFeatures mfma|dot|atomic_add>, gridSize = 25 : i32, numCU = 120 : i32, params = #rock.xdlops_gemm_params<kpackPerBlock = 4, mPerBlock = 128, nPerBlock = 128, kpack = 8, mPerWave = 64, nPerWave = 64, forceUnroll = true>, storeMethod = #rock<StoreMethod set>}> : (memref<1x9x128xf32>, memref<1x1152x3136xf32>, memref<1x128x3136xf32>) -> ()

Exception in gpu::mlir_op: /src/AMDMIGraphX/src/targets/gpu/mlir.cpp:731: run_backend_pipeline: MLIR backend compilation failed: Error: 'rock.gemm' op K dimensions don't match k_a = 9 k_b = 2304
Note: see current operation: "rock.gemm"(%8, %11, %12) <{aTransposed, arch = "gfx908:sramecc+:xnack-", derivedBlockSize = 256 : i32, features = #rock<GemmFeatures mfma|dot|atomic_add>, gridSize = 4 : i32, numCU = 120 : i32, params = #rock.xdlops_gemm_params<kpackPerBlock = 2, mPerBlock = 128, nPerBlock = 128, kpack = 4, mPerWave = 64, nPerWave = 64, forceUnroll = true>, storeMethod = #rock<StoreMethod set>}> : (memref<1x9x256xf32>, memref<1x2304x196xf32>, memref<1x256x196xf32>) -> ()

Exception in gpu::mlir_op: /src/AMDMIGraphX/src/targets/gpu/mlir.cpp:731: run_backend_pipeline: MLIR backend compilation failed: Error: 'rock.gemm' op K dimensions don't match k_a = 9 k_b = 9216
Note: see current operation: "rock.gemm"(%8, %11, %12) <{aTransposed, arch = "gfx908:sramecc+:xnack-", derivedBlockSize = 256 : i32, features = #rock<GemmFeatures mfma|dot|atomic_add>, gridSize = 8 : i32, numCU = 120 : i32, params = #rock.xdlops_gemm_params<kpackPerBlock = 8, mPerBlock = 128, nPerBlock = 128, kpack = 4, mPerWave = 64, nPerWave = 64, forceUnroll = true>, storeMethod = #rock<StoreMethod set>}> : (memref<1x9x1024xf32>, memref<1x9216x49xf32>, memref<1x1024x49xf32>) -> ()

Exception in gpu::mlir_op: /src/AMDMIGraphX/src/targets/gpu/mlir.cpp:731: run_backend_pipeline: MLIR backend compilation failed: Error: 'rock.gemm' op K dimensions don't match k_a = 9 k_b = 1152
Note: see current operation: "rock.gemm"(%8, %11, %12) <{aTransposed, arch = "gfx908:sramecc+:xnack-", derivedBlockSize = 128 : i32, features = #rock<GemmFeatures mfma|dot|atomic_add>, gridSize = 25 : i32, numCU = 120 : i32, params = #rock.xdlops_gemm_params<kpackPerBlock = 8, mPerBlock = 128, nPerBlock = 128, kpack = 1, mPerWave = 64, nPerWave = 128, forceUnroll = true>, storeMethod = #rock<StoreMethod set>}> : (memref<1x9x128xf32>, memref<1x1152x3136xf32>, memref<1x128x3136xf32>) -> ()

Exception in gpu::mlir_op: /src/AMDMIGraphX/src/targets/gpu/mlir.cpp:731: run_backend_pipeline: MLIR backend compilation failed: Error: 'rock.gemm' op K dimensions don't match k_a = 9 k_b = 576
Note: see current operation: "rock.gemm"(%8, %11, %12) <{aTransposed, arch = "gfx908:sramecc+:xnack-", derivedBlockSize = 256 : i32, features = #rock<GemmFeatures mfma|dot|atomic_add>, gridSize = 49 : i32, numCU = 120 : i32, params = #rock.xdlops_gemm_params<kpackPerBlock = 4, mPerBlock = 64, nPerBlock = 64, kpack = 8, mPerWave = 16, nPerWave = 64, forceUnroll = true>, storeMethod = #rock<StoreMethod set>}> : (memref<1x9x64xf32>, memref<1x576x3136xf32>, memref<1x64x3136xf32>) -> ()

Exception in gpu::mlir_op: /src/AMDMIGraphX/src/targets/gpu/mlir.cpp:731: run_backend_pipeline: MLIR backend compilation failed: Error: 'rock.gemm' op K dimensions don't match k_a = 9 k_b = 2304
Note: see current operation: "rock.gemm"(%8, %11, %12) <{aTransposed, arch = "gfx908:sramecc+:xnack-", derivedBlockSize = 256 : i32, features = #rock<GemmFeatures mfma|dot|atomic_add>, gridSize = 28 : i32, numCU = 120 : i32, params = #rock.xdlops_gemm_params<kpackPerBlock = 4, mPerBlock = 64, nPerBlock = 128, kpack = 4, mPerWave = 32, nPerWave = 64, forceUnroll = true>, storeMethod = #rock<StoreMethod set>}> : (memref<1x9x256xf32>, memref<1x2304x784xf32>, memref<1x256x784xf32>) -> ()

Exception in gpu::mlir_op: /src/AMDMIGraphX/src/targets/gpu/mlir.cpp:731: run_backend_pipeline: MLIR backend compilation failed: Error: 'rock.gemm' op K dimensions don't match k_a = 9 k_b = 2304
Note: see current operation: "rock.gemm"(%8, %11, %12) <{aTransposed, arch = "gfx908:sramecc+:xnack-", derivedBlockSize = 128 : i32, features = #rock<GemmFeatures mfma|dot|atomic_add>, gridSize = 32 : i32, numCU = 120 : i32, params = #rock.xdlops_gemm_params<kpackPerBlock = 8, mPerBlock = 32, nPerBlock = 64, kpack = 4, mPerWave = 32, nPerWave = 32, forceUnroll = true>, storeMethod = #rock<StoreMethod set>}> : (memref<1x9x256xf32>, memref<1x2304x196xf32>, memref<1x256x196xf32>) -> ()

Exception in gpu::mlir_op: /src/AMDMIGraphX/src/targets/gpu/mlir.cpp:731: run_backend_pipeline: MLIR backend compilation failed: Error: 'rock.gemm' op K dimensions don't match k_a = 9 k_b = 9216
Note: see current operation: "rock.gemm"(%8, %11, %12) <{aTransposed, arch = "gfx908:sramecc+:xnack-", derivedBlockSize = 64 : i32, features = #rock<GemmFeatures mfma|dot|atomic_add>, gridSize = 256 : i32, numCU = 120 : i32, params = #rock.xdlops_gemm_params<kpackPerBlock = 4, mPerBlock = 16, nPerBlock = 16, kpack = 4, mPerWave = 16, nPerWave = 16, forceUnroll = true>, storeMethod = #rock<StoreMethod set>}> : (memref<1x9x1024xf32>, memref<1x9216x49xf32>, memref<1x1024x49xf32>) -> ()

Exception in gpu::mlir_op: /src/AMDMIGraphX/src/targets/gpu/mlir.cpp:731: run_backend_pipeline: MLIR backend compilation failed: Error: 'rock.gemm' op K dimensions don't match k_a = 9 k_b = 4608
Note: see current operation: "rock.gemm"(%8, %11, %12) <{aTransposed, arch = "gfx908:sramecc+:xnack-", derivedBlockSize = 256 : i32, features = #rock<GemmFeatures mfma|dot|atomic_add>, gridSize = 4 : i32, numCU = 120 : i32, params = #rock.xdlops_gemm_params<kpackPerBlock = 2, mPerBlock = 128, nPerBlock = 128, kpack = 8, mPerWave = 64, nPerWave = 64, forceUnroll = true>, storeMethod = #rock<StoreMethod set>}> : (memref<1x9x512xf32>, memref<1x4608x49xf32>, memref<1x512x49xf32>) -> ()

Exception in gpu::mlir_op: /src/AMDMIGraphX/src/targets/gpu/mlir.cpp:731: run_backend_pipeline: MLIR backend compilation failed: Error: 'rock.gemm' op K dimensions don't match k_a = 9 k_b = 4608
Note: see current operation: "rock.gemm"(%8, %11, %12) <{aTransposed, arch = "gfx908:sramecc+:xnack-", derivedBlockSize = 128 : i32, features = #rock<GemmFeatures mfma|dot|atomic_add>, gridSize = 64 : i32, numCU = 120 : i32, params = #rock.xdlops_gemm_params<kpackPerBlock = 8, mPerBlock = 8, nPerBlock = 64, kpack = 8, mPerWave = 4, nPerWave = 64, forceUnroll = true>, storeMethod = #rock<StoreMethod set>}> : (memref<1x9x512xf32>, memref<1x4608x49xf32>, memref<1x512x49xf32>) -> ()

Exception in gpu::mlir_op: /src/AMDMIGraphX/src/targets/gpu/mlir.cpp:731: run_backend_pipeline: MLIR backend compilation failed: Error: 'rock.gemm' op K dimensions don't match k_a = 9 k_b = 288
Note: see current operation: "rock.gemm"(%8, %11, %12) <{aTransposed, arch = "gfx908:sramecc+:xnack-", derivedBlockSize = 256 : i32, features = #rock<GemmFeatures mfma|dot|atomic_add>, gridSize = 98 : i32, numCU = 120 : i32, params = #rock.xdlops_gemm_params<kpackPerBlock = 2, mPerBlock = 128, nPerBlock = 128, kpack = 8, mPerWave = 64, nPerWave = 64, forceUnroll = true>, storeMethod = #rock<StoreMethod set>}> : (memref<1x9x32xf32>, memref<1x288x12544xf32>, memref<1x32x12544xf32>) -> ()

Exception in gpu::mlir_op: /src/AMDMIGraphX/src/targets/gpu/mlir.cpp:731: run_backend_pipeline: MLIR backend compilation failed: Error: 'rock.gemm' op K dimensions don't match k_a = 9 k_b = 4608
Note: see current operation: "rock.gemm"(%8, %11, %12) <{aTransposed, arch = "gfx908:sramecc+:xnack-", derivedBlockSize = 256 : i32, features = #rock<GemmFeatures mfma|dot|atomic_add>, gridSize = 112 : i32, numCU = 120 : i32, params = #rock.xdlops_gemm_params<kpackPerBlock = 4, mPerBlock = 32, nPerBlock = 32, kpack = 8, mPerWave = 16, nPerWave = 16, forceUnroll = true>, storeMethod = #rock<StoreMethod set>}> : (memref<1x9x512xf32>, memref<1x4608x196xf32>, memref<1x512x196xf32>) -> ()

Exception in gpu::mlir_op: /src/AMDMIGraphX/src/targets/gpu/mlir.cpp:731: run_backend_pipeline: MLIR backend compilation failed: Error: 'rock.gemm' op K dimensions don't match k_a = 9 k_b = 1152
Note: see current operation: "rock.gemm"(%8, %11, %12) <{aTransposed, arch = "gfx908:sramecc+:xnack-", derivedBlockSize = 256 : i32, features = #rock<GemmFeatures mfma|dot|atomic_add>, gridSize = 392 : i32, numCU = 120 : i32, params = #rock.xdlops_gemm_params<kpackPerBlock = 8, mPerBlock = 32, nPerBlock = 32, kpack = 8, mPerWave = 16, nPerWave = 16, forceUnroll = true>, storeMethod = #rock<StoreMethod set>}> : (memref<1x9x128xf32>, memref<1x1152x3136xf32>, memref<1x128x3136xf32>) -> ()

Exception in gpu::mlir_op: /src/AMDMIGraphX/src/targets/gpu/mlir.cpp:731: run_backend_pipeline: MLIR backend compilation failed: Error: 'rock.gemm' op K dimensions don't match k_a = 9 k_b = 2304
Note: see current operation: "rock.gemm"(%8, %11, %12) <{aTransposed, arch = "gfx908:sramecc+:xnack-", derivedBlockSize = 256 : i32, features = #rock<GemmFeatures mfma|dot|atomic_add>, gridSize = 4 : i32, numCU = 120 : i32, params = #rock.xdlops_gemm_params<kpackPerBlock = 8, mPerBlock = 64, nPerBlock = 256, kpack = 1, mPerWave = 64, nPerWave = 64, forceUnroll = true>, storeMethod = #rock<StoreMethod set>}> : (memref<1x9x256xf32>, memref<1x2304x196xf32>, memref<1x256x196xf32>) -> ()

Exception in gpu::mlir_op: /src/AMDMIGraphX/src/targets/gpu/mlir.cpp:731: run_backend_pipeline: MLIR backend compilation failed: Error: 'rock.gemm' op K dimensions don't match k_a = 9 k_b = 1152
Note: see current operation: "rock.gemm"(%8, %11, %12) <{aTransposed, arch = "gfx908:sramecc+:xnack-", derivedBlockSize = 256 : i32, features = #rock<GemmFeatures mfma|dot|atomic_add>, gridSize = 25 : i32, numCU = 120 : i32, params = #rock.xdlops_gemm_params<kpackPerBlock = 8, mPerBlock = 128, nPerBlock = 128, kpack = 1, mPerWave = 64, nPerWave = 64, forceUnroll = true>, storeMethod = #rock<StoreMethod set>}> : (memref<1x9x128xf32>, memref<1x1152x3136xf32>, memref<1x128x3136xf32>) -> ()

Exception in gpu::mlir_op: /src/AMDMIGraphX/src/targets/gpu/mlir.cpp:731: run_backend_pipeline: MLIR backend compilation failed: Error: 'rock.gemm' op K dimensions don't match k_a = 9 k_b = 9216
Note: see current operation: "rock.gemm"(%8, %11, %12) <{aTransposed, arch = "gfx908:sramecc+:xnack-", derivedBlockSize = 256 : i32, features = #rock<GemmFeatures mfma|dot|atomic_add>, gridSize = 8 : i32, numCU = 120 : i32, params = #rock.xdlops_gemm_params<kpackPerBlock = 4, mPerBlock = 128, nPerBlock = 128, kpack = 8, mPerWave = 64, nPerWave = 64, forceUnroll = true>, storeMethod = #rock<StoreMethod set>}> : (memref<1x9x1024xf32>, memref<1x9216x49xf32>, memref<1x1024x49xf32>) -> ()

Exception in gpu::mlir_op: /src/AMDMIGraphX/src/targets/gpu/mlir.cpp:731: run_backend_pipeline: MLIR backend compilation failed: Error: 'rock.gemm' op K dimensions don't match k_a = 9 k_b = 1152
Note: see current operation: "rock.gemm"(%8, %11, %12) <{aTransposed, arch = "gfx908:sramecc+:xnack-", derivedBlockSize = 256 : i32, features = #rock<GemmFeatures mfma|dot|atomic_add>, gridSize = 100 : i32, numCU = 120 : i32, params = #rock.xdlops_gemm_params<kpackPerBlock = 4, mPerBlock = 32, nPerBlock = 32, kpack = 8, mPerWave = 16, nPerWave = 16, forceUnroll = true>, storeMethod = #rock<StoreMethod set>}> : (memref<1x9x128xf32>, memref<1x1152x784xf32>, memref<1x128x784xf32>) -> ()

Exception in gpu::mlir_op: /src/AMDMIGraphX/src/targets/gpu/mlir.cpp:731: run_backend_pipeline: MLIR backend compilation failed: Error: 'rock.gemm' op K dimensions don't match k_a = 9 k_b = 576
Note: see current operation: "rock.gemm"(%8, %11, %12) <{aTransposed, arch = "gfx908:sramecc+:xnack-", derivedBlockSize = 128 : i32, features = #rock<GemmFeatures mfma|dot|atomic_add>, gridSize = 98 : i32, numCU = 120 : i32, params = #rock.xdlops_gemm_params<kpackPerBlock = 8, mPerBlock = 32, nPerBlock = 64, kpack = 4, mPerWave = 32, nPerWave = 32, forceUnroll = true>, storeMethod = #rock<StoreMethod set>}> : (memref<1x9x64xf32>, memref<1x576x3136xf32>, memref<1x64x3136xf32>) -> ()

Exception in gpu::mlir_op: /src/AMDMIGraphX/src/targets/gpu/mlir.cpp:731: run_backend_pipeline: MLIR backend compilation failed: Error: 'rock.gemm' op K dimensions don't match k_a = 9 k_b = 2304
Note: see current operation: "rock.gemm"(%8, %11, %12) <{aTransposed, arch = "gfx908:sramecc+:xnack-", derivedBlockSize = 256 : i32, features = #rock<GemmFeatures mfma|dot|atomic_add>, gridSize = 28 : i32, numCU = 120 : i32, params = #rock.xdlops_gemm_params<kpackPerBlock = 2, mPerBlock = 64, nPerBlock = 128, kpack = 8, mPerWave = 32, nPerWave = 64, forceUnroll = true>, storeMethod = #rock<StoreMethod set>}> : (memref<1x9x256xf32>, memref<1x2304x784xf32>, memref<1x256x784xf32>) -> ()

Exception in gpu::mlir_op: /src/AMDMIGraphX/src/targets/gpu/mlir.cpp:731: run_backend_pipeline: MLIR backend compilation failed: Error: 'rock.gemm' op K dimensions don't match k_a = 9 k_b = 2304
Note: see current operation: "rock.gemm"(%8, %11, %12) <{aTransposed, arch = "gfx908:sramecc+:xnack-", derivedBlockSize = 256 : i32, features = #rock<GemmFeatures mfma|dot|atomic_add>, gridSize = 32 : i32, numCU = 120 : i32, params = #rock.xdlops_gemm_params<kpackPerBlock = 8, mPerBlock = 32, nPerBlock = 64, kpack = 4, mPerWave = 8, nPerWave = 64, forceUnroll = true>, storeMethod = #rock<StoreMethod set>}> : (memref<1x9x256xf32>, memref<1x2304x196xf32>, memref<1x256x196xf32>) -> ()

Exception in gpu::mlir_op: /src/AMDMIGraphX/src/targets/gpu/mlir.cpp:731: run_backend_pipeline: MLIR backend compilation failed: Error: 'rock.gemm' op K dimensions don't match k_a = 9 k_b = 4608
Note: see current operation: "rock.gemm"(%8, %11, %12) <{aTransposed, arch = "gfx908:sramecc+:xnack-", derivedBlockSize = 256 : i32, features = #rock<GemmFeatures mfma|dot|atomic_add>, gridSize = 4 : i32, numCU = 120 : i32, params = #rock.xdlops_gemm_params<kpackPerBlock = 2, mPerBlock = 128, nPerBlock = 128, kpack = 4, mPerWave = 64, nPerWave = 64, forceUnroll = true>, storeMethod = #rock<StoreMethod set>}> : (memref<1x9x512xf32>, memref<1x4608x49xf32>, memref<1x512x49xf32>) -> ()

Exception in gpu::mlir_op: /src/AMDMIGraphX/src/targets/gpu/mlir.cpp:731: run_backend_pipeline: MLIR backend compilation failed: Error: 'rock.gemm' op K dimensions don't match k_a = 9 k_b = 4608
Note: see current operation: "rock.gemm"(%8, %11, %12) <{aTransposed, arch = "gfx908:sramecc+:xnack-", derivedBlockSize = 128 : i32, features = #rock<GemmFeatures mfma|dot|atomic_add>, gridSize = 224 : i32, numCU = 120 : i32, params = #rock.xdlops_gemm_params<kpackPerBlock = 8, mPerBlock = 16, nPerBlock = 32, kpack = 4, mPerWave = 16, nPerWave = 16, forceUnroll = true>, storeMethod = #rock<StoreMethod set>}> : (memref<1x9x512xf32>, memref<1x4608x196xf32>, memref<1x512x196xf32>) -> ()

Exception in gpu::mlir_op: /src/AMDMIGraphX/src/targets/gpu/mlir.cpp:731: run_backend_pipeline: MLIR backend compilation failed: Error: 'rock.gemm' op K dimensions don't match k_a = 9 k_b = 288
Note: see current operation: "rock.gemm"(%8, %11, %12) <{aTransposed, arch = "gfx908:sramecc+:xnack-", derivedBlockSize = 256 : i32, features = #rock<GemmFeatures mfma|dot|atomic_add>, gridSize = 98 : i32, numCU = 120 : i32, params = #rock.xdlops_gemm_params<kpackPerBlock = 2, mPerBlock = 128, nPerBlock = 128, kpack = 4, mPerWave = 64, nPerWave = 64, forceUnroll = true>, storeMethod = #rock<StoreMethod set>}> : (memref<1x9x32xf32>, memref<1x288x12544xf32>, memref<1x32x12544xf32>) -> ()

Exception in gpu::mlir_op: /src/AMDMIGraphX/src/targets/gpu/mlir.cpp:731: run_backend_pipeline: MLIR backend compilation failed: Error: 'rock.gemm' op K dimensions don't match k_a = 9 k_b = 2304
Note: see current operation: "rock.gemm"(%8, %11, %12) <{aTransposed, arch = "gfx908:sramecc+:xnack-", derivedBlockSize = 256 : i32, features = #rock<GemmFeatures mfma|dot|atomic_add>, gridSize = 4 : i32, numCU = 120 : i32, params = #rock.xdlops_gemm_params<kpackPerBlock = 4, mPerBlock = 64, nPerBlock = 256, kpack = 4, mPerWave = 64, nPerWave = 64, forceUnroll = true>, storeMethod = #rock<StoreMethod set>}> : (memref<1x9x256xf32>, memref<1x2304x196xf32>, memref<1x256x196xf32>) -> ()

Exception in gpu::mlir_op: /src/AMDMIGraphX/src/targets/gpu/mlir.cpp:731: run_backend_pipeline: MLIR backend compilation failed: Error: 'rock.gemm' op K dimensions don't match k_a = 9 k_b = 1152
Note: see current operation: "rock.gemm"(%8, %11, %12) <{aTransposed, arch = "gfx908:sramecc+:xnack-", derivedBlockSize = 256 : i32, features = #rock<GemmFeatures mfma|dot|atomic_add>, gridSize = 392 : i32, numCU = 120 : i32, params = #rock.xdlops_gemm_params<kpackPerBlock = 8, mPerBlock = 16, nPerBlock = 64, kpack = 8, mPerWave = 16, nPerWave = 16, forceUnroll = true>, storeMethod = #rock<StoreMethod set>}> : (memref<1x9x128xf32>, memref<1x1152x3136xf32>, memref<1x128x3136xf32>) -> ()

Exception in gpu::mlir_op: /src/AMDMIGraphX/src/targets/gpu/mlir.cpp:731: run_backend_pipeline: MLIR backend compilation failed: Error: 'rock.gemm' op K dimensions don't match k_a = 9 k_b = 1152
Note: see current operation: "rock.gemm"(%8, %11, %12) <{aTransposed, arch = "gfx908:sramecc+:xnack-", derivedBlockSize = 128 : i32, features = #rock<GemmFeatures mfma|dot|atomic_add>, gridSize = 25 : i32, numCU = 120 : i32, params = #rock.xdlops_gemm_params<kpackPerBlock = 4, mPerBlock = 128, nPerBlock = 128, kpack = 4, mPerWave = 64, nPerWave = 128, forceUnroll = true>, storeMethod = #rock<StoreMethod set>}> : (memref<1x9x128xf32>, memref<1x1152x3136xf32>, memref<1x128x3136xf32>) -> ()

Exception in gpu::mlir_op: /src/AMDMIGraphX/src/targets/gpu/mlir.cpp:731: run_backend_pipeline: MLIR backend compilation failed: Error: 'rock.gemm' op K dimensions don't match k_a = 9 k_b = 9216
Note: see current operation: "rock.gemm"(%8, %11, %12) <{aTransposed, arch = "gfx908:sramecc+:xnack-", derivedBlockSize = 64 : i32, features = #rock<GemmFeatures mfma|dot|atomic_add>, gridSize = 256 : i32, numCU = 120 : i32, params = #rock.xdlops_gemm_params<kpackPerBlock = 16, mPerBlock = 4, nPerBlock = 64, kpack = 1, mPerWave = 4, nPerWave = 64, forceUnroll = true>, storeMethod = #rock<StoreMethod set>}> : (memref<1x9x1024xf32>, memref<1x9216x49xf32>, memref<1x1024x49xf32>) -> ()

Exception in gpu::mlir_op: /src/AMDMIGraphX/src/targets/gpu/mlir.cpp:731: run_backend_pipeline: MLIR backend compilation failed: Error: 'rock.gemm' op K dimensions don't match k_a = 9 k_b = 9216
Note: see current operation: "rock.gemm"(%8, %11, %12) <{aTransposed, arch = "gfx908:sramecc+:xnack-", derivedBlockSize = 256 : i32, features = #rock<GemmFeatures mfma|dot|atomic_add>, gridSize = 16 : i32, numCU = 120 : i32, params = #rock.xdlops_gemm_params<kpackPerBlock = 8, mPerBlock = 64, nPerBlock = 256, kpack = 1, mPerWave = 64, nPerWave = 64, forceUnroll = true>, storeMethod = #rock<StoreMethod set>}> : (memref<1x9x1024xf32>, memref<1x9216x49xf32>, memref<1x1024x49xf32>) -> ()

Exception in gpu::mlir_op: /src/AMDMIGraphX/src/targets/gpu/mlir.cpp:731: run_backend_pipeline: MLIR backend compilation failed: Error: 'rock.gemm' op K dimensions don't match k_a = 9 k_b = 576
Note: see current operation: "rock.gemm"(%8, %11, %12) <{aTransposed, arch = "gfx908:sramecc+:xnack-", derivedBlockSize = 256 : i32, features = #rock<GemmFeatures mfma|dot|atomic_add>, gridSize = 98 : i32, numCU = 120 : i32, params = #rock.xdlops_gemm_params<kpackPerBlock = 8, mPerBlock = 32, nPerBlock = 64, kpack = 4, mPerWave = 8, nPerWave = 64, forceUnroll = true>, storeMethod = #rock<StoreMethod set>}> : (memref<1x9x64xf32>, memref<1x576x3136xf32>, memref<1x64x3136xf32>) -> ()

Exception in gpu::mlir_op: /src/AMDMIGraphX/src/targets/gpu/mlir.cpp:731: run_backend_pipeline: MLIR backend compilation failed: Error: 'rock.gemm' op K dimensions don't match k_a = 9 k_b = 1152
Note: see current operation: "rock.gemm"(%8, %11, %12) <{aTransposed, arch = "gfx908:sramecc+:xnack-", derivedBlockSize = 128 : i32, features = #rock<GemmFeatures mfma|dot|atomic_add>, gridSize = 200 : i32, numCU = 120 : i32, params = #rock.xdlops_gemm_params<kpackPerBlock = 8, mPerBlock = 16, nPerBlock = 32, kpack = 4, mPerWave = 16, nPerWave = 16, forceUnroll = true>, storeMethod = #rock<StoreMethod set>}> : (memref<1x9x128xf32>, memref<1x1152x784xf32>, memref<1x128x784xf32>) -> ()

Exception in gpu::mlir_op: /src/AMDMIGraphX/src/targets/gpu/mlir.cpp:731: run_backend_pipeline: MLIR backend compilation failed: Error: 'rock.gemm' op K dimensions don't match k_a = 9 k_b = 2304
Note: see current operation: "rock.gemm"(%8, %11, %12) <{aTransposed, arch = "gfx908:sramecc+:xnack-", derivedBlockSize = 256 : i32, features = #rock<GemmFeatures mfma|dot|atomic_add>, gridSize = 28 : i32, numCU = 120 : i32, params = #rock.xdlops_gemm_params<kpackPerBlock = 2, mPerBlock = 64, nPerBlock = 128, kpack = 4, mPerWave = 32, nPerWave = 64, forceUnroll = true>, storeMethod = #rock<StoreMethod set>}> : (memref<1x9x256xf32>, memref<1x2304x784xf32>, memref<1x256x784xf32>) -> ()

Exception in gpu::mlir_op: /src/AMDMIGraphX/src/targets/gpu/mlir.cpp:731: run_backend_pipeline: MLIR backend compilation failed: Error: 'rock.gemm' op K dimensions don't match k_a = 9 k_b = 2304
Note: see current operation: "rock.gemm"(%8, %11, %12) <{aTransposed, arch = "gfx908:sramecc+:xnack-", derivedBlockSize = 256 : i32, features = #rock<GemmFeatures mfma|dot|atomic_add>, gridSize = 64 : i32, numCU = 120 : i32, params = #rock.xdlops_gemm_params<kpackPerBlock = 8, mPerBlock = 16, nPerBlock = 64, kpack = 4, mPerWave = 16, nPerWave = 16, forceUnroll = true>, storeMethod = #rock<StoreMethod set>}> : (memref<1x9x256xf32>, memref<1x2304x196xf32>, memref<1x256x196xf32>) -> ()

Exception in gpu::mlir_op: /src/AMDMIGraphX/src/targets/gpu/mlir.cpp:731: run_backend_pipeline: MLIR backend compilation failed: Error: 'rock.gemm' op K dimensions don't match k_a = 9 k_b = 4608
Note: see current operation: "rock.gemm"(%8, %11, %12) <{aTransposed, arch = "gfx908:sramecc+:xnack-", derivedBlockSize = 256 : i32, features = #rock<GemmFeatures mfma|dot|atomic_add>, gridSize = 8 : i32, numCU = 120 : i32, params = #rock.xdlops_gemm_params<kpackPerBlock = 4, mPerBlock = 64, nPerBlock = 128, kpack = 4, mPerWave = 32, nPerWave = 64, forceUnroll = true>, storeMethod = #rock<StoreMethod set>}> : (memref<1x9x512xf32>, memref<1x4608x49xf32>, memref<1x512x49xf32>) -> ()

Exception in gpu::mlir_op: /src/AMDMIGraphX/src/targets/gpu/mlir.cpp:731: run_backend_pipeline: MLIR backend compilation failed: Error: 'rock.gemm' op K dimensions don't match k_a = 9 k_b = 4608
Note: see current operation: "rock.gemm"(%8, %11, %12) <{aTransposed, arch = "gfx908:sramecc+:xnack-", derivedBlockSize = 256 : i32, features = #rock<GemmFeatures mfma|dot|atomic_add>, gridSize = 8 : i32, numCU = 120 : i32, params = #rock.xdlops_gemm_params<kpackPerBlock = 8, mPerBlock = 128, nPerBlock = 128, kpack = 4, mPerWave = 64, nPerWave = 64, forceUnroll = true>, storeMethod = #rock<StoreMethod set>}> : (memref<1x9x512xf32>, memref<1x4608x196xf32>, memref<1x512x196xf32>) -> ()

Exception in gpu::mlir_op: /src/AMDMIGraphX/src/targets/gpu/mlir.cpp:731: run_backend_pipeline: MLIR backend compilation failed: Error: 'rock.gemm' op K dimensions don't match k_a = 9 k_b = 288
Note: see current operation: "rock.gemm"(%8, %11, %12) <{aTransposed, arch = "gfx908:sramecc+:xnack-", derivedBlockSize = 256 : i32, features = #rock<GemmFeatures mfma|dot|atomic_add>, gridSize = 196 : i32, numCU = 120 : i32, params = #rock.xdlops_gemm_params<kpackPerBlock = 8, mPerBlock = 64, nPerBlock = 64, kpack = 4, mPerWave = 32, nPerWave = 32, forceUnroll = true>, storeMethod = #rock<StoreMethod set>}> : (memref<1x9x32xf32>, memref<1x288x12544xf32>, memref<1x32x12544xf32>) -> ()

Exception in gpu::mlir_op: /src/AMDMIGraphX/src/targets/gpu/mlir.cpp:731: run_backend_pipeline: MLIR backend compilation failed: Error: 'rock.gemm' op K dimensions don't match k_a = 9 k_b = 1152
Note: see current operation: "rock.gemm"(%8, %11, %12) <{aTransposed, arch = "gfx908:sramecc+:xnack-", derivedBlockSize = 128 : i32, features = #rock<GemmFeatures mfma|dot|atomic_add>, gridSize = 784 : i32, numCU = 120 : i32, params = #rock.xdlops_gemm_params<kpackPerBlock = 8, mPerBlock = 16, nPerBlock = 32, kpack = 8, mPerWave = 16, nPerWave = 16, forceUnroll = true>, storeMethod = #rock<StoreMethod set>}> : (memref<1x9x128xf32>, memref<1x1152x3136xf32>, memref<1x128x3136xf32>) -> ()

Exception in gpu::mlir_op: /src/AMDMIGraphX/src/targets/gpu/mlir.cpp:731: run_backend_pipeline: MLIR backend compilation failed: Error: 'rock.gemm' op K dimensions don't match k_a = 9 k_b = 2304
Note: see current operation: "rock.gemm"(%8, %11, %12) <{aTransposed, arch = "gfx908:sramecc+:xnack-", derivedBlockSize = 256 : i32, features = #rock<GemmFeatures mfma|dot|atomic_add>, gridSize = 8 : i32, numCU = 120 : i32, params = #rock.xdlops_gemm_params<kpackPerBlock = 4, mPerBlock = 64, nPerBlock = 128, kpack = 4, mPerWave = 32, nPerWave = 64, forceUnroll = true>, storeMethod = #rock<StoreMethod set>}> : (memref<1x9x256xf32>, memref<1x2304x196xf32>, memref<1x256x196xf32>) -> ()
Exception in gpu::mlir_op: /src/AMDMIGraphX/src/targets/gpu/mlir.cpp:731: run_backend_pipeline: MLIR backend compilation failed: Error: 'rock.gemm' op K dimensions don't match k_a = 9 k_b = 1152
Note: see current operation: "rock.gemm"(%8, %11, %12) <{aTransposed, arch = "gfx908:sramecc+:xnack-", derivedBlockSize = 256 : i32, features = #rock<GemmFeatures mfma|dot|atomic_add>, gridSize = 25 : i32, numCU = 120 : i32, params = #rock.xdlops_gemm_params<kpackPerBlock = 4, mPerBlock = 128, nPerBlock = 128, kpack = 4, mPerWave = 64, nPerWave = 64, forceUnroll = true>, storeMethod = #rock<StoreMethod set>}> : (memref<1x9x128xf32>, memref<1x1152x3136xf32>, memref<1x128x3136xf32>) -> ()


Exception in gpu::mlir_op: /src/AMDMIGraphX/src/targets/gpu/mlir.cpp:731: run_backend_pipeline: MLIR backend compilation failed: Error: 'rock.gemm' op K dimensions don't match k_a = 9 k_b = 9216
Note: see current operation: "rock.gemm"(%8, %11, %12) <{aTransposed, arch = "gfx908:sramecc+:xnack-", derivedBlockSize = 256 : i32, features = #rock<GemmFeatures mfma|dot|atomic_add>, gridSize = 16 : i32, numCU = 120 : i32, params = #rock.xdlops_gemm_params<kpackPerBlock = 4, mPerBlock = 64, nPerBlock = 256, kpack = 4, mPerWave = 64, nPerWave = 64, forceUnroll = true>, storeMethod = #rock<StoreMethod set>}> : (memref<1x9x1024xf32>, memref<1x9216x49xf32>, memref<1x1024x49xf32>) -> ()

Exception in gpu::mlir_op: /src/AMDMIGraphX/src/targets/gpu/mlir.cpp:731: run_backend_pipeline: MLIR backend compilation failed: Error: 'rock.gemm' op K dimensions don't match k_a = 9 k_b = 9216
Note: see current operation: "rock.gemm"(%8, %11, %12) <{aTransposed, arch = "gfx908:sramecc+:xnack-", derivedBlockSize = 64 : i32, features = #rock<GemmFeatures mfma|dot|atomic_add>, gridSize = 256 : i32, numCU = 120 : i32, params = #rock.xdlops_gemm_params<kpackPerBlock = 2, mPerBlock = 4, nPerBlock = 64, kpack = 8, mPerWave = 4, nPerWave = 64, forceUnroll = true>, storeMethod = #rock<StoreMethod set>}> : (memref<1x9x1024xf32>, memref<1x9216x49xf32>, memref<1x1024x49xf32>) -> ()

Exception in gpu::mlir_op: /src/AMDMIGraphX/src/targets/gpu/mlir.cpp:731: run_backend_pipeline: MLIR backend compilation failed: Error: 'rock.gemm' op K dimensions don't match k_a = 9 k_b = 576
Note: see current operation: "rock.gemm"(%8, %11, %12) <{aTransposed, arch = "gfx908:sramecc+:xnack-", derivedBlockSize = 256 : i32, features = #rock<GemmFeatures mfma|dot|atomic_add>, gridSize = 196 : i32, numCU = 120 : i32, params = #rock.xdlops_gemm_params<kpackPerBlock = 8, mPerBlock = 32, nPerBlock = 32, kpack = 4, mPerWave = 16, nPerWave = 16, forceUnroll = true>, storeMethod = #rock<StoreMethod set>}> : (memref<1x9x64xf32>, memref<1x576x3136xf32>, memref<1x64x3136xf32>) -> ()

Exception in gpu::mlir_op: /src/AMDMIGraphX/src/targets/gpu/mlir.cpp:731: run_backend_pipeline: MLIR backend compilation failed: Error: 'rock.gemm' op K dimensions don't match k_a = 9 k_b = 2304
Note: see current operation: "rock.gemm"(%8, %11, %12) <{aTransposed, arch = "gfx908:sramecc+:xnack-", derivedBlockSize = 256 : i32, features = #rock<GemmFeatures mfma|dot|atomic_add>, gridSize = 56 : i32, numCU = 120 : i32, params = #rock.xdlops_gemm_params<kpackPerBlock = 4, mPerBlock = 32, nPerBlock = 128, kpack = 4, mPerWave = 32, nPerWave = 32, forceUnroll = true>, storeMethod = #rock<StoreMethod set>}> : (memref<1x9x256xf32>, memref<1x2304x784xf32>, memref<1x256x784xf32>) -> ()

Exception in gpu::mlir_op: /src/AMDMIGraphX/src/targets/gpu/mlir.cpp:731: run_backend_pipeline: MLIR backend compilation failed: Error: 'rock.gemm' op K dimensions don't match k_a = 9 k_b = 1152
Note: see current operation: "rock.gemm"(%8, %11, %12) <{aTransposed, arch = "gfx908:sramecc+:xnack-", derivedBlockSize = 256 : i32, features = #rock<GemmFeatures mfma|dot|atomic_add>, gridSize = 26 : i32, numCU = 120 : i32, params = #rock.xdlops_gemm_params<kpackPerBlock = 8, mPerBlock = 64, nPerBlock = 64, kpack = 4, mPerWave = 32, nPerWave = 32, forceUnroll = true>, storeMethod = #rock<StoreMethod set>}> : (memref<1x9x128xf32>, memref<1x1152x784xf32>, memref<1x128x784xf32>) -> ()

Exception in gpu::mlir_op: /src/AMDMIGraphX/src/targets/gpu/mlir.cpp:731: run_backend_pipeline: MLIR backend compilation failed: Error: 'rock.gemm' op K dimensions don't match k_a = 9 k_b = 1152
Note: see current operation: "rock.gemm"(%8, %11, %12) <{aTransposed, arch = "gfx908:sramecc+:xnack-", derivedBlockSize = 128 : i32, features = #rock<GemmFeatures mfma|dot|atomic_add>, gridSize = 25 : i32, numCU = 120 : i32, params = #rock.xdlops_gemm_params<kpackPerBlock = 2, mPerBlock = 128, nPerBlock = 128, kpack = 8, mPerWave = 64, nPerWave = 128, forceUnroll = true>, storeMethod = #rock<StoreMethod set>}> : (memref<1x9x128xf32>, memref<1x1152x3136xf32>, memref<1x128x3136xf32>) -> ()

Exception in gpu::mlir_op: /src/AMDMIGraphX/src/targets/gpu/mlir.cpp:731: run_backend_pipeline: MLIR backend compilation failed: Error: 'rock.gemm' op K dimensions don't match k_a = 9 k_b = 2304
Note: see current operation: "rock.gemm"(%8, %11, %12) <{aTransposed, arch = "gfx908:sramecc+:xnack-", derivedBlockSize = 64 : i32, features = #rock<GemmFeatures mfma|dot|atomic_add>, gridSize = 208 : i32, numCU = 120 : i32, params = #rock.xdlops_gemm_params<kpackPerBlock = 8, mPerBlock = 16, nPerBlock = 16, kpack = 8, mPerWave = 16, nPerWave = 16, forceUnroll = true>, storeMethod = #rock<StoreMethod set>}> : (memref<1x9x256xf32>, memref<1x2304x196xf32>, memref<1x256x196xf32>) -> ()

Exception in gpu::mlir_op: /src/AMDMIGraphX/src/targets/gpu/mlir.cpp:731: run_backend_pipeline: MLIR backend compilation failed: Error: 'rock.gemm' op K dimensions don't match k_a = 9 k_b = 4608
Note: see current operation: "rock.gemm"(%8, %11, %12) <{aTransposed, arch = "gfx908:sramecc+:xnack-", derivedBlockSize = 256 : i32, features = #rock<GemmFeatures mfma|dot|atomic_add>, gridSize = 8 : i32, numCU = 120 : i32, params = #rock.xdlops_gemm_params<kpackPerBlock = 2, mPerBlock = 64, nPerBlock = 128, kpack = 8, mPerWave = 32, nPerWave = 64, forceUnroll = true>, storeMethod = #rock<StoreMethod set>}> : (memref<1x9x512xf32>, memref<1x4608x49xf32>, memref<1x512x49xf32>) -> ()

Exception in gpu::mlir_op: /src/AMDMIGraphX/src/targets/gpu/mlir.cpp:731: run_backend_pipeline: MLIR backend compilation failed: Error: 'rock.gemm' op K dimensions don't match k_a = 9 k_b = 1152
Note: see current operation: "rock.gemm"(%8, %11, %12) <{aTransposed, arch = "gfx908:sramecc+:xnack-", derivedBlockSize = 64 : i32, features = #rock<GemmFeatures mfma|dot|atomic_add>, gridSize = 1568 : i32, numCU = 120 : i32, params = #rock.xdlops_gemm_params<kpackPerBlock = 8, mPerBlock = 16, nPerBlock = 16, kpack = 8, mPerWave = 16, nPerWave = 16, forceUnroll = true>, storeMethod = #rock<StoreMethod set>}> : (memref<1x9x128xf32>, memref<1x1152x3136xf32>, memref<1x128x3136xf32>) -> ()

Exception in gpu::mlir_op: /src/AMDMIGraphX/src/targets/gpu/mlir.cpp:731: run_backend_pipeline: MLIR backend compilation failed: Error: 'rock.gemm' op K dimensions don't match k_a = 9 k_b = 4608
Note: see current operation: "rock.gemm"(%8, %11, %12) <{aTransposed, arch = "gfx908:sramecc+:xnack-", derivedBlockSize = 256 : i32, features = #rock<GemmFeatures mfma|dot|atomic_add>, gridSize = 8 : i32, numCU = 120 : i32, params = #rock.xdlops_gemm_params<kpackPerBlock = 4, mPerBlock = 128, nPerBlock = 128, kpack = 8, mPerWave = 64, nPerWave = 64, forceUnroll = true>, storeMethod = #rock<StoreMethod set>}> : (memref<1x9x512xf32>, memref<1x4608x196xf32>, memref<1x512x196xf32>) -> ()

Exception in gpu::mlir_op: /src/AMDMIGraphX/src/targets/gpu/mlir.cpp:731: run_backend_pipeline: MLIR backend compilation failed: Error: 'rock.gemm' op K dimensions don't match k_a = 9 k_b = 2304
Note: see current operation: "rock.gemm"(%8, %11, %12) <{aTransposed, arch = "gfx908:sramecc+:xnack-", derivedBlockSize = 256 : i32, features = #rock<GemmFeatures mfma|dot|atomic_add>, gridSize = 8 : i32, numCU = 120 : i32, params = #rock.xdlops_gemm_params<kpackPerBlock = 2, mPerBlock = 64, nPerBlock = 128, kpack = 8, mPerWave = 32, nPerWave = 64, forceUnroll = true>, storeMethod = #rock<StoreMethod set>}> : (memref<1x9x256xf32>, memref<1x2304x196xf32>, memref<1x256x196xf32>) -> ()

Exception in gpu::mlir_op: /src/AMDMIGraphX/src/targets/gpu/mlir.cpp:731: run_backend_pipeline: MLIR backend compilation failed: Error: 'rock.gemm' op K dimensions don't match k_a = 9 k_b = 9216
Note: see current operation: "rock.gemm"(%8, %11, %12) <{aTransposed, arch = "gfx908:sramecc+:xnack-", derivedBlockSize = 256 : i32, features = #rock<GemmFeatures mfma|dot|atomic_add>, gridSize = 64 : i32, numCU = 120 : i32, params = #rock.xdlops_gemm_params<kpackPerBlock = 8, mPerBlock = 32, nPerBlock = 32, kpack = 8, mPerWave = 16, nPerWave = 16, forceUnroll = true>, storeMethod = #rock<StoreMethod set>}> : (memref<1x9x1024xf32>, memref<1x9216x49xf32>, memref<1x1024x49xf32>) -> ()

Exception in gpu::mlir_op: /src/AMDMIGraphX/src/targets/gpu/mlir.cpp:731: run_backend_pipeline: MLIR backend compilation failed: Error: 'rock.gemm' op K dimensions don't match k_a = 9 k_b = 288
Note: see current operation: "rock.gemm"(%8, %11, %12) <{aTransposed, arch = "gfx908:sramecc+:xnack-", derivedBlockSize = 256 : i32, features = #rock<GemmFeatures mfma|dot|atomic_add>, gridSize = 196 : i32, numCU = 120 : i32, params = #rock.xdlops_gemm_params<kpackPerBlock = 4, mPerBlock = 64, nPerBlock = 64, kpack = 8, mPerWave = 32, nPerWave = 32, forceUnroll = true>, storeMethod = #rock<StoreMethod set>}> : (memref<1x9x32xf32>, memref<1x288x12544xf32>, memref<1x32x12544xf32>) -> ()

Exception in gpu::mlir_op: /src/AMDMIGraphX/src/targets/gpu/mlir.cpp:731: run_backend_pipeline: MLIR backend compilation failed: Error: 'rock.gemm' op K dimensions don't match k_a = 9 k_b = 576
Note: see current operation: "rock.gemm"(%8, %11, %12) <{aTransposed, arch = "gfx908:sramecc+:xnack-", derivedBlockSize = 256 : i32, features = #rock<GemmFeatures mfma|dot|atomic_add>, gridSize = 196 : i32, numCU = 120 : i32, params = #rock.xdlops_gemm_params<kpackPerBlock = 4, mPerBlock = 32, nPerBlock = 32, kpack = 8, mPerWave = 16, nPerWave = 16, forceUnroll = true>, storeMethod = #rock<StoreMethod set>}> : (memref<1x9x64xf32>, memref<1x576x3136xf32>, memref<1x64x3136xf32>) -> ()

Exception in gpu::mlir_op: /src/AMDMIGraphX/src/targets/gpu/mlir.cpp:731: run_backend_pipeline: MLIR backend compilation failed: Error: 'rock.gemm' op K dimensions don't match k_a = 9 k_b = 2304
Note: see current operation: "rock.gemm"(%8, %11, %12) <{aTransposed, arch = "gfx908:sramecc+:xnack-", derivedBlockSize = 256 : i32, features = #rock<GemmFeatures mfma|dot|atomic_add>, gridSize = 8 : i32, numCU = 120 : i32, params = #rock.xdlops_gemm_params<kpackPerBlock = 4, mPerBlock = 128, nPerBlock = 256, kpack = 4, mPerWave = 64, nPerWave = 128, forceUnroll = true>, storeMethod = #rock<StoreMethod set>}> : (memref<1x9x256xf32>, memref<1x2304x784xf32>, memref<1x256x784xf32>) -> ()

Exception in gpu::mlir_op: /src/AMDMIGraphX/src/targets/gpu/mlir.cpp:731: run_backend_pipeline: MLIR backend compilation failed: Error: 'rock.gemm' op K dimensions don't match k_a = 9 k_b = 9216
Note: see current operation: "rock.gemm"(%8, %11, %12) <{aTransposed, arch = "gfx908:sramecc+:xnack-", derivedBlockSize = 128 : i32, features = #rock<GemmFeatures mfma|dot|atomic_add>, gridSize = 8 : i32, numCU = 120 : i32, params = #rock.xdlops_gemm_params<kpackPerBlock = 8, mPerBlock = 128, nPerBlock = 128, kpack = 1, mPerWave = 64, nPerWave = 128, forceUnroll = true>, storeMethod = #rock<StoreMethod set>}> : (memref<1x9x1024xf32>, memref<1x9216x49xf32>, memref<1x1024x49xf32>) -> ()

Exception in gpu::mlir_op: /src/AMDMIGraphX/src/targets/gpu/mlir.cpp:731: run_backend_pipeline: MLIR backend compilation failed: Error: 'rock.gemm' op K dimensions don't match k_a = 9 k_b = 1152
Note: see current operation: "rock.gemm"(%8, %11, %12) <{aTransposed, arch = "gfx908:sramecc+:xnack-", derivedBlockSize = 256 : i32, features = #rock<GemmFeatures mfma|dot|atomic_add>, gridSize = 25 : i32, numCU = 120 : i32, params = #rock.xdlops_gemm_params<kpackPerBlock = 2, mPerBlock = 128, nPerBlock = 128, kpack = 8, mPerWave = 64, nPerWave = 64, forceUnroll = true>, storeMethod = #rock<StoreMethod set>}> : (memref<1x9x128xf32>, memref<1x1152x3136xf32>, memref<1x128x3136xf32>) -> ()

Exception in gpu::mlir_op: /src/AMDMIGraphX/src/targets/gpu/mlir.cpp:731: run_backend_pipeline: MLIR backend compilation failed: Error: 'rock.gemm' op K dimensions don't match k_a = 9 k_b = 1152
Note: see current operation: "rock.gemm"(%8, %11, %12) <{aTransposed, arch = "gfx908:sramecc+:xnack-", derivedBlockSize = 256 : i32, features = #rock<GemmFeatures mfma|dot|atomic_add>, gridSize = 26 : i32, numCU = 120 : i32, params = #rock.xdlops_gemm_params<kpackPerBlock = 4, mPerBlock = 64, nPerBlock = 64, kpack = 8, mPerWave = 32, nPerWave = 32, forceUnroll = true>, storeMethod = #rock<StoreMethod set>}> : (memref<1x9x128xf32>, memref<1x1152x784xf32>, memref<1x128x784xf32>) -> ()

Exception in gpu::mlir_op: /src/AMDMIGraphX/src/targets/gpu/mlir.cpp:731: run_backend_pipeline: MLIR backend compilation failed: Error: 'rock.gemm' op K dimensions don't match k_a = 9 k_b = 4608
Note: see current operation: "rock.gemm"(%8, %11, %12) <{aTransposed, arch = "gfx908:sramecc+:xnack-", derivedBlockSize = 256 : i32, features = #rock<GemmFeatures mfma|dot|atomic_add>, gridSize = 8 : i32, numCU = 120 : i32, params = #rock.xdlops_gemm_params<kpackPerBlock = 2, mPerBlock = 64, nPerBlock = 128, kpack = 4, mPerWave = 32, nPerWave = 64, forceUnroll = true>, storeMethod = #rock<StoreMethod set>}> : (memref<1x9x512xf32>, memref<1x4608x49xf32>, memref<1x512x49xf32>) -> ()

Exception in gpu::mlir_op: /src/AMDMIGraphX/src/targets/gpu/mlir.cpp:731: run_backend_pipeline: MLIR backend compilation failed: Error: 'rock.gemm' op K dimensions don't match k_a = 9 k_b = 2304
Note: see current operation: "rock.gemm"(%8, %11, %12) <{aTransposed, arch = "gfx908:sramecc+:xnack-", derivedBlockSize = 256 : i32, features = #rock<GemmFeatures mfma|dot|atomic_add>, gridSize = 56 : i32, numCU = 120 : i32, params = #rock.xdlops_gemm_params<kpackPerBlock = 8, mPerBlock = 32, nPerBlock = 32, kpack = 8, mPerWave = 16, nPerWave = 16, forceUnroll = true>, storeMethod = #rock<StoreMethod set>}> : (memref<1x9x256xf32>, memref<1x2304x196xf32>, memref<1x256x196xf32>) -> ()

Exception in gpu::mlir_op: /src/AMDMIGraphX/src/targets/gpu/mlir.cpp:731: run_backend_pipeline: MLIR backend compilation failed: Error: 'rock.gemm' op K dimensions don't match k_a = 9 k_b = 2304
Note: see current operation: "rock.gemm"(%8, %11, %12) <{aTransposed, arch = "gfx908:sramecc+:xnack-", derivedBlockSize = 256 : i32, features = #rock<GemmFeatures mfma|dot|atomic_add>, gridSize = 8 : i32, numCU = 120 : i32, params = #rock.xdlops_gemm_params<kpackPerBlock = 2, mPerBlock = 64, nPerBlock = 128, kpack = 4, mPerWave = 32, nPerWave = 64, forceUnroll = true>, storeMethod = #rock<StoreMethod set>}> : (memref<1x9x256xf32>, memref<1x2304x196xf32>, memref<1x256x196xf32>) -> ()

Exception in gpu::mlir_op: /src/AMDMIGraphX/src/targets/gpu/mlir.cpp:731: run_backend_pipeline: MLIR backend compilation failed: Error: 'rock.gemm' op K dimensions don't match k_a = 9 k_b = 1152
Note: see current operation: "rock.gemm"(%8, %11, %12) <{aTransposed, arch = "gfx908:sramecc+:xnack-", derivedBlockSize = 128 : i32, features = #rock<GemmFeatures mfma|dot|atomic_add>, gridSize = 784 : i32, numCU = 120 : i32, params = #rock.xdlops_gemm_params<kpackPerBlock = 8, mPerBlock = 8, nPerBlock = 64, kpack = 8, mPerWave = 4, nPerWave = 64, forceUnroll = true>, storeMethod = #rock<StoreMethod set>}> : (memref<1x9x128xf32>, memref<1x1152x3136xf32>, memref<1x128x3136xf32>) -> ()

Exception in gpu::mlir_op: /src/AMDMIGraphX/src/targets/gpu/mlir.cpp:731: run_backend_pipeline: MLIR backend compilation failed: Error: 'rock.gemm' op K dimensions don't match k_a = 9 k_b = 4608
Note: see current operation: "rock.gemm"(%8, %11, %12) <{aTransposed, arch = "gfx908:sramecc+:xnack-", derivedBlockSize = 256 : i32, features = #rock<GemmFeatures mfma|dot|atomic_add>, gridSize = 32 : i32, numCU = 120 : i32, params = #rock.xdlops_gemm_params<kpackPerBlock = 8, mPerBlock = 64, nPerBlock = 64, kpack = 4, mPerWave = 32, nPerWave = 32, forceUnroll = true>, storeMethod = #rock<StoreMethod set>}> : (memref<1x9x512xf32>, memref<1x4608x196xf32>, memref<1x512x196xf32>) -> ()

Exception in gpu::mlir_op: /src/AMDMIGraphX/src/targets/gpu/mlir.cpp:731: run_backend_pipeline: MLIR backend compilation failed: Error: 'rock.gemm' op K dimensions don't match k_a = 9 k_b = 9216
Note: see current operation: "rock.gemm"(%8, %11, %12) <{aTransposed, arch = "gfx908:sramecc+:xnack-", derivedBlockSize = 256 : i32, features = #rock<GemmFeatures mfma|dot|atomic_add>, gridSize = 64 : i32, numCU = 120 : i32, params = #rock.xdlops_gemm_params<kpackPerBlock = 8, mPerBlock = 16, nPerBlock = 64, kpack = 8, mPerWave = 16, nPerWave = 16, forceUnroll = true>, storeMethod = #rock<StoreMethod set>}> : (memref<1x9x1024xf32>, memref<1x9216x49xf32>, memref<1x1024x49xf32>) -> ()

Exception in gpu::mlir_op: /src/AMDMIGraphX/src/targets/gpu/mlir.cpp:731: run_backend_pipeline: MLIR backend compilation failed: Error: 'rock.gemm' op K dimensions don't match k_a = 9 k_b = 288
Note: see current operation: "rock.gemm"(%8, %11, %12) <{aTransposed, arch = "gfx908:sramecc+:xnack-", derivedBlockSize = 256 : i32, features = #rock<GemmFeatures mfma|dot|atomic_add>, gridSize = 196 : i32, numCU = 120 : i32, params = #rock.xdlops_gemm_params<kpackPerBlock = 4, mPerBlock = 64, nPerBlock = 64, kpack = 8, mPerWave = 16, nPerWave = 64, forceUnroll = true>, storeMethod = #rock<StoreMethod set>}> : (memref<1x9x32xf32>, memref<1x288x12544xf32>, memref<1x32x12544xf32>) -> ()

Exception in gpu::mlir_op: /src/AMDMIGraphX/src/targets/gpu/mlir.cpp:731: run_backend_pipeline: MLIR backend compilation failed: Error: 'rock.gemm' op K dimensions don't match k_a = 9 k_b = 576
Note: see current operation: "rock.gemm"(%8, %11, %12) <{aTransposed, arch = "gfx908:sramecc+:xnack-", derivedBlockSize = 256 : i32, features = #rock<GemmFeatures mfma|dot|atomic_add>, gridSize = 196 : i32, numCU = 120 : i32, params = #rock.xdlops_gemm_params<kpackPerBlock = 8, mPerBlock = 16, nPerBlock = 64, kpack = 4, mPerWave = 16, nPerWave = 16, forceUnroll = true>, storeMethod = #rock<StoreMethod set>}> : (memref<1x9x64xf32>, memref<1x576x3136xf32>, memref<1x64x3136xf32>) -> ()

Exception in gpu::mlir_op: /src/AMDMIGraphX/src/targets/gpu/mlir.cpp:731: run_backend_pipeline: MLIR backend compilation failed: Error: 'rock.gemm' op K dimensions don't match k_a = 9 k_b = 2304
Note: see current operation: "rock.gemm"(%8, %11, %12) <{aTransposed, arch = "gfx908:sramecc+:xnack-", derivedBlockSize = 256 : i32, features = #rock<GemmFeatures mfma|dot|atomic_add>, gridSize = 16 : i32, numCU = 120 : i32, params = #rock.xdlops_gemm_params<kpackPerBlock = 8, mPerBlock = 64, nPerBlock = 256, kpack = 1, mPerWave = 64, nPerWave = 64, forceUnroll = true>, storeMethod = #rock<StoreMethod set>}> : (memref<1x9x256xf32>, memref<1x2304x784xf32>, memref<1x256x784xf32>) -> ()

Exception in gpu::mlir_op: /src/AMDMIGraphX/src/targets/gpu/mlir.cpp:731: run_backend_pipeline: MLIR backend compilation failed: Error: 'rock.gemm' op K dimensions don't match k_a = 9 k_b = 1152
Note: see current operation: "rock.gemm"(%8, %11, %12) <{aTransposed, arch = "gfx908:sramecc+:xnack-", derivedBlockSize = 256 : i32, features = #rock<GemmFeatures mfma|dot|atomic_add>, gridSize = 25 : i32, numCU = 120 : i32, params = #rock.xdlops_gemm_params<kpackPerBlock = 2, mPerBlock = 128, nPerBlock = 128, kpack = 4, mPerWave = 64, nPerWave = 64, forceUnroll = true>, storeMethod = #rock<StoreMethod set>}> : (memref<1x9x128xf32>, memref<1x1152x3136xf32>, memref<1x128x3136xf32>) -> ()

Exception in gpu::mlir_op: /src/AMDMIGraphX/src/targets/gpu/mlir.cpp:731: run_backend_pipeline: MLIR backend compilation failed: Error: 'rock.gemm' op K dimensions don't match k_a = 9 k_b = 1152
Note: see current operation: "rock.gemm"(%8, %11, %12) <{aTransposed, arch = "gfx908:sramecc+:xnack-", derivedBlockSize = 256 : i32, features = #rock<GemmFeatures mfma|dot|atomic_add>, gridSize = 26 : i32, numCU = 120 : i32, params = #rock.xdlops_gemm_params<kpackPerBlock = 4, mPerBlock = 64, nPerBlock = 64, kpack = 8, mPerWave = 16, nPerWave = 64, forceUnroll = true>, storeMethod = #rock<StoreMethod set>}> : (memref<1x9x128xf32>, memref<1x1152x784xf32>, memref<1x128x784xf32>) -> ()

Exception in gpu::mlir_op: /src/AMDMIGraphX/src/targets/gpu/mlir.cpp:731: run_backend_pipeline: MLIR backend compilation failed: Error: 'rock.gemm' op K dimensions don't match k_a = 9 k_b = 9216
Note: see current operation: "rock.gemm"(%8, %11, %12) <{aTransposed, arch = "gfx908:sramecc+:xnack-", derivedBlockSize = 256 : i32, features = #rock<GemmFeatures mfma|dot|atomic_add>, gridSize = 8 : i32, numCU = 120 : i32, params = #rock.xdlops_gemm_params<kpackPerBlock = 8, mPerBlock = 128, nPerBlock = 128, kpack = 1, mPerWave = 64, nPerWave = 64, forceUnroll = true>, storeMethod = #rock<StoreMethod set>}> : (memref<1x9x1024xf32>, memref<1x9216x49xf32>, memref<1x1024x49xf32>) -> ()

Exception in gpu::mlir_op: /src/AMDMIGraphX/src/targets/gpu/mlir.cpp:731: run_backend_pipeline: MLIR backend compilation failed: Error: 'rock.gemm' op K dimensions don't match k_a = 9 k_b = 4608
Note: see current operation: "rock.gemm"(%8, %11, %12) <{aTransposed, arch = "gfx908:sramecc+:xnack-", derivedBlockSize = 256 : i32, features = #rock<GemmFeatures mfma|dot|atomic_add>, gridSize = 8 : i32, numCU = 120 : i32, params = #rock.xdlops_gemm_params<kpackPerBlock = 8, mPerBlock = 64, nPerBlock = 64, kpack = 4, mPerWave = 32, nPerWave = 32, forceUnroll = true>, storeMethod = #rock<StoreMethod set>}> : (memref<1x9x512xf32>, memref<1x4608x49xf32>, memref<1x512x49xf32>) -> ()

Exception in gpu::mlir_op: /src/AMDMIGraphX/src/targets/gpu/mlir.cpp:731: run_backend_pipeline: MLIR backend compilation failed: Error: 'rock.gemm' op K dimensions don't match k_a = 9 k_b = 2304
Note: see current operation: "rock.gemm"(%8, %11, %12) <{aTransposed, arch = "gfx908:sramecc+:xnack-", derivedBlockSize = 128 : i32, features = #rock<GemmFeatures mfma|dot|atomic_add>, gridSize = 112 : i32, numCU = 120 : i32, params = #rock.xdlops_gemm_params<kpackPerBlock = 8, mPerBlock = 16, nPerBlock = 32, kpack = 8, mPerWave = 16, nPerWave = 16, forceUnroll = true>, storeMethod = #rock<StoreMethod set>}> : (memref<1x9x256xf32>, memref<1x2304x196xf32>, memref<1x256x196xf32>) -> ()

Exception in gpu::mlir_op: /src/AMDMIGraphX/src/targets/gpu/mlir.cpp:731: run_backend_pipeline: MLIR backend compilation failed: Error: 'rock.gemm' op K dimensions don't match k_a = 9 k_b = 2304
Note: see current operation: "rock.gemm"(%8, %11, %12) <{aTransposed, arch = "gfx908:sramecc+:xnack-", derivedBlockSize = 256 : i32, features = #rock<GemmFeatures mfma|dot|atomic_add>, gridSize = 16 : i32, numCU = 120 : i32, params = #rock.xdlops_gemm_params<kpackPerBlock = 4, mPerBlock = 64, nPerBlock = 64, kpack = 4, mPerWave = 32, nPerWave = 32, forceUnroll = true>, storeMethod = #rock<StoreMethod set>}> : (memref<1x9x256xf32>, memref<1x2304x196xf32>, memref<1x256x196xf32>) -> ()

Exception in gpu::mlir_op: /src/AMDMIGraphX/src/targets/gpu/mlir.cpp:731: run_backend_pipeline: MLIR backend compilation failed: Error: 'rock.gemm' op K dimensions don't match k_a = 9 k_b = 9216
Note: see current operation: "rock.gemm"(%8, %11, %12) <{aTransposed, arch = "gfx908:sramecc+:xnack-", derivedBlockSize = 128 : i32, features = #rock<GemmFeatures mfma|dot|atomic_add>, gridSize = 128 : i32, numCU = 120 : i32, params = #rock.xdlops_gemm_params<kpackPerBlock = 8, mPerBlock = 16, nPerBlock = 32, kpack = 8, mPerWave = 16, nPerWave = 16, forceUnroll = true>, storeMethod = #rock<StoreMethod set>}> : (memref<1x9x1024xf32>, memref<1x9216x49xf32>, memref<1x1024x49xf32>) -> ()

Exception in gpu::mlir_op: /src/AMDMIGraphX/src/targets/gpu/mlir.cpp:731: run_backend_pipeline: MLIR backend compilation failed: Error: 'rock.gemm' op K dimensions don't match k_a = 9 k_b = 4608
Note: see current operation: "rock.gemm"(%8, %11, %12) <{aTransposed, arch = "gfx908:sramecc+:xnack-", derivedBlockSize = 256 : i32, features = #rock<GemmFeatures mfma|dot|atomic_add>, gridSize = 32 : i32, numCU = 120 : i32, params = #rock.xdlops_gemm_params<kpackPerBlock = 4, mPerBlock = 64, nPerBlock = 64, kpack = 8, mPerWave = 32, nPerWave = 32, forceUnroll = true>, storeMethod = #rock<StoreMethod set>}> : (memref<1x9x512xf32>, memref<1x4608x196xf32>, memref<1x512x196xf32>) -> ()

Exception in gpu::mlir_op: /src/AMDMIGraphX/src/targets/gpu/mlir.cpp:731: run_backend_pipeline: MLIR backend compilation failed: Error: 'rock.gemm' op K dimensions don't match k_a = 9 k_b = 288
Note: see current operation: "rock.gemm"(%8, %11, %12) <{aTransposed, arch = "gfx908:sramecc+:xnack-", derivedBlockSize = 256 : i32, features = #rock<GemmFeatures mfma|dot|atomic_add>, gridSize = 392 : i32, numCU = 120 : i32, params = #rock.xdlops_gemm_params<kpackPerBlock = 8, mPerBlock = 32, nPerBlock = 32, kpack = 8, mPerWave = 16, nPerWave = 16, forceUnroll = true>, storeMethod = #rock<StoreMethod set>}> : (memref<1x9x32xf32>, memref<1x288x12544xf32>, memref<1x32x12544xf32>) -> ()

Exception in gpu::mlir_op: /src/AMDMIGraphX/src/targets/gpu/mlir.cpp:731: run_backend_pipeline: MLIR backend compilation failed: Error: 'rock.gemm' op K dimensions don't match k_a = 9 k_b = 576
Note: see current operation: "rock.gemm"(%8, %11, %12) <{aTransposed, arch = "gfx908:sramecc+:xnack-", derivedBlockSize = 128 : i32, features = #rock<GemmFeatures mfma|dot|atomic_add>, gridSize = 392 : i32, numCU = 120 : i32, params = #rock.xdlops_gemm_params<kpackPerBlock = 8, mPerBlock = 16, nPerBlock = 32, kpack = 4, mPerWave = 16, nPerWave = 16, forceUnroll = true>, storeMethod = #rock<StoreMethod set>}> : (memref<1x9x64xf32>, memref<1x576x3136xf32>, memref<1x64x3136xf32>) -> ()

Exception in gpu::mlir_op: /src/AMDMIGraphX/src/targets/gpu/mlir.cpp:731: run_backend_pipeline: MLIR backend compilation failed: Error: 'rock.gemm' op K dimensions don't match k_a = 9 k_b = 2304
Note: see current operation: "rock.gemm"(%8, %11, %12) <{aTransposed, arch = "gfx908:sramecc+:xnack-", derivedBlockSize = 256 : i32, features = #rock<GemmFeatures mfma|dot|atomic_add>, gridSize = 16 : i32, numCU = 120 : i32, params = #rock.xdlops_gemm_params<kpackPerBlock = 4, mPerBlock = 64, nPerBlock = 256, kpack = 4, mPerWave = 64, nPerWave = 64, forceUnroll = true>, storeMethod = #rock<StoreMethod set>}> : (memref<1x9x256xf32>, memref<1x2304x784xf32>, memref<1x256x784xf32>) -> ()

Exception in gpu::mlir_op: /src/AMDMIGraphX/src/targets/gpu/mlir.cpp:731: run_backend_pipeline: MLIR backend compilation failed: Error: 'rock.gemm' op K dimensions don't match k_a = 9 k_b = 1152
Note: see current operation: "rock.gemm"(%8, %11, %12) <{aTransposed, arch = "gfx908:sramecc+:xnack-", derivedBlockSize = 256 : i32, features = #rock<GemmFeatures mfma|dot|atomic_add>, gridSize = 50 : i32, numCU = 120 : i32, params = #rock.xdlops_gemm_params<kpackPerBlock = 4, mPerBlock = 64, nPerBlock = 128, kpack = 4, mPerWave = 32, nPerWave = 64, forceUnroll = true>, storeMethod = #rock<StoreMethod set>}> : (memref<1x9x128xf32>, memref<1x1152x3136xf32>, memref<1x128x3136xf32>) -> ()

Exception in gpu::mlir_op: /src/AMDMIGraphX/src/targets/gpu/mlir.cpp:731: run_backend_pipeline: MLIR backend compilation failed: Error: 'rock.gemm' op K dimensions don't match k_a = 9 k_b = 1152
Note: see current operation: "rock.gemm"(%8, %11, %12) <{aTransposed, arch = "gfx908:sramecc+:xnack-", derivedBlockSize = 128 : i32, features = #rock<GemmFeatures mfma|dot|atomic_add>, gridSize = 52 : i32, numCU = 120 : i32, params = #rock.xdlops_gemm_params<kpackPerBlock = 8, mPerBlock = 32, nPerBlock = 64, kpack = 4, mPerWave = 32, nPerWave = 32, forceUnroll = true>, storeMethod = #rock<StoreMethod set>}> : (memref<1x9x128xf32>, memref<1x1152x784xf32>, memref<1x128x784xf32>) -> ()

Exception in gpu::mlir_op: /src/AMDMIGraphX/src/targets/gpu/mlir.cpp:731: run_backend_pipeline: MLIR backend compilation failed: Error: 'rock.gemm' op K dimensions don't match k_a = 9 k_b = 4608
Note: see current operation: "rock.gemm"(%8, %11, %12) <{aTransposed, arch = "gfx908:sramecc+:xnack-", derivedBlockSize = 256 : i32, features = #rock<GemmFeatures mfma|dot|atomic_add>, gridSize = 8 : i32, numCU = 120 : i32, params = #rock.xdlops_gemm_params<kpackPerBlock = 4, mPerBlock = 64, nPerBlock = 64, kpack = 8, mPerWave = 32, nPerWave = 32, forceUnroll = true>, storeMethod = #rock<StoreMethod set>}> : (memref<1x9x512xf32>, memref<1x4608x49xf32>, memref<1x512x49xf32>) -> ()

Exception in gpu::mlir_op: /src/AMDMIGraphX/src/targets/gpu/mlir.cpp:731: run_backend_pipeline: MLIR backend compilation failed: Error: 'rock.gemm' op K dimensions don't match k_a = 9 k_b = 2304
Note: see current operation: "rock.gemm"(%8, %11, %12) <{aTransposed, arch = "gfx908:sramecc+:xnack-", derivedBlockSize = 256 : i32, features = #rock<GemmFeatures mfma|dot|atomic_add>, gridSize = 64 : i32, numCU = 120 : i32, params = #rock.xdlops_gemm_params<kpackPerBlock = 8, mPerBlock = 16, nPerBlock = 64, kpack = 8, mPerWave = 16, nPerWave = 16, forceUnroll = true>, storeMethod = #rock<StoreMethod set>}> : (memref<1x9x256xf32>, memref<1x2304x196xf32>, memref<1x256x196xf32>) -> ()

Exception in gpu::mlir_op: /src/AMDMIGraphX/src/targets/gpu/mlir.cpp:731: run_backend_pipeline: MLIR backend compilation failed: Error: 'rock.gemm' op K dimensions don't match k_a = 9 k_b = 9216
Note: see current operation: "rock.gemm"(%8, %11, %12) <{aTransposed, arch = "gfx908:sramecc+:xnack-", derivedBlockSize = 128 : i32, features = #rock<GemmFeatures mfma|dot|atomic_add>, gridSize = 8 : i32, numCU = 120 : i32, params = #rock.xdlops_gemm_params<kpackPerBlock = 4, mPerBlock = 128, nPerBlock = 128, kpack = 4, mPerWave = 64, nPerWave = 128, forceUnroll = true>, storeMethod = #rock<StoreMethod set>}> : (memref<1x9x1024xf32>, memref<1x9216x49xf32>, memref<1x1024x49xf32>) -> ()

Exception in gpu::mlir_op: /src/AMDMIGraphX/src/targets/gpu/mlir.cpp:731: run_backend_pipeline: MLIR backend compilation failed: Error: 'rock.gemm' op K dimensions don't match k_a = 9 k_b = 2304
Note: see current operation: "rock.gemm"(%8, %11, %12) <{aTransposed, arch = "gfx908:sramecc+:xnack-", derivedBlockSize = 256 : i32, features = #rock<GemmFeatures mfma|dot|atomic_add>, gridSize = 16 : i32, numCU = 120 : i32, params = #rock.xdlops_gemm_params<kpackPerBlock = 4, mPerBlock = 64, nPerBlock = 64, kpack = 4, mPerWave = 16, nPerWave = 64, forceUnroll = true>, storeMethod = #rock<StoreMethod set>}> : (memref<1x9x256xf32>, memref<1x2304x196xf32>, memref<1x256x196xf32>) -> ()

Exception in gpu::mlir_op: /src/AMDMIGraphX/src/targets/gpu/mlir.cpp:731: run_backend_pipeline: MLIR backend compilation failed: Error: 'rock.gemm' op K dimensions don't match k_a = 9 k_b = 9216
Note: see current operation: "rock.gemm"(%8, %11, %12) <{aTransposed, arch = "gfx908:sramecc+:xnack-", derivedBlockSize = 64 : i32, features = #rock<GemmFeatures mfma|dot|atomic_add>, gridSize = 256 : i32, numCU = 120 : i32, params = #rock.xdlops_gemm_params<kpackPerBlock = 8, mPerBlock = 16, nPerBlock = 16, kpack = 8, mPerWave = 16, nPerWave = 16, forceUnroll = true>, storeMethod = #rock<StoreMethod set>}> : (memref<1x9x1024xf32>, memref<1x9216x49xf32>, memref<1x1024x49xf32>) -> ()

Exception in gpu::mlir_op: /src/AMDMIGraphX/src/targets/gpu/mlir.cpp:731: run_backend_pipeline: MLIR backend compilation failed: Error: 'rock.gemm' op K dimensions don't match k_a = 9 k_b = 4608
Note: see current operation: "rock.gemm"(%8, %11, %12) <{aTransposed, arch = "gfx908:sramecc+:xnack-", derivedBlockSize = 256 : i32, features = #rock<GemmFeatures mfma|dot|atomic_add>, gridSize = 32 : i32, numCU = 120 : i32, params = #rock.xdlops_gemm_params<kpackPerBlock = 4, mPerBlock = 64, nPerBlock = 64, kpack = 8, mPerWave = 16, nPerWave = 64, forceUnroll = true>, storeMethod = #rock<StoreMethod set>}> : (memref<1x9x512xf32>, memref<1x4608x196xf32>, memref<1x512x196xf32>) -> ()

Exception in gpu::mlir_op: /src/AMDMIGraphX/src/targets/gpu/mlir.cpp:731: run_backend_pipeline: MLIR backend compilation failed: Error: 'rock.gemm' op K dimensions don't match k_a = 9 k_b = 288
Note: see current operation: "rock.gemm"(%8, %11, %12) <{aTransposed, arch = "gfx908:sramecc+:xnack-", derivedBlockSize = 256 : i32, features = #rock<GemmFeatures mfma|dot|atomic_add>, gridSize = 392 : i32, numCU = 120 : i32, params = #rock.xdlops_gemm_params<kpackPerBlock = 8, mPerBlock = 16, nPerBlock = 64, kpack = 8, mPerWave = 16, nPerWave = 16, forceUnroll = true>, storeMethod = #rock<StoreMethod set>}> : (memref<1x9x32xf32>, memref<1x288x12544xf32>, memref<1x32x12544xf32>) -> ()

Exception in gpu::mlir_op: /src/AMDMIGraphX/src/targets/gpu/mlir.cpp:731: run_backend_pipeline: MLIR backend compilation failed: Error: 'rock.gemm' op K dimensions don't match k_a = 9 k_b = 576
Note: see current operation: "rock.gemm"(%8, %11, %12) <{aTransposed, arch = "gfx908:sramecc+:xnack-", derivedBlockSize = 128 : i32, features = #rock<GemmFeatures mfma|dot|atomic_add>, gridSize = 25 : i32, numCU = 120 : i32, params = #rock.xdlops_gemm_params<kpackPerBlock = 8, mPerBlock = 128, nPerBlock = 128, kpack = 1, mPerWave = 64, nPerWave = 128, forceUnroll = true>, storeMethod = #rock<StoreMethod set>}> : (memref<1x9x64xf32>, memref<1x576x3136xf32>, memref<1x64x3136xf32>) -> ()

Exception in gpu::mlir_op: /src/AMDMIGraphX/src/targets/gpu/mlir.cpp:731: run_backend_pipeline: MLIR backend compilation failed: Error: 'rock.gemm' op K dimensions don't match k_a = 9 k_b = 2304
Note: see current operation: "rock.gemm"(%8, %11, %12) <{aTransposed, arch = "gfx908:sramecc+:xnack-", derivedBlockSize = 256 : i32, features = #rock<GemmFeatures mfma|dot|atomic_add>, gridSize = 200 : i32, numCU = 120 : i32, params = #rock.xdlops_gemm_params<kpackPerBlock = 8, mPerBlock = 32, nPerBlock = 32, kpack = 4, mPerWave = 16, nPerWave = 16, forceUnroll = true>, storeMethod = #rock<StoreMethod set>}> : (memref<1x9x256xf32>, memref<1x2304x784xf32>, memref<1x256x784xf32>) -> ()

Exception in gpu::mlir_op: /src/AMDMIGraphX/src/targets/gpu/mlir.cpp:731: run_backend_pipeline: MLIR backend compilation failed: Error: 'rock.gemm' op K dimensions don't match k_a = 9 k_b = 1152
Note: see current operation: "rock.gemm"(%8, %11, %12) <{aTransposed, arch = "gfx908:sramecc+:xnack-", derivedBlockSize = 256 : i32, features = #rock<GemmFeatures mfma|dot|atomic_add>, gridSize = 50 : i32, numCU = 120 : i32, params = #rock.xdlops_gemm_params<kpackPerBlock = 2, mPerBlock = 64, nPerBlock = 128, kpack = 8, mPerWave = 32, nPerWave = 64, forceUnroll = true>, storeMethod = #rock<StoreMethod set>}> : (memref<1x9x128xf32>, memref<1x1152x3136xf32>, memref<1x128x3136xf32>) -> ()

Exception in gpu::mlir_op: /src/AMDMIGraphX/src/targets/gpu/mlir.cpp:731: run_backend_pipeline: MLIR backend compilation failed: Error: 'rock.gemm' op K dimensions don't match k_a = 9 k_b = 1152
Note: see current operation: "rock.gemm"(%8, %11, %12) <{aTransposed, arch = "gfx908:sramecc+:xnack-", derivedBlockSize = 256 : i32, features = #rock<GemmFeatures mfma|dot|atomic_add>, gridSize = 52 : i32, numCU = 120 : i32, params = #rock.xdlops_gemm_params<kpackPerBlock = 8, mPerBlock = 32, nPerBlock = 64, kpack = 4, mPerWave = 8, nPerWave = 64, forceUnroll = true>, storeMethod = #rock<StoreMethod set>}> : (memref<1x9x128xf32>, memref<1x1152x784xf32>, memref<1x128x784xf32>) -> ()

Exception in gpu::mlir_op: /src/AMDMIGraphX/src/targets/gpu/mlir.cpp:731: run_backend_pipeline: MLIR backend compilation failed: Error: 'rock.gemm' op K dimensions don't match k_a = 9 k_b = 4608
Note: see current operation: "rock.gemm"(%8, %11, %12) <{aTransposed, arch = "gfx908:sramecc+:xnack-", derivedBlockSize = 256 : i32, features = #rock<GemmFeatures mfma|dot|atomic_add>, gridSize = 8 : i32, numCU = 120 : i32, params = #rock.xdlops_gemm_params<kpackPerBlock = 4, mPerBlock = 64, nPerBlock = 64, kpack = 8, mPerWave = 16, nPerWave = 64, forceUnroll = true>, storeMethod = #rock<StoreMethod set>}> : (memref<1x9x512xf32>, memref<1x4608x49xf32>, memref<1x512x49xf32>) -> ()

Exception in gpu::mlir_op: /src/AMDMIGraphX/src/targets/gpu/mlir.cpp:731: run_backend_pipeline: MLIR backend compilation failed: Error: 'rock.gemm' op K dimensions don't match k_a = 9 k_b = 2304
Note: see current operation: "rock.gemm"(%8, %11, %12) <{aTransposed, arch = "gfx908:sramecc+:xnack-", derivedBlockSize = 128 : i32, features = #rock<GemmFeatures mfma|dot|atomic_add>, gridSize = 128 : i32, numCU = 120 : i32, params = #rock.xdlops_gemm_params<kpackPerBlock = 8, mPerBlock = 8, nPerBlock = 64, kpack = 8, mPerWave = 4, nPerWave = 64, forceUnroll = true>, storeMethod = #rock<StoreMethod set>}> : (memref<1x9x256xf32>, memref<1x2304x196xf32>, memref<1x256x196xf32>) -> ()

Exception in gpu::mlir_op: /src/AMDMIGraphX/src/targets/gpu/mlir.cpp:731: run_backend_pipeline: MLIR backend compilation failed: Error: 'rock.gemm' op K dimensions don't match k_a = 9 k_b = 2304
Note: see current operation: "rock.gemm"(%8, %11, %12) <{aTransposed, arch = "gfx908:sramecc+:xnack-", derivedBlockSize = 256 : i32, features = #rock<GemmFeatures mfma|dot|atomic_add>, gridSize = 16 : i32, numCU = 120 : i32, params = #rock.xdlops_gemm_params<kpackPerBlock = 2, mPerBlock = 64, nPerBlock = 64, kpack = 8, mPerWave = 32, nPerWave = 32, forceUnroll = true>, storeMethod = #rock<StoreMethod set>}> : (memref<1x9x256xf32>, memref<1x2304x196xf32>, memref<1x256x196xf32>) -> ()

Exception in gpu::mlir_op: /src/AMDMIGraphX/src/targets/gpu/mlir.cpp:731: run_backend_pipeline: MLIR backend compilation failed: Error: 'rock.gemm' op K dimensions don't match k_a = 9 k_b = 9216
Note: see current operation: "rock.gemm"(%8, %11, %12) <{aTransposed, arch = "gfx908:sramecc+:xnack-", derivedBlockSize = 128 : i32, features = #rock<GemmFeatures mfma|dot|atomic_add>, gridSize = 128 : i32, numCU = 120 : i32, params = #rock.xdlops_gemm_params<kpackPerBlock = 8, mPerBlock = 8, nPerBlock = 64, kpack = 8, mPerWave = 4, nPerWave = 64, forceUnroll = true>, storeMethod = #rock<StoreMethod set>}> : (memref<1x9x1024xf32>, memref<1x9216x49xf32>, memref<1x1024x49xf32>) -> ()

Exception in gpu::mlir_op: /src/AMDMIGraphX/src/targets/gpu/mlir.cpp:731: run_backend_pipeline: MLIR backend compilation failed: Error: 'rock.gemm' op K dimensions don't match k_a = 9 k_b = 4608
Note: see current operation: "rock.gemm"(%8, %11, %12) <{aTransposed, arch = "gfx908:sramecc+:xnack-", derivedBlockSize = 128 : i32, features = #rock<GemmFeatures mfma|dot|atomic_add>, gridSize = 64 : i32, numCU = 120 : i32, params = #rock.xdlops_gemm_params<kpackPerBlock = 8, mPerBlock = 32, nPerBlock = 64, kpack = 4, mPerWave = 32, nPerWave = 32, forceUnroll = true>, storeMethod = #rock<StoreMethod set>}> : (memref<1x9x512xf32>, memref<1x4608x196xf32>, memref<1x512x196xf32>) -> ()

Exception in gpu::mlir_op: /src/AMDMIGraphX/src/targets/gpu/mlir.cpp:731: run_backend_pipeline: MLIR backend compilation failed: Error: 'rock.gemm' op K dimensions don't match k_a = 9 k_b = 288
Note: see current operation: "rock.gemm"(%8, %11, %12) <{aTransposed, arch = "gfx908:sramecc+:xnack-", derivedBlockSize = 128 : i32, features = #rock<GemmFeatures mfma|dot|atomic_add>, gridSize = 784 : i32, numCU = 120 : i32, params = #rock.xdlops_gemm_params<kpackPerBlock = 8, mPerBlock = 16, nPerBlock = 32, kpack = 8, mPerWave = 16, nPerWave = 16, forceUnroll = true>, storeMethod = #rock<StoreMethod set>}> : (memref<1x9x32xf32>, memref<1x288x12544xf32>, memref<1x32x12544xf32>) -> ()

Exception in gpu::mlir_op: /src/AMDMIGraphX/src/targets/gpu/mlir.cpp:731: run_backend_pipeline: MLIR backend compilation failed: Error: 'rock.gemm' op K dimensions don't match k_a = 9 k_b = 9216
Note: see current operation: "rock.gemm"(%8, %11, %12) <{aTransposed, arch = "gfx908:sramecc+:xnack-", derivedBlockSize = 256 : i32, features = #rock<GemmFeatures mfma|dot|atomic_add>, gridSize = 8 : i32, numCU = 120 : i32, params = #rock.xdlops_gemm_params<kpackPerBlock = 4, mPerBlock = 128, nPerBlock = 128, kpack = 4, mPerWave = 64, nPerWave = 64, forceUnroll = true>, storeMethod = #rock<StoreMethod set>}> : (memref<1x9x1024xf32>, memref<1x9216x49xf32>, memref<1x1024x49xf32>) -> ()

Exception in gpu::mlir_op: /src/AMDMIGraphX/src/targets/gpu/mlir.cpp:731: run_backend_pipeline: MLIR backend compilation failed: Error: 'rock.gemm' op K dimensions don't match k_a = 9 k_b = 576
Note: see current operation: "rock.gemm"(%8, %11, %12) <{aTransposed, arch = "gfx908:sramecc+:xnack-", derivedBlockSize = 256 : i32, features = #rock<GemmFeatures mfma|dot|atomic_add>, gridSize = 25 : i32, numCU = 120 : i32, params = #rock.xdlops_gemm_params<kpackPerBlock = 8, mPerBlock = 128, nPerBlock = 128, kpack = 1, mPerWave = 64, nPerWave = 64, forceUnroll = true>, storeMethod = #rock<StoreMethod set>}> : (memref<1x9x64xf32>, memref<1x576x3136xf32>, memref<1x64x3136xf32>) -> ()

Exception in gpu::mlir_op: /src/AMDMIGraphX/src/targets/gpu/mlir.cpp:731: run_backend_pipeline: MLIR backend compilation failed: Error: 'rock.gemm' op K dimensions don't match k_a = 9 k_b = 2304
Note: see current operation: "rock.gemm"(%8, %11, %12) <{aTransposed, arch = "gfx908:sramecc+:xnack-", derivedBlockSize = 256 : i32, features = #rock<GemmFeatures mfma|dot|atomic_add>, gridSize = 200 : i32, numCU = 120 : i32, params = #rock.xdlops_gemm_params<kpackPerBlock = 4, mPerBlock = 32, nPerBlock = 32, kpack = 8, mPerWave = 16, nPerWave = 16, forceUnroll = true>, storeMethod = #rock<StoreMethod set>}> : (memref<1x9x256xf32>, memref<1x2304x784xf32>, memref<1x256x784xf32>) -> ()

Exception in gpu::mlir_op: /src/AMDMIGraphX/src/targets/gpu/mlir.cpp:731: run_backend_pipeline: MLIR backend compilation failed: Error: 'rock.gemm' op K dimensions don't match k_a = 9 k_b = 1152
Note: see current operation: "rock.gemm"(%8, %11, %12) <{aTransposed, arch = "gfx908:sramecc+:xnack-", derivedBlockSize = 256 : i32, features = #rock<GemmFeatures mfma|dot|atomic_add>, gridSize = 104 : i32, numCU = 120 : i32, params = #rock.xdlops_gemm_params<kpackPerBlock = 8, mPerBlock = 16, nPerBlock = 64, kpack = 4, mPerWave = 16, nPerWave = 16, forceUnroll = true>, storeMethod = #rock<StoreMethod set>}> : (memref<1x9x128xf32>, memref<1x1152x784xf32>, memref<1x128x784xf32>) -> ()

Exception in gpu::mlir_op: /src/AMDMIGraphX/src/targets/gpu/mlir.cpp:731: run_backend_pipeline: MLIR backend compilation failed: Error: 'rock.gemm' op K dimensions don't match k_a = 9 k_b = 1152
Note: see current operation: "rock.gemm"(%8, %11, %12) <{aTransposed, arch = "gfx908:sramecc+:xnack-", derivedBlockSize = 256 : i32, features = #rock<GemmFeatures mfma|dot|atomic_add>, gridSize = 50 : i32, numCU = 120 : i32, params = #rock.xdlops_gemm_params<kpackPerBlock = 2, mPerBlock = 64, nPerBlock = 128, kpack = 4, mPerWave = 32, nPerWave = 64, forceUnroll = true>, storeMethod = #rock<StoreMethod set>}> : (memref<1x9x128xf32>, memref<1x1152x3136xf32>, memref<1x128x3136xf32>) -> ()

Exception in gpu::mlir_op: /src/AMDMIGraphX/src/targets/gpu/mlir.cpp:731: run_backend_pipeline: MLIR backend compilation failed: Error: 'rock.gemm' op K dimensions don't match k_a = 9 k_b = 4608
Note: see current operation: "rock.gemm"(%8, %11, %12) <{aTransposed, arch = "gfx908:sramecc+:xnack-", derivedBlockSize = 256 : i32, features = #rock<GemmFeatures mfma|dot|atomic_add>, gridSize = 16 : i32, numCU = 120 : i32, params = #rock.xdlops_gemm_params<kpackPerBlock = 4, mPerBlock = 32, nPerBlock = 128, kpack = 4, mPerWave = 32, nPerWave = 32, forceUnroll = true>, storeMethod = #rock<StoreMethod set>}> : (memref<1x9x512xf32>, memref<1x4608x49xf32>, memref<1x512x49xf32>) -> ()

Exception in gpu::mlir_op: /src/AMDMIGraphX/src/targets/gpu/mlir.cpp:731: run_backend_pipeline: MLIR backend compilation failed: Error: 'rock.gemm' op K dimensions don't match k_a = 9 k_b = 2304
Note: see current operation: "rock.gemm"(%8, %11, %12) <{aTransposed, arch = "gfx908:sramecc+:xnack-", derivedBlockSize = 256 : i32, features = #rock<GemmFeatures mfma|dot|atomic_add>, gridSize = 16 : i32, numCU = 120 : i32, params = #rock.xdlops_gemm_params<kpackPerBlock = 4, mPerBlock = 32, nPerBlock = 128, kpack = 4, mPerWave = 32, nPerWave = 32, forceUnroll = true>, storeMethod = #rock<StoreMethod set>}> : (memref<1x9x256xf32>, memref<1x2304x196xf32>, memref<1x256x196xf32>) -> ()

Exception in gpu::mlir_op: /src/AMDMIGraphX/src/targets/gpu/mlir.cpp:731: run_backend_pipeline: MLIR backend compilation failed: Error: 'rock.gemm' op K dimensions don't match k_a = 9 k_b = 4608
Note: see current operation: "rock.gemm"(%8, %11, %12) <{aTransposed, arch = "gfx908:sramecc+:xnack-", derivedBlockSize = 256 : i32, features = #rock<GemmFeatures mfma|dot|atomic_add>, gridSize = 64 : i32, numCU = 120 : i32, params = #rock.xdlops_gemm_params<kpackPerBlock = 8, mPerBlock = 32, nPerBlock = 64, kpack = 4, mPerWave = 8, nPerWave = 64, forceUnroll = true>, storeMethod = #rock<StoreMethod set>}> : (memref<1x9x512xf32>, memref<1x4608x196xf32>, memref<1x512x196xf32>) -> ()

Exception in gpu::mlir_op: /src/AMDMIGraphX/src/targets/gpu/mlir.cpp:731: run_backend_pipeline: MLIR backend compilation failed: Error: 'rock.gemm' op K dimensions don't match k_a = 9 k_b = 288
Note: see current operation: "rock.gemm"(%8, %11, %12) <{aTransposed, arch = "gfx908:sramecc+:xnack-", derivedBlockSize = 64 : i32, features = #rock<GemmFeatures mfma|dot|atomic_add>, gridSize = 1568 : i32, numCU = 120 : i32, params = #rock.xdlops_gemm_params<kpackPerBlock = 8, mPerBlock = 16, nPerBlock = 16, kpack = 8, mPerWave = 16, nPerWave = 16, forceUnroll = true>, storeMethod = #rock<StoreMethod set>}> : (memref<1x9x32xf32>, memref<1x288x12544xf32>, memref<1x32x12544xf32>) -> ()

Exception in gpu::mlir_op: /src/AMDMIGraphX/src/targets/gpu/mlir.cpp:731: run_backend_pipeline: MLIR backend compilation failed: Error: 'rock.gemm' op K dimensions don't match k_a = 9 k_b = 576
Note: see current operation: "rock.gemm"(%8, %11, %12) <{aTransposed, arch = "gfx908:sramecc+:xnack-", derivedBlockSize = 128 : i32, features = #rock<GemmFeatures mfma|dot|atomic_add>, gridSize = 25 : i32, numCU = 120 : i32, params = #rock.xdlops_gemm_params<kpackPerBlock = 4, mPerBlock = 128, nPerBlock = 128, kpack = 4, mPerWave = 64, nPerWave = 128, forceUnroll = true>, storeMethod = #rock<StoreMethod set>}> : (memref<1x9x64xf32>, memref<1x576x3136xf32>, memref<1x64x3136xf32>) -> ()

Exception in gpu::mlir_op: /src/AMDMIGraphX/src/targets/gpu/mlir.cpp:731: run_backend_pipeline: MLIR backend compilation failed: Error: 'rock.gemm' op K dimensions don't match k_a = 9 k_b = 9216
Note: see current operation: "rock.gemm"(%8, %11, %12) <{aTransposed, arch = "gfx908:sramecc+:xnack-", derivedBlockSize = 128 : i32, features = #rock<GemmFeatures mfma|dot|atomic_add>, gridSize = 8 : i32, numCU = 120 : i32, params = #rock.xdlops_gemm_params<kpackPerBlock = 2, mPerBlock = 128, nPerBlock = 128, kpack = 8, mPerWave = 64, nPerWave = 128, forceUnroll = true>, storeMethod = #rock<StoreMethod set>}> : (memref<1x9x1024xf32>, memref<1x9216x49xf32>, memref<1x1024x49xf32>) -> ()

Exception in gpu::mlir_op: /src/AMDMIGraphX/src/targets/gpu/mlir.cpp:731: run_backend_pipeline: MLIR backend compilation failed: Error: 'rock.gemm' op K dimensions don't match k_a = 9 k_b = 2304
Note: see current operation: "rock.gemm"(%8, %11, %12) <{aTransposed, arch = "gfx908:sramecc+:xnack-", derivedBlockSize = 128 : i32, features = #rock<GemmFeatures mfma|dot|atomic_add>, gridSize = 400 : i32, numCU = 120 : i32, params = #rock.xdlops_gemm_params<kpackPerBlock = 8, mPerBlock = 16, nPerBlock = 32, kpack = 4, mPerWave = 16, nPerWave = 16, forceUnroll = true>, storeMethod = #rock<StoreMethod set>}> : (memref<1x9x256xf32>, memref<1x2304x784xf32>, memref<1x256x784xf32>) -> ()

Exception in gpu::mlir_op: /src/AMDMIGraphX/src/targets/gpu/mlir.cpp:731: run_backend_pipeline: MLIR backend compilation failed: Error: 'rock.gemm' op K dimensions don't match k_a = 9 k_b = 1152
Note: see current operation: "rock.gemm"(%8, %11, %12) <{aTransposed, arch = "gfx908:sramecc+:xnack-", derivedBlockSize = 256 : i32, features = #rock<GemmFeatures mfma|dot|atomic_add>, gridSize = 7 : i32, numCU = 120 : i32, params = #rock.xdlops_gemm_params<kpackPerBlock = 8, mPerBlock = 128, nPerBlock = 128, kpack = 4, mPerWave = 64, nPerWave = 64, forceUnroll = true>, storeMethod = #rock<StoreMethod set>}> : (memref<1x9x128xf32>, memref<1x1152x784xf32>, memref<1x128x784xf32>) -> ()

Exception in gpu::mlir_op: /src/AMDMIGraphX/src/targets/gpu/mlir.cpp:731: run_backend_pipeline: MLIR backend compilation failed: Error: 'rock.gemm' op K dimensions don't match k_a = 9 k_b = 1152
Note: see current operation: "rock.gemm"(%8, %11, %12) <{aTransposed, arch = "gfx908:sramecc+:xnack-", derivedBlockSize = 256 : i32, features = #rock<GemmFeatures mfma|dot|atomic_add>, gridSize = 100 : i32, numCU = 120 : i32, params = #rock.xdlops_gemm_params<kpackPerBlock = 4, mPerBlock = 32, nPerBlock = 128, kpack = 4, mPerWave = 32, nPerWave = 32, forceUnroll = true>, storeMethod = #rock<StoreMethod set>}> : (memref<1x9x128xf32>, memref<1x1152x3136xf32>, memref<1x128x3136xf32>) -> ()

Exception in gpu::mlir_op: /src/AMDMIGraphX/src/targets/gpu/mlir.cpp:731: run_backend_pipeline: MLIR backend compilation failed: Error: 'rock.gemm' op K dimensions don't match k_a = 9 k_b = 4608
Note: see current operation: "rock.gemm"(%8, %11, %12) <{aTransposed, arch = "gfx908:sramecc+:xnack-", derivedBlockSize = 128 : i32, features = #rock<GemmFeatures mfma|dot|atomic_add>, gridSize = 16 : i32, numCU = 120 : i32, params = #rock.xdlops_gemm_params<kpackPerBlock = 8, mPerBlock = 32, nPerBlock = 64, kpack = 4, mPerWave = 32, nPerWave = 32, forceUnroll = true>, storeMethod = #rock<StoreMethod set>}> : (memref<1x9x512xf32>, memref<1x4608x49xf32>, memref<1x512x49xf32>) -> ()

Exception in gpu::mlir_op: /src/AMDMIGraphX/src/targets/gpu/mlir.cpp:731: run_backend_pipeline: MLIR backend compilation failed: Error: 'rock.gemm' op K dimensions don't match k_a = 9 k_b = 2304
Note: see current operation: "rock.gemm"(%8, %11, %12) <{aTransposed, arch = "gfx908:sramecc+:xnack-", derivedBlockSize = 64 : i32, features = #rock<GemmFeatures mfma|dot|atomic_add>, gridSize = 32 : i32, numCU = 120 : i32, params = #rock.xdlops_gemm_params<kpackPerBlock = 4, mPerBlock = 32, nPerBlock = 64, kpack = 4, mPerWave = 32, nPerWave = 64, forceUnroll = true>, storeMethod = #rock<StoreMethod set>}> : (memref<1x9x256xf32>, memref<1x2304x196xf32>, memref<1x256x196xf32>) -> ()

Exception in gpu::mlir_op: /src/AMDMIGraphX/src/targets/gpu/mlir.cpp:731: run_backend_pipeline: MLIR backend compilation failed: Error: 'rock.gemm' op K dimensions don't match k_a = 9 k_b = 4608
Note: see current operation: "rock.gemm"(%8, %11, %12) <{aTransposed, arch = "gfx908:sramecc+:xnack-", derivedBlockSize = 256 : i32, features = #rock<GemmFeatures mfma|dot|atomic_add>, gridSize = 128 : i32, numCU = 120 : i32, params = #rock.xdlops_gemm_params<kpackPerBlock = 8, mPerBlock = 16, nPerBlock = 64, kpack = 4, mPerWave = 16, nPerWave = 16, forceUnroll = true>, storeMethod = #rock<StoreMethod set>}> : (memref<1x9x512xf32>, memref<1x4608x196xf32>, memref<1x512x196xf32>) -> ()

Exception in gpu::mlir_op: /src/AMDMIGraphX/src/targets/gpu/mlir.cpp:731: run_backend_pipeline: MLIR backend compilation failed: Error: 'rock.gemm' op K dimensions don't match k_a = 9 k_b = 288
Note: see current operation: "rock.gemm"(%8, %11, %12) <{aTransposed, arch = "gfx908:sramecc+:xnack-", derivedBlockSize = 128 : i32, features = #rock<GemmFeatures mfma|dot|atomic_add>, gridSize = 784 : i32, numCU = 120 : i32, params = #rock.xdlops_gemm_params<kpackPerBlock = 8, mPerBlock = 8, nPerBlock = 64, kpack = 8, mPerWave = 4, nPerWave = 64, forceUnroll = true>, storeMethod = #rock<StoreMethod set>}> : (memref<1x9x32xf32>, memref<1x288x12544xf32>, memref<1x32x12544xf32>) -> ()

Exception in gpu::mlir_op: /src/AMDMIGraphX/src/targets/gpu/mlir.cpp:731: run_backend_pipeline: MLIR backend compilation failed: Error: 'rock.gemm' op K dimensions don't match k_a = 9 k_b = 576
Note: see current operation: "rock.gemm"(%8, %11, %12) <{aTransposed, arch = "gfx908:sramecc+:xnack-", derivedBlockSize = 256 : i32, features = #rock<GemmFeatures mfma|dot|atomic_add>, gridSize = 25 : i32, numCU = 120 : i32, params = #rock.xdlops_gemm_params<kpackPerBlock = 4, mPerBlock = 128, nPerBlock = 128, kpack = 4, mPerWave = 64, nPerWave = 64, forceUnroll = true>, storeMethod = #rock<StoreMethod set>}> : (memref<1x9x64xf32>, memref<1x576x3136xf32>, memref<1x64x3136xf32>) -> ()

Exception in gpu::mlir_op: /src/AMDMIGraphX/src/targets/gpu/mlir.cpp:731: run_backend_pipeline: MLIR backend compilation failed: Error: 'rock.gemm' op K dimensions don't match k_a = 9 k_b = 2304
Note: see current operation: "rock.gemm"(%8, %11, %12) <{aTransposed, arch = "gfx908:sramecc+:xnack-", derivedBlockSize = 256 : i32, features = #rock<GemmFeatures mfma|dot|atomic_add>, gridSize = 52 : i32, numCU = 120 : i32, params = #rock.xdlops_gemm_params<kpackPerBlock = 8, mPerBlock = 64, nPerBlock = 64, kpack = 4, mPerWave = 32, nPerWave = 32, forceUnroll = true>, storeMethod = #rock<StoreMethod set>}> : (memref<1x9x256xf32>, memref<1x2304x784xf32>, memref<1x256x784xf32>) -> ()

Exception in gpu::mlir_op: /src/AMDMIGraphX/src/targets/gpu/mlir.cpp:731: run_backend_pipeline: MLIR backend compilation failed: Error: 'rock.gemm' op K dimensions don't match k_a = 9 k_b = 9216
Note: see current operation: "rock.gemm"(%8, %11, %12) <{aTransposed, arch = "gfx908:sramecc+:xnack-", derivedBlockSize = 256 : i32, features = #rock<GemmFeatures mfma|dot|atomic_add>, gridSize = 8 : i32, numCU = 120 : i32, params = #rock.xdlops_gemm_params<kpackPerBlock = 2, mPerBlock = 128, nPerBlock = 128, kpack = 8, mPerWave = 64, nPerWave = 64, forceUnroll = true>, storeMethod = #rock<StoreMethod set>}> : (memref<1x9x1024xf32>, memref<1x9216x49xf32>, memref<1x1024x49xf32>) -> ()

Exception in gpu::mlir_op: /src/AMDMIGraphX/src/targets/gpu/mlir.cpp:731: run_backend_pipeline: MLIR backend compilation failed: Error: 'rock.gemm' op K dimensions don't match k_a = 9 k_b = 1152
Note: see current operation: "rock.gemm"(%8, %11, %12) <{aTransposed, arch = "gfx908:sramecc+:xnack-", derivedBlockSize = 256 : i32, features = #rock<GemmFeatures mfma|dot|atomic_add>, gridSize = 7 : i32, numCU = 120 : i32, params = #rock.xdlops_gemm_params<kpackPerBlock = 4, mPerBlock = 128, nPerBlock = 128, kpack = 8, mPerWave = 64, nPerWave = 64, forceUnroll = true>, storeMethod = #rock<StoreMethod set>}> : (memref<1x9x128xf32>, memref<1x1152x784xf32>, memref<1x128x784xf32>) -> ()

Exception in gpu::mlir_op: /src/AMDMIGraphX/src/targets/gpu/mlir.cpp:731: run_backend_pipeline: MLIR backend compilation failed: Error: 'rock.gemm' op K dimensions don't match k_a = 9 k_b = 1152
Note: see current operation: "rock.gemm"(%8, %11, %12) <{aTransposed, arch = "gfx908:sramecc+:xnack-", derivedBlockSize = 256 : i32, features = #rock<GemmFeatures mfma|dot|atomic_add>, gridSize = 13 : i32, numCU = 120 : i32, params = #rock.xdlops_gemm_params<kpackPerBlock = 4, mPerBlock = 128, nPerBlock = 256, kpack = 4, mPerWave = 64, nPerWave = 128, forceUnroll = true>, storeMethod = #rock<StoreMethod set>}> : (memref<1x9x128xf32>, memref<1x1152x3136xf32>, memref<1x128x3136xf32>) -> ()

Exception in gpu::mlir_op: /src/AMDMIGraphX/src/targets/gpu/mlir.cpp:731: run_backend_pipeline: MLIR backend compilation failed: Error: 'rock.gemm' op K dimensions don't match k_a = 9 k_b = 4608
Note: see current operation: "rock.gemm"(%8, %11, %12) <{aTransposed, arch = "gfx908:sramecc+:xnack-", derivedBlockSize = 256 : i32, features = #rock<GemmFeatures mfma|dot|atomic_add>, gridSize = 16 : i32, numCU = 120 : i32, params = #rock.xdlops_gemm_params<kpackPerBlock = 8, mPerBlock = 32, nPerBlock = 64, kpack = 4, mPerWave = 8, nPerWave = 64, forceUnroll = true>, storeMethod = #rock<StoreMethod set>}> : (memref<1x9x512xf32>, memref<1x4608x49xf32>, memref<1x512x49xf32>) -> ()

Exception in gpu::mlir_op: /src/AMDMIGraphX/src/targets/gpu/mlir.cpp:731: run_backend_pipeline: MLIR backend compilation failed: Error: 'rock.gemm' op K dimensions don't match k_a = 9 k_b = 2304
Note: see current operation: "rock.gemm"(%8, %11, %12) <{aTransposed, arch = "gfx908:sramecc+:xnack-", derivedBlockSize = 256 : i32, features = #rock<GemmFeatures mfma|dot|atomic_add>, gridSize = 32 : i32, numCU = 120 : i32, params = #rock.xdlops_gemm_params<kpackPerBlock = 4, mPerBlock = 32, nPerBlock = 64, kpack = 4, mPerWave = 8, nPerWave = 64, forceUnroll = true>, storeMethod = #rock<StoreMethod set>}> : (memref<1x9x256xf32>, memref<1x2304x196xf32>, memref<1x256x196xf32>) -> ()

Exception in gpu::mlir_op: /src/AMDMIGraphX/src/targets/gpu/mlir.cpp:731: run_backend_pipeline: MLIR backend compilation failed: Error: 'rock.gemm' op K dimensions don't match k_a = 9 k_b = 288
Note: see current operation: "rock.gemm"(%8, %11, %12) <{aTransposed, arch = "gfx908:sramecc+:xnack-", derivedBlockSize = 256 : i32, features = #rock<GemmFeatures mfma|dot|atomic_add>, gridSize = 98 : i32, numCU = 120 : i32, params = #rock.xdlops_gemm_params<kpackPerBlock = 8, mPerBlock = 128, nPerBlock = 128, kpack = 4, mPerWave = 64, nPerWave = 64, forceUnroll = true>, storeMethod = #rock<StoreMethod set>}> : (memref<1x9x32xf32>, memref<1x288x12544xf32>, memref<1x32x12544xf32>) -> ()

Exception in gpu::mlir_op: /src/AMDMIGraphX/src/targets/gpu/mlir.cpp:731: run_backend_pipeline: MLIR backend compilation failed: Error: 'rock.gemm' op K dimensions don't match k_a = 9 k_b = 4608
Note: see current operation: "rock.gemm"(%8, %11, %12) <{aTransposed, arch = "gfx908:sramecc+:xnack-", derivedBlockSize = 64 : i32, features = #rock<GemmFeatures mfma|dot|atomic_add>, gridSize = 416 : i32, numCU = 120 : i32, params = #rock.xdlops_gemm_params<kpackPerBlock = 8, mPerBlock = 16, nPerBlock = 16, kpack = 8, mPerWave = 16, nPerWave = 16, forceUnroll = true>, storeMethod = #rock<StoreMethod set>}> : (memref<1x9x512xf32>, memref<1x4608x196xf32>, memref<1x512x196xf32>) -> ()

Exception in gpu::mlir_op: /src/AMDMIGraphX/src/targets/gpu/mlir.cpp:731: run_backend_pipeline: MLIR backend compilation failed: Error: 'rock.gemm' op K dimensions don't match k_a = 9 k_b = 576
Note: see current operation: "rock.gemm"(%8, %11, %12) <{aTransposed, arch = "gfx908:sramecc+:xnack-", derivedBlockSize = 128 : i32, features = #rock<GemmFeatures mfma|dot|atomic_add>, gridSize = 25 : i32, numCU = 120 : i32, params = #rock.xdlops_gemm_params<kpackPerBlock = 2, mPerBlock = 128, nPerBlock = 128, kpack = 8, mPerWave = 64, nPerWave = 128, forceUnroll = true>, storeMethod = #rock<StoreMethod set>}> : (memref<1x9x64xf32>, memref<1x576x3136xf32>, memref<1x64x3136xf32>) -> ()

Exception in gpu::mlir_op: /src/AMDMIGraphX/src/targets/gpu/mlir.cpp:731: run_backend_pipeline: MLIR backend compilation failed: Error: 'rock.gemm' op K dimensions don't match k_a = 9 k_b = 2304
Note: see current operation: "rock.gemm"(%8, %11, %12) <{aTransposed, arch = "gfx908:sramecc+:xnack-", derivedBlockSize = 256 : i32, features = #rock<GemmFeatures mfma|dot|atomic_add>, gridSize = 52 : i32, numCU = 120 : i32, params = #rock.xdlops_gemm_params<kpackPerBlock = 4, mPerBlock = 64, nPerBlock = 64, kpack = 8, mPerWave = 32, nPerWave = 32, forceUnroll = true>, storeMethod = #rock<StoreMethod set>}> : (memref<1x9x256xf32>, memref<1x2304x784xf32>, memref<1x256x784xf32>) -> ()

Exception in gpu::mlir_op: /src/AMDMIGraphX/src/targets/gpu/mlir.cpp:731: run_backend_pipeline: MLIR backend compilation failed: Error: 'rock.gemm' op K dimensions don't match k_a = 9 k_b = 1152
Note: see current operation: "rock.gemm"(%8, %11, %12) <{aTransposed, arch = "gfx908:sramecc+:xnack-", derivedBlockSize = 64 : i32, features = #rock<GemmFeatures mfma|dot|atomic_add>, gridSize = 392 : i32, numCU = 120 : i32, params = #rock.xdlops_gemm_params<kpackPerBlock = 8, mPerBlock = 16, nPerBlock = 16, kpack = 8, mPerWave = 16, nPerWave = 16, forceUnroll = true>, storeMethod = #rock<StoreMethod set>}> : (memref<1x9x128xf32>, memref<1x1152x784xf32>, memref<1x128x784xf32>) -> ()

Exception in gpu::mlir_op: /src/AMDMIGraphX/src/targets/gpu/mlir.cpp:731: run_backend_pipeline: MLIR backend compilation failed: Error: 'rock.gemm' op K dimensions don't match k_a = 9 k_b = 1152
Note: see current operation: "rock.gemm"(%8, %11, %12) <{aTransposed, arch = "gfx908:sramecc+:xnack-", derivedBlockSize = 256 : i32, features = #rock<GemmFeatures mfma|dot|atomic_add>, gridSize = 26 : i32, numCU = 120 : i32, params = #rock.xdlops_gemm_params<kpackPerBlock = 8, mPerBlock = 64, nPerBlock = 256, kpack = 1, mPerWave = 64, nPerWave = 64, forceUnroll = true>, storeMethod = #rock<StoreMethod set>}> : (memref<1x9x128xf32>, memref<1x1152x3136xf32>, memref<1x128x3136xf32>) -> ()

Exception in gpu::mlir_op: /src/AMDMIGraphX/src/targets/gpu/mlir.cpp:731: run_backend_pipeline: MLIR backend compilation failed: Error: 'rock.gemm' op K dimensions don't match k_a = 9 k_b = 4608
Note: see current operation: "rock.gemm"(%8, %11, %12) <{aTransposed, arch = "gfx908:sramecc+:xnack-", derivedBlockSize = 256 : i32, features = #rock<GemmFeatures mfma|dot|atomic_add>, gridSize = 32 : i32, numCU = 120 : i32, params = #rock.xdlops_gemm_params<kpackPerBlock = 8, mPerBlock = 32, nPerBlock = 32, kpack = 4, mPerWave = 16, nPerWave = 16, forceUnroll = true>, storeMethod = #rock<StoreMethod set>}> : (memref<1x9x512xf32>, memref<1x4608x49xf32>, memref<1x512x49xf32>) -> ()

Exception in gpu::mlir_op: /src/AMDMIGraphX/src/targets/gpu/mlir.cpp:731: run_backend_pipeline: MLIR backend compilation failed: Error: 'rock.gemm' op K dimensions don't match k_a = 9 k_b = 9216
Note: see current operation: "rock.gemm"(%8, %11, %12) <{aTransposed, arch = "gfx908:sramecc+:xnack-", derivedBlockSize = 256 : i32, features = #rock<GemmFeatures mfma|dot|atomic_add>, gridSize = 8 : i32, numCU = 120 : i32, params = #rock.xdlops_gemm_params<kpackPerBlock = 2, mPerBlock = 128, nPerBlock = 128, kpack = 4, mPerWave = 64, nPerWave = 64, forceUnroll = true>, storeMethod = #rock<StoreMethod set>}> : (memref<1x9x1024xf32>, memref<1x9216x49xf32>, memref<1x1024x49xf32>) -> ()

Exception in gpu::mlir_op: /src/AMDMIGraphX/src/targets/gpu/mlir.cpp:731: run_backend_pipeline: MLIR backend compilation failed: Error: 'rock.gemm' op K dimensions don't match k_a = 9 k_b = 2304
Note: see current operation: "rock.gemm"(%8, %11, %12) <{aTransposed, arch = "gfx908:sramecc+:xnack-", derivedBlockSize = 128 : i32, features = #rock<GemmFeatures mfma|dot|atomic_add>, gridSize = 32 : i32, numCU = 120 : i32, params = #rock.xdlops_gemm_params<kpackPerBlock = 2, mPerBlock = 32, nPerBlock = 64, kpack = 8, mPerWave = 32, nPerWave = 32, forceUnroll = true>, storeMethod = #rock<StoreMethod set>}> : (memref<1x9x256xf32>, memref<1x2304x196xf32>, memref<1x256x196xf32>) -> ()

Exception in gpu::mlir_op: /src/AMDMIGraphX/src/targets/gpu/mlir.cpp:731: run_backend_pipeline: MLIR backend compilation failed: Error: 'rock.gemm' op K dimensions don't match k_a = 9 k_b = 288
Note: see current operation: "rock.gemm"(%8, %11, %12) <{aTransposed, arch = "gfx908:sramecc+:xnack-", derivedBlockSize = 256 : i32, features = #rock<GemmFeatures mfma|dot|atomic_add>, gridSize = 98 : i32, numCU = 120 : i32, params = #rock.xdlops_gemm_params<kpackPerBlock = 4, mPerBlock = 128, nPerBlock = 128, kpack = 8, mPerWave = 64, nPerWave = 64, forceUnroll = true>, storeMethod = #rock<StoreMethod set>}> : (memref<1x9x32xf32>, memref<1x288x12544xf32>, memref<1x32x12544xf32>) -> ()

Exception in gpu::mlir_op: /src/AMDMIGraphX/src/targets/gpu/mlir.cpp:731: run_backend_pipeline: MLIR backend compilation failed: Error: 'rock.gemm' op K dimensions don't match k_a = 9 k_b = 4608
Note: see current operation: "rock.gemm"(%8, %11, %12) <{aTransposed, arch = "gfx908:sramecc+:xnack-", derivedBlockSize = 256 : i32, features = #rock<GemmFeatures mfma|dot|atomic_add>, gridSize = 112 : i32, numCU = 120 : i32, params = #rock.xdlops_gemm_params<kpackPerBlock = 8, mPerBlock = 32, nPerBlock = 32, kpack = 8, mPerWave = 16, nPerWave = 16, forceUnroll = true>, storeMethod = #rock<StoreMethod set>}> : (memref<1x9x512xf32>, memref<1x4608x196xf32>, memref<1x512x196xf32>) -> ()

Exception in gpu::mlir_op: /src/AMDMIGraphX/src/targets/gpu/mlir.cpp:731: run_backend_pipeline: MLIR backend compilation failed: Error: 'rock.gemm' op K dimensions don't match k_a = 9 k_b = 576
Note: see current operation: "rock.gemm"(%8, %11, %12) <{aTransposed, arch = "gfx908:sramecc+:xnack-", derivedBlockSize = 256 : i32, features = #rock<GemmFeatures mfma|dot|atomic_add>, gridSize = 25 : i32, numCU = 120 : i32, params = #rock.xdlops_gemm_params<kpackPerBlock = 2, mPerBlock = 128, nPerBlock = 128, kpack = 8, mPerWave = 64, nPerWave = 64, forceUnroll = true>, storeMethod = #rock<StoreMethod set>}> : (memref<1x9x64xf32>, memref<1x576x3136xf32>, memref<1x64x3136xf32>) -> ()

Exception in gpu::mlir_op: /src/AMDMIGraphX/src/targets/gpu/mlir.cpp:731: run_backend_pipeline: MLIR backend compilation failed: Error: 'rock.gemm' op K dimensions don't match k_a = 9 k_b = 2304
Note: see current operation: "rock.gemm"(%8, %11, %12) <{aTransposed, arch = "gfx908:sramecc+:xnack-", derivedBlockSize = 256 : i32, features = #rock<GemmFeatures mfma|dot|atomic_add>, gridSize = 52 : i32, numCU = 120 : i32, params = #rock.xdlops_gemm_params<kpackPerBlock = 4, mPerBlock = 64, nPerBlock = 64, kpack = 8, mPerWave = 16, nPerWave = 64, forceUnroll = true>, storeMethod = #rock<StoreMethod set>}> : (memref<1x9x256xf32>, memref<1x2304x784xf32>, memref<1x256x784xf32>) -> ()

Exception in gpu::mlir_op: /src/AMDMIGraphX/src/targets/gpu/mlir.cpp:731: run_backend_pipeline: MLIR backend compilation failed: Error: 'rock.gemm' op K dimensions don't match k_a = 9 k_b = 1152
Note: see current operation: "rock.gemm"(%8, %11, %12) <{aTransposed, arch = "gfx908:sramecc+:xnack-", derivedBlockSize = 256 : i32, features = #rock<GemmFeatures mfma|dot|atomic_add>, gridSize = 100 : i32, numCU = 120 : i32, params = #rock.xdlops_gemm_params<kpackPerBlock = 8, mPerBlock = 32, nPerBlock = 32, kpack = 8, mPerWave = 16, nPerWave = 16, forceUnroll = true>, storeMethod = #rock<StoreMethod set>}> : (memref<1x9x128xf32>, memref<1x1152x784xf32>, memref<1x128x784xf32>) -> ()

Exception in gpu::mlir_op: /src/AMDMIGraphX/src/targets/gpu/mlir.cpp:731: run_backend_pipeline: MLIR backend compilation failed: Error: 'rock.gemm' op K dimensions don't match k_a = 9 k_b = 1152
Note: see current operation: "rock.gemm"(%8, %11, %12) <{aTransposed, arch = "gfx908:sramecc+:xnack-", derivedBlockSize = 256 : i32, features = #rock<GemmFeatures mfma|dot|atomic_add>, gridSize = 26 : i32, numCU = 120 : i32, params = #rock.xdlops_gemm_params<kpackPerBlock = 4, mPerBlock = 64, nPerBlock = 256, kpack = 4, mPerWave = 64, nPerWave = 64, forceUnroll = true>, storeMethod = #rock<StoreMethod set>}> : (memref<1x9x128xf32>, memref<1x1152x3136xf32>, memref<1x128x3136xf32>) -> ()

Exception in gpu::mlir_op: /src/AMDMIGraphX/src/targets/gpu/mlir.cpp:731: run_backend_pipeline: MLIR backend compilation failed: Error: 'rock.gemm' op K dimensions don't match k_a = 9 k_b = 4608
Note: see current operation: "rock.gemm"(%8, %11, %12) <{aTransposed, arch = "gfx908:sramecc+:xnack-", derivedBlockSize = 256 : i32, features = #rock<GemmFeatures mfma|dot|atomic_add>, gridSize = 32 : i32, numCU = 120 : i32, params = #rock.xdlops_gemm_params<kpackPerBlock = 4, mPerBlock = 32, nPerBlock = 32, kpack = 8, mPerWave = 16, nPerWave = 16, forceUnroll = true>, storeMethod = #rock<StoreMethod set>}> : (memref<1x9x512xf32>, memref<1x4608x49xf32>, memref<1x512x49xf32>) -> ()

Exception in gpu::mlir_op: /src/AMDMIGraphX/src/targets/gpu/mlir.cpp:731: run_backend_pipeline: MLIR backend compilation failed: Error: 'rock.gemm' op K dimensions don't match k_a = 9 k_b = 2304
Note: see current operation: "rock.gemm"(%8, %11, %12) <{aTransposed, arch = "gfx908:sramecc+:xnack-", derivedBlockSize = 256 : i32, features = #rock<GemmFeatures mfma|dot|atomic_add>, gridSize = 32 : i32, numCU = 120 : i32, params = #rock.xdlops_gemm_params<kpackPerBlock = 2, mPerBlock = 32, nPerBlock = 64, kpack = 4, mPerWave = 8, nPerWave = 64, forceUnroll = true>, storeMethod = #rock<StoreMethod set>}> : (memref<1x9x256xf32>, memref<1x2304x196xf32>, memref<1x256x196xf32>) -> ()

Exception in gpu::mlir_op: /src/AMDMIGraphX/src/targets/gpu/mlir.cpp:731: run_backend_pipeline: MLIR backend compilation failed: Error: 'rock.gemm' op K dimensions don't match k_a = 9 k_b = 9216
Note: see current operation: "rock.gemm"(%8, %11, %12) <{aTransposed, arch = "gfx908:sramecc+:xnack-", derivedBlockSize = 256 : i32, features = #rock<GemmFeatures mfma|dot|atomic_add>, gridSize = 16 : i32, numCU = 120 : i32, params = #rock.xdlops_gemm_params<kpackPerBlock = 4, mPerBlock = 64, nPerBlock = 128, kpack = 4, mPerWave = 32, nPerWave = 64, forceUnroll = true>, storeMethod = #rock<StoreMethod set>}> : (memref<1x9x1024xf32>, memref<1x9216x49xf32>, memref<1x1024x49xf32>) -> ()

Exception in gpu::mlir_op: /src/AMDMIGraphX/src/targets/gpu/mlir.cpp:731: run_backend_pipeline: MLIR backend compilation failed: Error: 'rock.gemm' op K dimensions don't match k_a = 9 k_b = 4608
Note: see current operation: "rock.gemm"(%8, %11, %12) <{aTransposed, arch = "gfx908:sramecc+:xnack-", derivedBlockSize = 128 : i32, features = #rock<GemmFeatures mfma|dot|atomic_add>, gridSize = 224 : i32, numCU = 120 : i32, params = #rock.xdlops_gemm_params<kpackPerBlock = 8, mPerBlock = 16, nPerBlock = 32, kpack = 8, mPerWave = 16, nPerWave = 16, forceUnroll = true>, storeMethod = #rock<StoreMethod set>}> : (memref<1x9x512xf32>, memref<1x4608x196xf32>, memref<1x512x196xf32>) -> ()

Exception in gpu::mlir_op: /src/AMDMIGraphX/src/targets/gpu/mlir.cpp:731: run_backend_pipeline: MLIR backend compilation failed: Error: 'rock.gemm' op K dimensions don't match k_a = 9 k_b = 576
Note: see current operation: "rock.gemm"(%8, %11, %12) <{aTransposed, arch = "gfx908:sramecc+:xnack-", derivedBlockSize = 256 : i32, features = #rock<GemmFeatures mfma|dot|atomic_add>, gridSize = 25 : i32, numCU = 120 : i32, params = #rock.xdlops_gemm_params<kpackPerBlock = 2, mPerBlock = 128, nPerBlock = 128, kpack = 4, mPerWave = 64, nPerWave = 64, forceUnroll = true>, storeMethod = #rock<StoreMethod set>}> : (memref<1x9x64xf32>, memref<1x576x3136xf32>, memref<1x64x3136xf32>) -> ()

Exception in gpu::mlir_op: /src/AMDMIGraphX/src/targets/gpu/mlir.cpp:731: run_backend_pipeline: MLIR backend compilation failed: Error: 'rock.gemm' op K dimensions don't match k_a = 9 k_b = 2304
Note: see current operation: "rock.gemm"(%8, %11, %12) <{aTransposed, arch = "gfx908:sramecc+:xnack-", derivedBlockSize = 128 : i32, features = #rock<GemmFeatures mfma|dot|atomic_add>, gridSize = 104 : i32, numCU = 120 : i32, params = #rock.xdlops_gemm_params<kpackPerBlock = 8, mPerBlock = 32, nPerBlock = 64, kpack = 4, mPerWave = 32, nPerWave = 32, forceUnroll = true>, storeMethod = #rock<StoreMethod set>}> : (memref<1x9x256xf32>, memref<1x2304x784xf32>, memref<1x256x784xf32>) -> ()

Exception in gpu::mlir_op: /src/AMDMIGraphX/src/targets/gpu/mlir.cpp:731: run_backend_pipeline: MLIR backend compilation failed: Error: 'rock.gemm' op K dimensions don't match k_a = 9 k_b = 4608
Note: see current operation: "rock.gemm"(%8, %11, %12) <{aTransposed, arch = "gfx908:sramecc+:xnack-", derivedBlockSize = 256 : i32, features = #rock<GemmFeatures mfma|dot|atomic_add>, gridSize = 32 : i32, numCU = 120 : i32, params = #rock.xdlops_gemm_params<kpackPerBlock = 8, mPerBlock = 16, nPerBlock = 64, kpack = 4, mPerWave = 16, nPerWave = 16, forceUnroll = true>, storeMethod = #rock<StoreMethod set>}> : (memref<1x9x512xf32>, memref<1x4608x49xf32>, memref<1x512x49xf32>) -> ()

Exception in gpu::mlir_op: /src/AMDMIGraphX/src/targets/gpu/mlir.cpp:731: run_backend_pipeline: MLIR backend compilation failed: Error: 'rock.gemm' op K dimensions don't match k_a = 9 k_b = 1152
Note: see current operation: "rock.gemm"(%8, %11, %12) <{aTransposed, arch = "gfx908:sramecc+:xnack-", derivedBlockSize = 256 : i32, features = #rock<GemmFeatures mfma|dot|atomic_add>, gridSize = 98 : i32, numCU = 120 : i32, params = #rock.xdlops_gemm_params<kpackPerBlock = 8, mPerBlock = 64, nPerBlock = 64, kpack = 4, mPerWave = 32, nPerWave = 32, forceUnroll = true>, storeMethod = #rock<StoreMethod set>}> : (memref<1x9x128xf32>, memref<1x1152x3136xf32>, memref<1x128x3136xf32>) -> ()

Exception in gpu::mlir_op: /src/AMDMIGraphX/src/targets/gpu/mlir.cpp:731: run_backend_pipeline: MLIR backend compilation failed: Error: 'rock.gemm' op K dimensions don't match k_a = 9 k_b = 1152
Note: see current operation: "rock.gemm"(%8, %11, %12) <{aTransposed, arch = "gfx908:sramecc+:xnack-", derivedBlockSize = 128 : i32, features = #rock<GemmFeatures mfma|dot|atomic_add>, gridSize = 200 : i32, numCU = 120 : i32, params = #rock.xdlops_gemm_params<kpackPerBlock = 8, mPerBlock = 16, nPerBlock = 32, kpack = 8, mPerWave = 16, nPerWave = 16, forceUnroll = true>, storeMethod = #rock<StoreMethod set>}> : (memref<1x9x128xf32>, memref<1x1152x784xf32>, memref<1x128x784xf32>) -> ()

Exception in gpu::mlir_op: /src/AMDMIGraphX/src/targets/gpu/mlir.cpp:731: run_backend_pipeline: MLIR backend compilation failed: Error: 'rock.gemm' op K dimensions don't match k_a = 9 k_b = 2304
Note: see current operation: "rock.gemm"(%8, %11, %12) <{aTransposed, arch = "gfx908:sramecc+:xnack-", derivedBlockSize = 64 : i32, features = #rock<GemmFeatures mfma|dot|atomic_add>, gridSize = 256 : i32, numCU = 120 : i32, params = #rock.xdlops_gemm_params<kpackPerBlock = 16, mPerBlock = 4, nPerBlock = 64, kpack = 1, mPerWave = 4, nPerWave = 64, forceUnroll = true>, storeMethod = #rock<StoreMethod set>}> : (memref<1x9x256xf32>, memref<1x2304x196xf32>, memref<1x256x196xf32>) -> ()

…
Exception in gpu::mlir_op: /src/AMDMIGraphX/src/targets/gpu/mlir.cpp:731: run_backend_pipeline: MLIR backend compilation failed: Error: 'rock.gemm' op K dimensions don't match k_a = 9 k_b = 288
Note: see current operation: "rock.gemm"(%8, %11, %12) <{aTransposed, arch = "gfx908:sramecc+:xnack-", derivedBlockSize = 256 : i32, features = #rock<GemmFeatures mfma|dot|atomic_add>, gridSize = 196 : i32, numCU = 120 : i32, params = #rock.xdlops_gemm_params<kpackPerBlock = 4, mPerBlock = 64, nPerBlock = 64, kpack = 4, mPerWave = 16, nPerWave = 64, forceUnroll = true>, storeMethod = #rock<StoreMethod set>}> : (memref<1x9x32xf32>, memref<1x288x12544xf32>, memref<1x32x12544xf32>) -> ()

Exception in gpu::mlir_op: /src/AMDMIGraphX/src/targets/gpu/mlir.cpp:731: run_backend_pipeline: MLIR backend compilation failed: Error: 'rock.gemm' op K dimensions don't match k_a = 9 k_b = 288
Note: see current operation: "rock.gemm"(%8, %11, %12) <{aTransposed, arch = "gfx908:sramecc+:xnack-", derivedBlockSize = 256 : i32, features = #rock<GemmFeatures mfma|dot|atomic_add>, gridSize = 196 : i32, numCU = 120 : i32, params = #rock.xdlops_gemm_params<kpackPerBlock = 2, mPerBlock = 64, nPerBlock = 64, kpack = 8, mPerWave = 32, nPerWave = 32, forceUnroll = true>, storeMethod = #rock<StoreMethod set>}> : (memref<1x9x32xf32>, memref<1x288x12544xf32>, memref<1x32x12544xf32>) -> ()

Exception in gpu::mlir_op: /src/AMDMIGraphX/src/targets/gpu/mlir.cpp:731: run_backend_pipeline: MLIR backend compilation failed: Error: 'rock.gemm' op K dimensions don't match k_a = 9 k_b = 288
Note: see current operation: "rock.gemm"(%8, %11, %12) <{aTransposed, arch = "gfx908:sramecc+:xnack-", derivedBlockSize = 128 : i32, features = #rock<GemmFeatures mfma|dot|atomic_add>, gridSize = 196 : i32, numCU = 120 : i32, params = #rock.xdlops_gemm_params<kpackPerBlock = 8, mPerBlock = 32, nPerBlock = 64, kpack = 4, mPerWave = 32, nPerWave = 32, forceUnroll = true>, storeMethod = #rock<StoreMethod set>}> : (memref<1x9x32xf32>, memref<1x288x12544xf32>, memref<1x32x12544xf32>) -> ()

Exception in gpu::mlir_op: /src/AMDMIGraphX/src/targets/gpu/mlir.cpp:731: run_backend_pipeline: MLIR backend compilation failed: Error: 'rock.gemm' op K dimensions don't match k_a = 9 k_b = 288
Note: see current operation: "rock.gemm"(%8, %11, %12) <{aTransposed, arch = "gfx908:sramecc+:xnack-", derivedBlockSize = 256 : i32, features = #rock<GemmFeatures mfma|dot|atomic_add>, gridSize = 196 : i32, numCU = 120 : i32, params = #rock.xdlops_gemm_params<kpackPerBlock = 8, mPerBlock = 32, nPerBlock = 64, kpack = 4, mPerWave = 8, nPerWave = 64, forceUnroll = true>, storeMethod = #rock<StoreMethod set>}> : (memref<1x9x32xf32>, memref<1x288x12544xf32>, memref<1x32x12544xf32>) -> ()

Exception in gpu::mlir_op: /src/AMDMIGraphX/src/targets/gpu/mlir.cpp:731: run_backend_pipeline: MLIR backend compilation failed: Error: 'rock.gemm' op K dimensions don't match k_a = 9 k_b = 288
Note: see current operation: "rock.gemm"(%8, %11, %12) <{aTransposed, arch = "gfx908:sramecc+:xnack-", derivedBlockSize = 256 : i32, features = #rock<GemmFeatures mfma|dot|atomic_add>, gridSize = 392 : i32, numCU = 120 : i32, params = #rock.xdlops_gemm_params<kpackPerBlock = 8, mPerBlock = 32, nPerBlock = 32, kpack = 4, mPerWave = 16, nPerWave = 16, forceUnroll = true>, storeMethod = #rock<StoreMethod set>}> : (memref<1x9x32xf32>, memref<1x288x12544xf32>, memref<1x32x12544xf32>) -> ()

Exception in gpu::mlir_op: /src/AMDMIGraphX/src/targets/gpu/mlir.cpp:731: run_backend_pipeline: MLIR backend compilation failed: Error: 'rock.gemm' op K dimensions don't match k_a = 9 k_b = 288
Note: see current operation: "rock.gemm"(%8, %11, %12) <{aTransposed, arch = "gfx908:sramecc+:xnack-", derivedBlockSize = 256 : i32, features = #rock<GemmFeatures mfma|dot|atomic_add>, gridSize = 392 : i32, numCU = 120 : i32, params = #rock.xdlops_gemm_params<kpackPerBlock = 4, mPerBlock = 32, nPerBlock = 32, kpack = 8, mPerWave = 16, nPerWave = 16, forceUnroll = true>, storeMethod = #rock<StoreMethod set>}> : (memref<1x9x32xf32>, memref<1x288x12544xf32>, memref<1x32x12544xf32>) -> ()

Exception in gpu::mlir_op: /src/AMDMIGraphX/src/targets/gpu/mlir.cpp:731: run_backend_pipeline: MLIR backend compilation failed: Error: 'rock.gemm' op K dimensions don't match k_a = 9 k_b = 288
Note: see current operation: "rock.gemm"(%8, %11, %12) <{aTransposed, arch = "gfx908:sramecc+:xnack-", derivedBlockSize = 256 : i32, features = #rock<GemmFeatures mfma|dot|atomic_add>, gridSize = 392 : i32, numCU = 120 : i32, params = #rock.xdlops_gemm_params<kpackPerBlock = 8, mPerBlock = 16, nPerBlock = 64, kpack = 4, mPerWave = 16, nPerWave = 16, forceUnroll = true>, storeMethod = #rock<StoreMethod set>}> : (memref<1x9x32xf32>, memref<1x288x12544xf32>, memref<1x32x12544xf32>) -> ()

Exception in gpu::mlir_op: /src/AMDMIGraphX/src/targets/gpu/mlir.cpp:731: run_backend_pipeline: MLIR backend compilation failed: Error: 'rock.gemm' op K dimensions don't match k_a = 9 k_b = 288
Note: see current operation: "rock.gemm"(%8, %11, %12) <{aTransposed, arch = "gfx908:sramecc+:xnack-", derivedBlockSize = 128 : i32, features = #rock<GemmFeatures mfma|dot|atomic_add>, gridSize = 784 : i32, numCU = 120 : i32, params = #rock.xdlops_gemm_params<kpackPerBlock = 8, mPerBlock = 16, nPerBlock = 32, kpack = 4, mPerWave = 16, nPerWave = 16, forceUnroll = true>, storeMethod = #rock<StoreMethod set>}> : (memref<1x9x32xf32>, memref<1x288x12544xf32>, memref<1x32x12544xf32>) -> ()

Exception in gpu::mlir_op: /src/AMDMIGraphX/src/targets/gpu/mlir.cpp:731: run_backend_pipeline: MLIR backend compilation failed: Error: 'rock.gemm' op K dimensions don't match k_a = 9 k_b = 576
Note: see current operation: "rock.gemm"(%8, %11, %12) <{aTransposed, arch = "gfx908:sramecc+:xnack-", derivedBlockSize = 256 : i32, features = #rock<GemmFeatures mfma|dot|atomic_add>, gridSize = 49 : i32, numCU = 120 : i32, params = #rock.xdlops_gemm_params<kpackPerBlock = 4, mPerBlock = 64, nPerBlock = 64, kpack = 4, mPerWave = 32, nPerWave = 32, forceUnroll = true>, storeMethod = #rock<StoreMethod set>}> : (memref<1x9x64xf32>, memref<1x576x3136xf32>, memref<1x64x3136xf32>) -> ()

Exception in gpu::mlir_op: /src/AMDMIGraphX/src/targets/gpu/mlir.cpp:731: run_backend_pipeline: MLIR backend compilation failed: Error: 'rock.gemm' op K dimensions don't match k_a = 9 k_b = 576
Note: see current operation: "rock.gemm"(%8, %11, %12) <{aTransposed, arch = "gfx908:sramecc+:xnack-", derivedBlockSize = 256 : i32, features = #rock<GemmFeatures mfma|dot|atomic_add>, gridSize = 49 : i32, numCU = 120 : i32, params = #rock.xdlops_gemm_params<kpackPerBlock = 4, mPerBlock = 64, nPerBlock = 64, kpack = 4, mPerWave = 16, nPerWave = 64, forceUnroll = true>, storeMethod = #rock<StoreMethod set>}> : (memref<1x9x64xf32>, memref<1x576x3136xf32>, memref<1x64x3136xf32>) -> ()

Exception in gpu::mlir_op: /src/AMDMIGraphX/src/targets/gpu/mlir.cpp:731: run_backend_pipeline: MLIR backend compilation failed: Error: 'rock.gemm' op K dimensions don't match k_a = 9 k_b = 576
Note: see current operation: "rock.gemm"(%8, %11, %12) <{aTransposed, arch = "gfx908:sramecc+:xnack-", derivedBlockSize = 256 : i32, features = #rock<GemmFeatures mfma|dot|atomic_add>, gridSize = 49 : i32, numCU = 120 : i32, params = #rock.xdlops_gemm_params<kpackPerBlock = 2, mPerBlock = 64, nPerBlock = 64, kpack = 8, mPerWave = 32, nPerWave = 32, forceUnroll = true>, storeMethod = #rock<StoreMethod set>}> : (memref<1x9x64xf32>, memref<1x576x3136xf32>, memref<1x64x3136xf32>) -> ()

Exception in gpu::mlir_op: /src/AMDMIGraphX/src/targets/gpu/mlir.cpp:731: run_backend_pipeline: MLIR backend compilation failed: Error: 'rock.gemm' op K dimensions don't match k_a = 9 k_b = 576
Note: see current operation: "rock.gemm"(%8, %11, %12) <{aTransposed, arch = "gfx908:sramecc+:xnack-", derivedBlockSize = 64 : i32, features = #rock<GemmFeatures mfma|dot|atomic_add>, gridSize = 98 : i32, numCU = 120 : i32, params = #rock.xdlops_gemm_params<kpackPerBlock = 4, mPerBlock = 32, nPerBlock = 64, kpack = 4, mPerWave = 32, nPerWave = 64, forceUnroll = true>, storeMethod = #rock<StoreMethod set>}> : (memref<1x9x64xf32>, memref<1x576x3136xf32>, memref<1x64x3136xf32>) -> ()

Exception in gpu::mlir_op: /src/AMDMIGraphX/src/targets/gpu/mlir.cpp:731: run_backend_pipeline: MLIR backend compilation failed: Error: 'rock.gemm' op K dimensions don't match k_a = 9 k_b = 576
Note: see current operation: "rock.gemm"(%8, %11, %12) <{aTransposed, arch = "gfx908:sramecc+:xnack-", derivedBlockSize = 256 : i32, features = #rock<GemmFeatures mfma|dot|atomic_add>, gridSize = 98 : i32, numCU = 120 : i32, params = #rock.xdlops_gemm_params<kpackPerBlock = 4, mPerBlock = 32, nPerBlock = 64, kpack = 4, mPerWave = 8, nPerWave = 64, forceUnroll = true>, storeMethod = #rock<StoreMethod set>}> : (memref<1x9x64xf32>, memref<1x576x3136xf32>, memref<1x64x3136xf32>) -> ()

Exception in gpu::mlir_op: /src/AMDMIGraphX/src/targets/gpu/mlir.cpp:731: run_backend_pipeline: MLIR backend compilation failed: Error: 'rock.gemm' op K dimensions don't match k_a = 9 k_b = 576
Note: see current operation: "rock.gemm"(%8, %11, %12) <{aTransposed, arch = "gfx908:sramecc+:xnack-", derivedBlockSize = 128 : i32, features = #rock<GemmFeatures mfma|dot|atomic_add>, gridSize = 98 : i32, numCU = 120 : i32, params = #rock.xdlops_gemm_params<kpackPerBlock = 2, mPerBlock = 32, nPerBlock = 64, kpack = 8, mPerWave = 32, nPerWave = 32, forceUnroll = true>, storeMethod = #rock<StoreMethod set>}> : (memref<1x9x64xf32>, memref<1x576x3136xf32>, memref<1x64x3136xf32>) -> ()

Exception in gpu::mlir_op: /src/AMDMIGraphX/src/targets/gpu/mlir.cpp:731: run_backend_pipeline: MLIR backend compilation failed: Error: 'rock.gemm' op K dimensions don't match k_a = 9 k_b = 576
Note: see current operation: "rock.gemm"(%8, %11, %12) <{aTransposed, arch = "gfx908:sramecc+:xnack-", derivedBlockSize = 256 : i32, features = #rock<GemmFeatures mfma|dot|atomic_add>, gridSize = 98 : i32, numCU = 120 : i32, params = #rock.xdlops_gemm_params<kpackPerBlock = 2, mPerBlock = 32, nPerBlock = 64, kpack = 4, mPerWave = 8, nPerWave = 64, forceUnroll = true>, storeMethod = #rock<StoreMethod set>}> : (memref<1x9x64xf32>, memref<1x576x3136xf32>, memref<1x64x3136xf32>) -> ()

Exception in gpu::mlir_op: /src/AMDMIGraphX/src/targets/gpu/mlir.cpp:731: run_backend_pipeline: MLIR backend compilation failed: Error: 'rock.gemm' op K dimensions don't match k_a = 9 k_b = 576
Note: see current operation: "rock.gemm"(%8, %11, %12) <{aTransposed, arch = "gfx908:sramecc+:xnack-", derivedBlockSize = 64 : i32, features = #rock<GemmFeatures mfma|dot|atomic_add>, gridSize = 784 : i32, numCU = 120 : i32, params = #rock.xdlops_gemm_params<kpackPerBlock = 4, mPerBlock = 16, nPerBlock = 16, kpack = 4, mPerWave = 16, nPerWave = 16, forceUnroll = true>, storeMethod = #rock<StoreMethod set>}> : (memref<1x9x64xf32>, memref<1x576x3136xf32>, memref<1x64x3136xf32>) -> ()

Exception in gpu::mlir_op: /src/AMDMIGraphX/src/targets/gpu/mlir.cpp:731: run_backend_pipeline: MLIR backend compilation failed: Error: 'rock.gemm' op K dimensions don't match k_a = 9 k_b = 576
Note: see current operation: "rock.gemm"(%8, %11, %12) <{aTransposed, arch = "gfx908:sramecc+:xnack-", derivedBlockSize = 64 : i32, features = #rock<GemmFeatures mfma|dot|atomic_add>, gridSize = 784 : i32, numCU = 120 : i32, params = #rock.xdlops_gemm_params<kpackPerBlock = 16, mPerBlock = 4, nPerBlock = 64, kpack = 1, mPerWave = 4, nPerWave = 64, forceUnroll = true>, storeMethod = #rock<StoreMethod set>}> : (memref<1x9x64xf32>, memref<1x576x3136xf32>, memref<1x64x3136xf32>) -> ()

Exception in gpu::mlir_op: /src/AMDMIGraphX/src/targets/gpu/mlir.cpp:731: run_backend_pipeline: MLIR backend compilation failed: Error: 'rock.gemm' op K dimensions don't match k_a = 9 k_b = 576
Note: see current operation: "rock.gemm"(%8, %11, %12) <{aTransposed, arch = "gfx908:sramecc+:xnack-", derivedBlockSize = 64 : i32, features = #rock<GemmFeatures mfma|dot|atomic_add>, gridSize = 784 : i32, numCU = 120 : i32, params = #rock.xdlops_gemm_params<kpackPerBlock = 2, mPerBlock = 4, nPerBlock = 64, kpack = 8, mPerWave = 4, nPerWave = 64, forceUnroll = true>, storeMethod = #rock<StoreMethod set>}> : (memref<1x9x64xf32>, memref<1x576x3136xf32>, memref<1x64x3136xf32>) -> ()

Exception in gpu::mlir_op: /src/AMDMIGraphX/src/targets/gpu/mlir.cpp:731: run_backend_pipeline: MLIR backend compilation failed: Error: 'rock.gemm' op K dimensions don't match k_a = 9 k_b = 576
Note: see current operation: "rock.gemm"(%8, %11, %12) <{aTransposed, arch = "gfx908:sramecc+:xnack-", derivedBlockSize = 256 : i32, features = #rock<GemmFeatures mfma|dot|atomic_add>, gridSize = 25 : i32, numCU = 120 : i32, params = #rock.xdlops_gemm_params<kpackPerBlock = 4, mPerBlock = 64, nPerBlock = 128, kpack = 4, mPerWave = 32, nPerWave = 64, forceUnroll = true>, storeMethod = #rock<StoreMethod set>}> : (memref<1x9x64xf32>, memref<1x576x3136xf32>, memref<1x64x3136xf32>) -> ()

Exception in gpu::mlir_op: /src/AMDMIGraphX/src/targets/gpu/mlir.cpp:731: run_backend_pipeline: MLIR backend compilation failed: Error: 'rock.gemm' op K dimensions don't match k_a = 9 k_b = 576
Note: see current operation: "rock.gemm"(%8, %11, %12) <{aTransposed, arch = "gfx908:sramecc+:xnack-", derivedBlockSize = 256 : i32, features = #rock<GemmFeatures mfma|dot|atomic_add>, gridSize = 25 : i32, numCU = 120 : i32, params = #rock.xdlops_gemm_params<kpackPerBlock = 2, mPerBlock = 64, nPerBlock = 128, kpack = 8, mPerWave = 32, nPerWave = 64, forceUnroll = true>, storeMethod = #rock<StoreMethod set>}> : (memref<1x9x64xf32>, memref<1x576x3136xf32>, memref<1x64x3136xf32>) -> ()

Exception in gpu::mlir_op: /src/AMDMIGraphX/src/targets/gpu/mlir.cpp:731: run_backend_pipeline: MLIR backend compilation failed: Error: 'rock.gemm' op K dimensions don't match k_a = 9 k_b = 576
Note: see current operation: "rock.gemm"(%8, %11, %12) <{aTransposed, arch = "gfx908:sramecc+:xnack-", derivedBlockSize = 256 : i32, features = #rock<GemmFeatures mfma|dot|atomic_add>, gridSize = 25 : i32, numCU = 120 : i32, params = #rock.xdlops_gemm_params<kpackPerBlock = 2, mPerBlock = 64, nPerBlock = 128, kpack = 4, mPerWave = 32, nPerWave = 64, forceUnroll = true>, storeMethod = #rock<StoreMethod set>}> : (memref<1x9x64xf32>, memref<1x576x3136xf32>, memref<1x64x3136xf32>) -> ()

Exception in gpu::mlir_op: /src/AMDMIGraphX/src/targets/gpu/mlir.cpp:731: run_backend_pipeline: MLIR backend compilation failed: Error: 'rock.gemm' op K dimensions don't match k_a = 9 k_b = 4608
Note: see current operation: "rock.gemm"(%8, %11, %12) <{aTransposed, arch = "gfx908:sramecc+:xnack-", derivedBlockSize = 256 : i32, features = #rock<GemmFeatures mfma|dot|atomic_add>, gridSize = 8 : i32, numCU = 120 : i32, params = #rock.xdlops_gemm_params<kpackPerBlock = 4, mPerBlock = 64, nPerBlock = 64, kpack = 4, mPerWave = 32, nPerWave = 32, forceUnroll = true>, storeMethod = #rock<StoreMethod set>}> : (memref<1x9x512xf32>, memref<1x4608x49xf32>, memref<1x512x49xf32>) -> ()

Exception in gpu::mlir_op: /src/AMDMIGraphX/src/targets/gpu/mlir.cpp:731: run_backend_pipeline: MLIR backend compilation failed: Error: 'rock.gemm' op K dimensions don't match k_a = 9 k_b = 4608
Note: see current operation: "rock.gemm"(%8, %11, %12) <{aTransposed, arch = "gfx908:sramecc+:xnack-", derivedBlockSize = 256 : i32, features = #rock<GemmFeatures mfma|dot|atomic_add>, gridSize = 8 : i32, numCU = 120 : i32, params = #rock.xdlops_gemm_params<kpackPerBlock = 4, mPerBlock = 64, nPerBlock = 64, kpack = 4, mPerWave = 16, nPerWave = 64, forceUnroll = true>, storeMethod = #rock<StoreMethod set>}> : (memref<1x9x512xf32>, memref<1x4608x49xf32>, memref<1x512x49xf32>) -> ()

Exception in gpu::mlir_op: /src/AMDMIGraphX/src/targets/gpu/mlir.cpp:731: run_backend_pipeline: MLIR backend compilation failed: Error: 'rock.gemm' op K dimensions don't match k_a = 9 k_b = 4608
Note: see current operation: "rock.gemm"(%8, %11, %12) <{aTransposed, arch = "gfx908:sramecc+:xnack-", derivedBlockSize = 256 : i32, features = #rock<GemmFeatures mfma|dot|atomic_add>, gridSize = 8 : i32, numCU = 120 : i32, params = #rock.xdlops_gemm_params<kpackPerBlock = 2, mPerBlock = 64, nPerBlock = 64, kpack = 8, mPerWave = 32, nPerWave = 32, forceUnroll = true>, storeMethod = #rock<StoreMethod set>}> : (memref<1x9x512xf32>, memref<1x4608x49xf32>, memref<1x512x49xf32>) -> ()

Exception in gpu::mlir_op: /src/AMDMIGraphX/src/targets/gpu/mlir.cpp:731: run_backend_pipeline: MLIR backend compilation failed: Error: 'rock.gemm' op K dimensions don't match k_a = 9 k_b = 4608
Note: see current operation: "rock.gemm"(%8, %11, %12) <{aTransposed, arch = "gfx908:sramecc+:xnack-", derivedBlockSize = 64 : i32, features = #rock<GemmFeatures mfma|dot|atomic_add>, gridSize = 16 : i32, numCU = 120 : i32, params = #rock.xdlops_gemm_params<kpackPerBlock = 4, mPerBlock = 32, nPerBlock = 64, kpack = 4, mPerWave = 32, nPerWave = 64, forceUnroll = true>, storeMethod = #rock<StoreMethod set>}> : (memref<1x9x512xf32>, memref<1x4608x49xf32>, memref<1x512x49xf32>) -> ()

Exception in gpu::mlir_op: /src/AMDMIGraphX/src/targets/gpu/mlir.cpp:731: run_backend_pipeline: MLIR backend compilation failed: Error: 'rock.gemm' op K dimensions don't match k_a = 9 k_b = 4608
Note: see current operation: "rock.gemm"(%8, %11, %12) <{aTransposed, arch = "gfx908:sramecc+:xnack-", derivedBlockSize = 256 : i32, features = #rock<GemmFeatures mfma|dot|atomic_add>, gridSize = 16 : i32, numCU = 120 : i32, params = #rock.xdlops_gemm_params<kpackPerBlock = 4, mPerBlock = 32, nPerBlock = 64, kpack = 4, mPerWave = 8, nPerWave = 64, forceUnroll = true>, storeMethod = #rock<StoreMethod set>}> : (memref<1x9x512xf32>, memref<1x4608x49xf32>, memref<1x512x49xf32>) -> ()

Exception in gpu::mlir_op: /src/AMDMIGraphX/src/targets/gpu/mlir.cpp:731: run_backend_pipeline: MLIR backend compilation failed: Error: 'rock.gemm' op K dimensions don't match k_a = 9 k_b = 4608
Note: see current operation: "rock.gemm"(%8, %11, %12) <{aTransposed, arch = "gfx908:sramecc+:xnack-", derivedBlockSize = 128 : i32, features = #rock<GemmFeatures mfma|dot|atomic_add>, gridSize = 16 : i32, numCU = 120 : i32, params = #rock.xdlops_gemm_params<kpackPerBlock = 2, mPerBlock = 32, nPerBlock = 64, kpack = 8, mPerWave = 32, nPerWave = 32, forceUnroll = true>, storeMethod = #rock<StoreMethod set>}> : (memref<1x9x512xf32>, memref<1x4608x49xf32>, memref<1x512x49xf32>) -> ()

Exception in gpu::mlir_op: /src/AMDMIGraphX/src/targets/gpu/mlir.cpp:731: run_backend_pipeline: MLIR backend compilation failed: Error: 'rock.gemm' op K dimensions don't match k_a = 9 k_b = 4608
Note: see current operation: "rock.gemm"(%8, %11, %12) <{aTransposed, arch = "gfx908:sramecc+:xnack-", derivedBlockSize = 256 : i32, features = #rock<GemmFeatures mfma|dot|atomic_add>, gridSize = 16 : i32, numCU = 120 : i32, params = #rock.xdlops_gemm_params<kpackPerBlock = 2, mPerBlock = 32, nPerBlock = 64, kpack = 4, mPerWave = 8, nPerWave = 64, forceUnroll = true>, storeMethod = #rock<StoreMethod set>}> : (memref<1x9x512xf32>, memref<1x4608x49xf32>, memref<1x512x49xf32>) -> ()

Exception in gpu::mlir_op: /src/AMDMIGraphX/src/targets/gpu/mlir.cpp:731: run_backend_pipeline: MLIR backend compilation failed: Error: 'rock.gemm' op K dimensions don't match k_a = 9 k_b = 4608
Note: see current operation: "rock.gemm"(%8, %11, %12) <{aTransposed, arch = "gfx908:sramecc+:xnack-", derivedBlockSize = 64 : i32, features = #rock<GemmFeatures mfma|dot|atomic_add>, gridSize = 128 : i32, numCU = 120 : i32, params = #rock.xdlops_gemm_params<kpackPerBlock = 4, mPerBlock = 16, nPerBlock = 16, kpack = 4, mPerWave = 16, nPerWave = 16, forceUnroll = true>, storeMethod = #rock<StoreMethod set>}> : (memref<1x9x512xf32>, memref<1x4608x49xf32>, memref<1x512x49xf32>) -> ()

Exception in gpu::mlir_op: /src/AMDMIGraphX/src/targets/gpu/mlir.cpp:731: run_backend_pipeline: MLIR backend compilation failed: Error: 'rock.gemm' op K dimensions don't match k_a = 9 k_b = 4608
Note: see current operation: "rock.gemm"(%8, %11, %12) <{aTransposed, arch = "gfx908:sramecc+:xnack-", derivedBlockSize = 64 : i32, features = #rock<GemmFeatures mfma|dot|atomic_add>, gridSize = 128 : i32, numCU = 120 : i32, params = #rock.xdlops_gemm_params<kpackPerBlock = 16, mPerBlock = 4, nPerBlock = 64, kpack = 1, mPerWave = 4, nPerWave = 64, forceUnroll = true>, storeMethod = #rock<StoreMethod set>}> : (memref<1x9x512xf32>, memref<1x4608x49xf32>, memref<1x512x49xf32>) -> ()

Exception in gpu::mlir_op: /src/AMDMIGraphX/src/targets/gpu/mlir.cpp:731: run_backend_pipeline: MLIR backend compilation failed: Error: 'rock.gemm' op K dimensions don't match k_a = 9 k_b = 4608
Note: see current operation: "rock.gemm"(%8, %11, %12) <{aTransposed, arch = "gfx908:sramecc+:xnack-", derivedBlockSize = 64 : i32, features = #rock<GemmFeatures mfma|dot|atomic_add>, gridSize = 128 : i32, numCU = 120 : i32, params = #rock.xdlops_gemm_params<kpackPerBlock = 2, mPerBlock = 4, nPerBlock = 64, kpack = 8, mPerWave = 4, nPerWave = 64, forceUnroll = true>, storeMethod = #rock<StoreMethod set>}> : (memref<1x9x512xf32>, memref<1x4608x49xf32>, memref<1x512x49xf32>) -> ()

Exception in gpu::mlir_op: /src/AMDMIGraphX/src/targets/gpu/mlir.cpp:731: run_backend_pipeline: MLIR backend compilation failed: Error: 'rock.gemm' op K dimensions don't match k_a = 9 k_b = 1152
Note: see current operation: "rock.gemm"(%8, %11, %12) <{aTransposed, arch = "gfx908:sramecc+:xnack-", derivedBlockSize = 64 : i32, features = #rock<GemmFeatures mfma|dot|atomic_add>, gridSize = 392 : i32, numCU = 120 : i32, params = #rock.xdlops_gemm_params<kpackPerBlock = 4, mPerBlock = 16, nPerBlock = 16, kpack = 4, mPerWave = 16, nPerWave = 16, forceUnroll = true>, storeMethod = #rock<StoreMethod set>}> : (memref<1x9x128xf32>, memref<1x1152x784xf32>, memref<1x128x784xf32>) -> ()

Exception in gpu::mlir_op: /src/AMDMIGraphX/src/targets/gpu/mlir.cpp:731: run_backend_pipeline: MLIR backend compilation failed: Error: 'rock.gemm' op K dimensions don't match k_a = 9 k_b = 1152
Note: see current operation: "rock.gemm"(%8, %11, %12) <{aTransposed, arch = "gfx908:sramecc+:xnack-", derivedBlockSize = 256 : i32, features = #rock<GemmFeatures mfma|dot|atomic_add>, gridSize = 26 : i32, numCU = 120 : i32, params = #rock.xdlops_gemm_params<kpackPerBlock = 4, mPerBlock = 64, nPerBlock = 64, kpack = 4, mPerWave = 32, nPerWave = 32, forceUnroll = true>, storeMethod = #rock<StoreMethod set>}> : (memref<1x9x128xf32>, memref<1x1152x784xf32>, memref<1x128x784xf32>) -> ()

Exception in gpu::mlir_op: /src/AMDMIGraphX/src/targets/gpu/mlir.cpp:731: run_backend_pipeline: MLIR backend compilation failed: Error: 'rock.gemm' op K dimensions don't match k_a = 9 k_b = 1152
Note: see current operation: "rock.gemm"(%8, %11, %12) <{aTransposed, arch = "gfx908:sramecc+:xnack-", derivedBlockSize = 256 : i32, features = #rock<GemmFeatures mfma|dot|atomic_add>, gridSize = 26 : i32, numCU = 120 : i32, params = #rock.xdlops_gemm_params<kpackPerBlock = 4, mPerBlock = 64, nPerBlock = 64, kpack = 4, mPerWave = 16, nPerWave = 64, forceUnroll = true>, storeMethod = #rock<StoreMethod set>}> : (memref<1x9x128xf32>, memref<1x1152x784xf32>, memref<1x128x784xf32>) -> ()

Exception in gpu::mlir_op: /src/AMDMIGraphX/src/targets/gpu/mlir.cpp:731: run_backend_pipeline: MLIR backend compilation failed: Error: 'rock.gemm' op K dimensions don't match k_a = 9 k_b = 1152
Note: see current operation: "rock.gemm"(%8, %11, %12) <{aTransposed, arch = "gfx908:sramecc+:xnack-", derivedBlockSize = 256 : i32, features = #rock<GemmFeatures mfma|dot|atomic_add>, gridSize = 26 : i32, numCU = 120 : i32, params = #rock.xdlops_gemm_params<kpackPerBlock = 2, mPerBlock = 64, nPerBlock = 64, kpack = 8, mPerWave = 32, nPerWave = 32, forceUnroll = true>, storeMethod = #rock<StoreMethod set>}> : (memref<1x9x128xf32>, memref<1x1152x784xf32>, memref<1x128x784xf32>) -> ()

Exception in gpu::mlir_op: /src/AMDMIGraphX/src/targets/gpu/mlir.cpp:731: run_backend_pipeline: MLIR backend compilation failed: Error: 'rock.gemm' op K dimensions don't match k_a = 9 k_b = 1152
Note: see current operation: "rock.gemm"(%8, %11, %12) <{aTransposed, arch = "gfx908:sramecc+:xnack-", derivedBlockSize = 64 : i32, features = #rock<GemmFeatures mfma|dot|atomic_add>, gridSize = 52 : i32, numCU = 120 : i32, params = #rock.xdlops_gemm_params<kpackPerBlock = 4, mPerBlock = 32, nPerBlock = 64, kpack = 4, mPerWave = 32, nPerWave = 64, forceUnroll = true>, storeMethod = #rock<StoreMethod set>}> : (memref<1x9x128xf32>, memref<1x1152x784xf32>, memref<1x128x784xf32>) -> ()

Exception in gpu::mlir_op: /src/AMDMIGraphX/src/targets/gpu/mlir.cpp:731: run_backend_pipeline: MLIR backend compilation failed: Error: 'rock.gemm' op K dimensions don't match k_a = 9 k_b = 1152
Note: see current operation: "rock.gemm"(%8, %11, %12) <{aTransposed, arch = "gfx908:sramecc+:xnack-", derivedBlockSize = 256 : i32, features = #rock<GemmFeatures mfma|dot|atomic_add>, gridSize = 52 : i32, numCU = 120 : i32, params = #rock.xdlops_gemm_params<kpackPerBlock = 4, mPerBlock = 32, nPerBlock = 64, kpack = 4, mPerWave = 8, nPerWave = 64, forceUnroll = true>, storeMethod = #rock<StoreMethod set>}> : (memref<1x9x128xf32>, memref<1x1152x784xf32>, memref<1x128x784xf32>) -> ()

Exception in gpu::mlir_op: /src/AMDMIGraphX/src/targets/gpu/mlir.cpp:731: run_backend_pipeline: MLIR backend compilation failed: Error: 'rock.gemm' op K dimensions don't match k_a = 9 k_b = 1152
Note: see current operation: "rock.gemm"(%8, %11, %12) <{aTransposed, arch = "gfx908:sramecc+:xnack-", derivedBlockSize = 128 : i32, features = #rock<GemmFeatures mfma|dot|atomic_add>, gridSize = 52 : i32, numCU = 120 : i32, params = #rock.xdlops_gemm_params<kpackPerBlock = 2, mPerBlock = 32, nPerBlock = 64, kpack = 8, mPerWave = 32, nPerWave = 32, forceUnroll = true>, storeMethod = #rock<StoreMethod set>}> : (memref<1x9x128xf32>, memref<1x1152x784xf32>, memref<1x128x784xf32>) -> ()

Exception in gpu::mlir_op: /src/AMDMIGraphX/src/targets/gpu/mlir.cpp:731: run_backend_pipeline: MLIR backend compilation failed: Error: 'rock.gemm' op K dimensions don't match k_a = 9 k_b = 1152
Note: see current operation: "rock.gemm"(%8, %11, %12) <{aTransposed, arch = "gfx908:sramecc+:xnack-", derivedBlockSize = 256 : i32, features = #rock<GemmFeatures mfma|dot|atomic_add>, gridSize = 52 : i32, numCU = 120 : i32, params = #rock.xdlops_gemm_params<kpackPerBlock = 2, mPerBlock = 32, nPerBlock = 64, kpack = 4, mPerWave = 8, nPerWave = 64, forceUnroll = true>, storeMethod = #rock<StoreMethod set>}> : (memref<1x9x128xf32>, memref<1x1152x784xf32>, memref<1x128x784xf32>) -> ()

Exception in gpu::mlir_op: /src/AMDMIGraphX/src/targets/gpu/mlir.cpp:731: run_backend_pipeline: MLIR backend compilation failed: Error: 'rock.gemm' op K dimensions don't match k_a = 9 k_b = 1152
Note: see current operation: "rock.gemm"(%8, %11, %12) <{aTransposed, arch = "gfx908:sramecc+:xnack-", derivedBlockSize = 64 : i32, features = #rock<GemmFeatures mfma|dot|atomic_add>, gridSize = 416 : i32, numCU = 120 : i32, params = #rock.xdlops_gemm_params<kpackPerBlock = 16, mPerBlock = 4, nPerBlock = 64, kpack = 1, mPerWave = 4, nPerWave = 64, forceUnroll = true>, storeMethod = #rock<StoreMethod set>}> : (memref<1x9x128xf32>, memref<1x1152x784xf32>, memref<1x128x784xf32>) -> ()

Exception in gpu::mlir_op: /src/AMDMIGraphX/src/targets/gpu/mlir.cpp:731: run_backend_pipeline: MLIR backend compilation failed: Error: 'rock.gemm' op K dimensions don't match k_a = 9 k_b = 1152
Note: see current operation: "rock.gemm"(%8, %11, %12) <{aTransposed, arch = "gfx908:sramecc+:xnack-", derivedBlockSize = 64 : i32, features = #rock<GemmFeatures mfma|dot|atomic_add>, gridSize = 416 : i32, numCU = 120 : i32, params = #rock.xdlops_gemm_params<kpackPerBlock = 2, mPerBlock = 4, nPerBlock = 64, kpack = 8, mPerWave = 4, nPerWave = 64, forceUnroll = true>, storeMethod = #rock<StoreMethod set>}> : (memref<1x9x128xf32>, memref<1x1152x784xf32>, memref<1x128x784xf32>) -> ()

Exception in gpu::mlir_op: /src/AMDMIGraphX/src/targets/gpu/mlir.cpp:731: run_backend_pipeline: MLIR backend compilation failed: Error: 'rock.gemm' op K dimensions don't match k_a = 9 k_b = 1152
Note: see current operation: "rock.gemm"(%8, %11, %12) <{aTransposed, arch = "gfx908:sramecc+:xnack-", derivedBlockSize = 128 : i32, features = #rock<GemmFeatures mfma|dot|atomic_add>, gridSize = 7 : i32, numCU = 120 : i32, params = #rock.xdlops_gemm_params<kpackPerBlock = 8, mPerBlock = 128, nPerBlock = 128, kpack = 1, mPerWave = 64, nPerWave = 128, forceUnroll = true>, storeMethod = #rock<StoreMethod set>}> : (memref<1x9x128xf32>, memref<1x1152x784xf32>, memref<1x128x784xf32>) -> ()

Exception in gpu::mlir_op: /src/AMDMIGraphX/src/targets/gpu/mlir.cpp:731: run_backend_pipeline: MLIR backend compilation failed: Error: 'rock.gemm' op K dimensions don't match k_a = 9 k_b = 1152
Note: see current operation: "rock.gemm"(%8, %11, %12) <{aTransposed, arch = "gfx908:sramecc+:xnack-", derivedBlockSize = 256 : i32, features = #rock<GemmFeatures mfma|dot|atomic_add>, gridSize = 7 : i32, numCU = 120 : i32, params = #rock.xdlops_gemm_params<kpackPerBlock = 8, mPerBlock = 128, nPerBlock = 128, kpack = 1, mPerWave = 64, nPerWave = 64, forceUnroll = true>, storeMethod = #rock<StoreMethod set>}> : (memref<1x9x128xf32>, memref<1x1152x784xf32>, memref<1x128x784xf32>) -> ()

Exception in gpu::mlir_op: /src/AMDMIGraphX/src/targets/gpu/mlir.cpp:731: run_backend_pipeline: MLIR backend compilation failed: Error: 'rock.gemm' op K dimensions don't match k_a = 9 k_b = 1152
Note: see current operation: "rock.gemm"(%8, %11, %12) <{aTransposed, arch = "gfx908:sramecc+:xnack-", derivedBlockSize = 128 : i32, features = #rock<GemmFeatures mfma|dot|atomic_add>, gridSize = 7 : i32, numCU = 120 : i32, params = #rock.xdlops_gemm_params<kpackPerBlock = 4, mPerBlock = 128, nPerBlock = 128, kpack = 4, mPerWave = 64, nPerWave = 128, forceUnroll = true>, storeMethod = #rock<StoreMethod set>}> : (memref<1x9x128xf32>, memref<1x1152x784xf32>, memref<1x128x784xf32>) -> ()

Exception in gpu::mlir_op: /src/AMDMIGraphX/src/targets/gpu/mlir.cpp:731: run_backend_pipeline: MLIR backend compilation failed: Error: 'rock.gemm' op K dimensions don't match k_a = 9 k_b = 1152
Note: see current operation: "rock.gemm"(%8, %11, %12) <{aTransposed, arch = "gfx908:sramecc+:xnack-", derivedBlockSize = 256 : i32, features = #rock<GemmFeatures mfma|dot|atomic_add>, gridSize = 7 : i32, numCU = 120 : i32, params = #rock.xdlops_gemm_params<kpackPerBlock = 4, mPerBlock = 128, nPerBlock = 128, kpack = 4, mPerWave = 64, nPerWave = 64, forceUnroll = true>, storeMethod = #rock<StoreMethod set>}> : (memref<1x9x128xf32>, memref<1x1152x784xf32>, memref<1x128x784xf32>) -> ()

Exception in gpu::mlir_op: /src/AMDMIGraphX/src/targets/gpu/mlir.cpp:731: run_backend_pipeline: MLIR backend compilation failed: Error: 'rock.gemm' op K dimensions don't match k_a = 9 k_b = 1152
Note: see current operation: "rock.gemm"(%8, %11, %12) <{aTransposed, arch = "gfx908:sramecc+:xnack-", derivedBlockSize = 128 : i32, features = #rock<GemmFeatures mfma|dot|atomic_add>, gridSize = 7 : i32, numCU = 120 : i32, params = #rock.xdlops_gemm_params<kpackPerBlock = 2, mPerBlock = 128, nPerBlock = 128, kpack = 8, mPerWave = 64, nPerWave = 128, forceUnroll = true>, storeMethod = #rock<StoreMethod set>}> : (memref<1x9x128xf32>, memref<1x1152x784xf32>, memref<1x128x784xf32>) -> ()

Exception in gpu::mlir_op: /src/AMDMIGraphX/src/targets/gpu/mlir.cpp:731: run_backend_pipeline: MLIR backend compilation failed: Error: 'rock.gemm' op K dimensions don't match k_a = 9 k_b = 1152
Note: see current operation: "rock.gemm"(%8, %11, %12) <{aTransposed, arch = "gfx908:sramecc+:xnack-", derivedBlockSize = 256 : i32, features = #rock<GemmFeatures mfma|dot|atomic_add>, gridSize = 7 : i32, numCU = 120 : i32, params = #rock.xdlops_gemm_params<kpackPerBlock = 2, mPerBlock = 128, nPerBlock = 128, kpack = 8, mPerWave = 64, nPerWave = 64, forceUnroll = true>, storeMethod = #rock<StoreMethod set>}> : (memref<1x9x128xf32>, memref<1x1152x784xf32>, memref<1x128x784xf32>) -> ()

Exception in gpu::mlir_op: /src/AMDMIGraphX/src/targets/gpu/mlir.cpp:731: run_backend_pipeline: MLIR backend compilation failed: Error: 'rock.gemm' op K dimensions don't match k_a = 9 k_b = 1152
Note: see current operation: "rock.gemm"(%8, %11, %12) <{aTransposed, arch = "gfx908:sramecc+:xnack-", derivedBlockSize = 256 : i32, features = #rock<GemmFeatures mfma|dot|atomic_add>, gridSize = 7 : i32, numCU = 120 : i32, params = #rock.xdlops_gemm_params<kpackPerBlock = 2, mPerBlock = 128, nPerBlock = 128, kpack = 4, mPerWave = 64, nPerWave = 64, forceUnroll = true>, storeMethod = #rock<StoreMethod set>}> : (memref<1x9x128xf32>, memref<1x1152x784xf32>, memref<1x128x784xf32>) -> ()

Exception in gpu::mlir_op: /src/AMDMIGraphX/src/targets/gpu/mlir.cpp:731: run_backend_pipeline: MLIR backend compilation failed: Error: 'rock.gemm' op K dimensions don't match k_a = 9 k_b = 1152
Note: see current operation: "rock.gemm"(%8, %11, %12) <{aTransposed, arch = "gfx908:sramecc+:xnack-", derivedBlockSize = 256 : i32, features = #rock<GemmFeatures mfma|dot|atomic_add>, gridSize = 14 : i32, numCU = 120 : i32, params = #rock.xdlops_gemm_params<kpackPerBlock = 4, mPerBlock = 64, nPerBlock = 128, kpack = 4, mPerWave = 32, nPerWave = 64, forceUnroll = true>, storeMethod = #rock<StoreMethod set>}> : (memref<1x9x128xf32>, memref<1x1152x784xf32>, memref<1x128x784xf32>) -> ()

Exception in gpu::mlir_op: /src/AMDMIGraphX/src/targets/gpu/mlir.cpp:731: run_backend_pipeline: MLIR backend compilation failed: Error: 'rock.gemm' op K dimensions don't match k_a = 9 k_b = 1152
Note: see current operation: "rock.gemm"(%8, %11, %12) <{aTransposed, arch = "gfx908:sramecc+:xnack-", derivedBlockSize = 256 : i32, features = #rock<GemmFeatures mfma|dot|atomic_add>, gridSize = 14 : i32, numCU = 120 : i32, params = #rock.xdlops_gemm_params<kpackPerBlock = 2, mPerBlock = 64, nPerBlock = 128, kpack = 8, mPerWave = 32, nPerWave = 64, forceUnroll = true>, storeMethod = #rock<StoreMethod set>}> : (memref<1x9x128xf32>, memref<1x1152x784xf32>, memref<1x128x784xf32>) -> ()

Exception in gpu::mlir_op: /src/AMDMIGraphX/src/targets/gpu/mlir.cpp:731: run_backend_pipeline: MLIR backend compilation failed: Error: 'rock.gemm' op K dimensions don't match k_a = 9 k_b = 1152
Note: see current operation: "rock.gemm"(%8, %11, %12) <{aTransposed, arch = "gfx908:sramecc+:xnack-", derivedBlockSize = 256 : i32, features = #rock<GemmFeatures mfma|dot|atomic_add>, gridSize = 14 : i32, numCU = 120 : i32, params = #rock.xdlops_gemm_params<kpackPerBlock = 2, mPerBlock = 64, nPerBlock = 128, kpack = 4, mPerWave = 32, nPerWave = 64, forceUnroll = true>, storeMethod = #rock<StoreMethod set>}> : (memref<1x9x128xf32>, memref<1x1152x784xf32>, memref<1x128x784xf32>) -> ()

Exception in gpu::mlir_op: /src/AMDMIGraphX/src/targets/gpu/mlir.cpp:731: run_backend_pipeline: MLIR backend compilation failed: Error: 'rock.gemm' op K dimensions don't match k_a = 9 k_b = 9216
Note: see current operation: "rock.gemm"(%8, %11, %12) <{aTransposed, arch = "gfx908:sramecc+:xnack-", derivedBlockSize = 256 : i32, features = #rock<GemmFeatures mfma|dot|atomic_add>, gridSize = 16 : i32, numCU = 120 : i32, params = #rock.xdlops_gemm_params<kpackPerBlock = 4, mPerBlock = 64, nPerBlock = 64, kpack = 4, mPerWave = 32, nPerWave = 32, forceUnroll = true>, storeMethod = #rock<StoreMethod set>}> : (memref<1x9x1024xf32>, memref<1x9216x49xf32>, memref<1x1024x49xf32>) -> ()

Exception in gpu::mlir_op: /src/AMDMIGraphX/src/targets/gpu/mlir.cpp:731: run_backend_pipeline: MLIR backend compilation failed: Error: 'rock.gemm' op K dimensions don't match k_a = 9 k_b = 9216
Note: see current operation: "rock.gemm"(%8, %11, %12) <{aTransposed, arch = "gfx908:sramecc+:xnack-", derivedBlockSize = 256 : i32, features = #rock<GemmFeatures mfma|dot|atomic_add>, gridSize = 16 : i32, numCU = 120 : i32, params = #rock.xdlops_gemm_params<kpackPerBlock = 4, mPerBlock = 64, nPerBlock = 64, kpack = 4, mPerWave = 16, nPerWave = 64, forceUnroll = true>, storeMethod = #rock<StoreMethod set>}> : (memref<1x9x1024xf32>, memref<1x9216x49xf32>, memref<1x1024x49xf32>) -> ()

Exception in gpu::mlir_op: /src/AMDMIGraphX/src/targets/gpu/mlir.cpp:731: run_backend_pipeline: MLIR backend compilation failed: Error: 'rock.gemm' op K dimensions don't match k_a = 9 k_b = 2304
Note: see current operation: "rock.gemm"(%8, %11, %12) <{aTransposed, arch = "gfx908:sramecc+:xnack-", derivedBlockSize = 64 : i32, features = #rock<GemmFeatures mfma|dot|atomic_add>, gridSize = 784 : i32, numCU = 120 : i32, params = #rock.xdlops_gemm_params<kpackPerBlock = 4, mPerBlock = 16, nPerBlock = 16, kpack = 4, mPerWave = 16, nPerWave = 16, forceUnroll = true>, storeMethod = #rock<StoreMethod set>}> : (memref<1x9x256xf32>, memref<1x2304x784xf32>, memref<1x256x784xf32>) -> ()

Exception in gpu::mlir_op: /src/AMDMIGraphX/src/targets/gpu/mlir.cpp:731: run_backend_pipeline: MLIR backend compilation failed: Error: 'rock.gemm' op K dimensions don't match k_a = 9 k_b = 2304
Note: see current operation: "rock.gemm"(%8, %11, %12) <{aTransposed, arch = "gfx908:sramecc+:xnack-", derivedBlockSize = 256 : i32, features = #rock<GemmFeatures mfma|dot|atomic_add>, gridSize = 52 : i32, numCU = 120 : i32, params = #rock.xdlops_gemm_params<kpackPerBlock = 4, mPerBlock = 64, nPerBlock = 64, kpack = 4, mPerWave = 32, nPerWave = 32, forceUnroll = true>, storeMethod = #rock<StoreMethod set>}> : (memref<1x9x256xf32>, memref<1x2304x784xf32>, memref<1x256x784xf32>) -> ()

Exception in gpu::mlir_op: /src/AMDMIGraphX/src/targets/gpu/mlir.cpp:731: run_backend_pipeline: MLIR backend compilation failed: Error: 'rock.gemm' op K dimensions don't match k_a = 9 k_b = 2304
Note: see current operation: "rock.gemm"(%8, %11, %12) <{aTransposed, arch = "gfx908:sramecc+:xnack-", derivedBlockSize = 256 : i32, features = #rock<GemmFeatures mfma|dot|atomic_add>, gridSize = 52 : i32, numCU = 120 : i32, params = #rock.xdlops_gemm_params<kpackPerBlock = 4, mPerBlock = 64, nPerBlock = 64, kpack = 4, mPerWave = 16, nPerWave = 64, forceUnroll = true>, storeMethod = #rock<StoreMethod set>}> : (memref<1x9x256xf32>, memref<1x2304x784xf32>, memref<1x256x784xf32>) -> ()

Exception in gpu::mlir_op: /src/AMDMIGraphX/src/targets/gpu/mlir.cpp:731: run_backend_pipeline: MLIR backend compilation failed: Error: 'rock.gemm' op K dimensions don't match k_a = 9 k_b = 2304
Note: see current operation: "rock.gemm"(%8, %11, %12) <{aTransposed, arch = "gfx908:sramecc+:xnack-", derivedBlockSize = 256 : i32, features = #rock<GemmFeatures mfma|dot|atomic_add>, gridSize = 52 : i32, numCU = 120 : i32, params = #rock.xdlops_gemm_params<kpackPerBlock = 2, mPerBlock = 64, nPerBlock = 64, kpack = 8, mPerWave = 32, nPerWave = 32, forceUnroll = true>, storeMethod = #rock<StoreMethod set>}> : (memref<1x9x256xf32>, memref<1x2304x784xf32>, memref<1x256x784xf32>) -> ()

Exception in gpu::mlir_op: /src/AMDMIGraphX/src/targets/gpu/mlir.cpp:731: run_backend_pipeline: MLIR backend compilation failed: Error: 'rock.gemm' op K dimensions don't match k_a = 9 k_b = 2304
Note: see current operation: "rock.gemm"(%8, %11, %12) <{aTransposed, arch = "gfx908:sramecc+:xnack-", derivedBlockSize = 64 : i32, features = #rock<GemmFeatures mfma|dot|atomic_add>, gridSize = 104 : i32, numCU = 120 : i32, params = #rock.xdlops_gemm_params<kpackPerBlock = 4, mPerBlock = 32, nPerBlock = 64, kpack = 4, mPerWave = 32, nPerWave = 64, forceUnroll = true>, storeMethod = #rock<StoreMethod set>}> : (memref<1x9x256xf32>, memref<1x2304x784xf32>, memref<1x256x784xf32>) -> ()

Exception in gpu::mlir_op: /src/AMDMIGraphX/src/targets/gpu/mlir.cpp:731: run_backend_pipeline: MLIR backend compilation failed: Error: 'rock.gemm' op K dimensions don't match k_a = 9 k_b = 2304
Note: see current operation: "rock.gemm"(%8, %11, %12) <{aTransposed, arch = "gfx908:sramecc+:xnack-", derivedBlockSize = 256 : i32, features = #rock<GemmFeatures mfma|dot|atomic_add>, gridSize = 104 : i32, numCU = 120 : i32, params = #rock.xdlops_gemm_params<kpackPerBlock = 4, mPerBlock = 32, nPerBlock = 64, kpack = 4, mPerWave = 8, nPerWave = 64, forceUnroll = true>, storeMethod = #rock<StoreMethod set>}> : (memref<1x9x256xf32>, memref<1x2304x784xf32>, memref<1x256x784xf32>) -> ()

Exception in gpu::mlir_op: /src/AMDMIGraphX/src/targets/gpu/mlir.cpp:731: run_backend_pipeline: MLIR backend compilation failed: Error: 'rock.gemm' op K dimensions don't match k_a = 9 k_b = 2304
Note: see current operation: "rock.gemm"(%8, %11, %12) <{aTransposed, arch = "gfx908:sramecc+:xnack-", derivedBlockSize = 128 : i32, features = #rock<GemmFeatures mfma|dot|atomic_add>, gridSize = 104 : i32, numCU = 120 : i32, params = #rock.xdlops_gemm_params<kpackPerBlock = 2, mPerBlock = 32, nPerBlock = 64, kpack = 8, mPerWave = 32, nPerWave = 32, forceUnroll = true>, storeMethod = #rock<StoreMethod set>}> : (memref<1x9x256xf32>, memref<1x2304x784xf32>, memref<1x256x784xf32>) -> ()

Exception in gpu::mlir_op: /src/AMDMIGraphX/src/targets/gpu/mlir.cpp:731: run_backend_pipeline: MLIR backend compilation failed: Error: 'rock.gemm' op K dimensions don't match k_a = 9 k_b = 2304
Note: see current operation: "rock.gemm"(%8, %11, %12) <{aTransposed, arch = "gfx908:sramecc+:xnack-", derivedBlockSize = 256 : i32, features = #rock<GemmFeatures mfma|dot|atomic_add>, gridSize = 104 : i32, numCU = 120 : i32, params = #rock.xdlops_gemm_params<kpackPerBlock = 2, mPerBlock = 32, nPerBlock = 64, kpack = 4, mPerWave = 8, nPerWave = 64, forceUnroll = true>, storeMethod = #rock<StoreMethod set>}> : (memref<1x9x256xf32>, memref<1x2304x784xf32>, memref<1x256x784xf32>) -> ()

Exception in gpu::mlir_op: /src/AMDMIGraphX/src/targets/gpu/mlir.cpp:731: run_backend_pipeline: MLIR backend compilation failed: Error: 'rock.gemm' op K dimensions don't match k_a = 9 k_b = 2304
Note: see current operation: "rock.gemm"(%8, %11, %12) <{aTransposed, arch = "gfx908:sramecc+:xnack-", derivedBlockSize = 64 : i32, features = #rock<GemmFeatures mfma|dot|atomic_add>, gridSize = 832 : i32, numCU = 120 : i32, params = #rock.xdlops_gemm_params<kpackPerBlock = 16, mPerBlock = 4, nPerBlock = 64, kpack = 1, mPerWave = 4, nPerWave = 64, forceUnroll = true>, storeMethod = #rock<StoreMethod set>}> : (memref<1x9x256xf32>, memref<1x2304x784xf32>, memref<1x256x784xf32>) -> ()

Exception in gpu::mlir_op: /src/AMDMIGraphX/src/targets/gpu/mlir.cpp:731: run_backend_pipeline: MLIR backend compilation failed: Error: 'rock.gemm' op K dimensions don't match k_a = 9 k_b = 2304
Note: see current operation: "rock.gemm"(%8, %11, %12) <{aTransposed, arch = "gfx908:sramecc+:xnack-", derivedBlockSize = 64 : i32, features = #rock<GemmFeatures mfma|dot|atomic_add>, gridSize = 832 : i32, numCU = 120 : i32, params = #rock.xdlops_gemm_params<kpackPerBlock = 2, mPerBlock = 4, nPerBlock = 64, kpack = 8, mPerWave = 4, nPerWave = 64, forceUnroll = true>, storeMethod = #rock<StoreMethod set>}> : (memref<1x9x256xf32>, memref<1x2304x784xf32>, memref<1x256x784xf32>) -> ()

Exception in gpu::mlir_op: /src/AMDMIGraphX/src/targets/gpu/mlir.cpp:731: run_backend_pipeline: MLIR backend compilation failed: Error: 'rock.gemm' op K dimensions don't match k_a = 9 k_b = 2304
Note: see current operation: "rock.gemm"(%8, %11, %12) <{aTransposed, arch = "gfx908:sramecc+:xnack-", derivedBlockSize = 128 : i32, features = #rock<GemmFeatures mfma|dot|atomic_add>, gridSize = 14 : i32, numCU = 120 : i32, params = #rock.xdlops_gemm_params<kpackPerBlock = 8, mPerBlock = 128, nPerBlock = 128, kpack = 1, mPerWave = 64, nPerWave = 128, forceUnroll = true>, storeMethod = #rock<StoreMethod set>}> : (memref<1x9x256xf32>, memref<1x2304x784xf32>, memref<1x256x784xf32>) -> ()

Exception in gpu::mlir_op: /src/AMDMIGraphX/src/targets/gpu/mlir.cpp:731: run_backend_pipeline: MLIR backend compilation failed: Error: 'rock.gemm' op K dimensions don't match k_a = 9 k_b = 2304
Note: see current operation: "rock.gemm"(%8, %11, %12) <{aTransposed, arch = "gfx908:sramecc+:xnack-", derivedBlockSize = 256 : i32, features = #rock<GemmFeatures mfma|dot|atomic_add>, gridSize = 14 : i32, numCU = 120 : i32, params = #rock.xdlops_gemm_params<kpackPerBlock = 8, mPerBlock = 128, nPerBlock = 128, kpack = 1, mPerWave = 64, nPerWave = 64, forceUnroll = true>, storeMethod = #rock<StoreMethod set>}> : (memref<1x9x256xf32>, memref<1x2304x784xf32>, memref<1x256x784xf32>) -> ()

Exception in gpu::mlir_op: /src/AMDMIGraphX/src/targets/gpu/mlir.cpp:731: run_backend_pipeline: MLIR backend compilation failed: Error: 'rock.gemm' op K dimensions don't match k_a = 9 k_b = 1152
Note: see current operation: "rock.gemm"(%8, %11, %12) <{aTransposed, arch = "gfx908:sramecc+:xnack-", derivedBlockSize = 256 : i32, features = #rock<GemmFeatures mfma|dot|atomic_add>, gridSize = 98 : i32, numCU = 120 : i32, params = #rock.xdlops_gemm_params<kpackPerBlock = 4, mPerBlock = 64, nPerBlock = 64, kpack = 4, mPerWave = 32, nPerWave = 32, forceUnroll = true>, storeMethod = #rock<StoreMethod set>}> : (memref<1x9x128xf32>, memref<1x1152x3136xf32>, memref<1x128x3136xf32>) -> ()

Exception in gpu::mlir_op: /src/AMDMIGraphX/src/targets/gpu/mlir.cpp:731: run_backend_pipeline: MLIR backend compilation failed: Error: 'rock.gemm' op K dimensions don't match k_a = 9 k_b = 1152
Note: see current operation: "rock.gemm"(%8, %11, %12) <{aTransposed, arch = "gfx908:sramecc+:xnack-", derivedBlockSize = 256 : i32, features = #rock<GemmFeatures mfma|dot|atomic_add>, gridSize = 98 : i32, numCU = 120 : i32, params = #rock.xdlops_gemm_params<kpackPerBlock = 4, mPerBlock = 64, nPerBlock = 64, kpack = 4, mPerWave = 16, nPerWave = 64, forceUnroll = true>, storeMethod = #rock<StoreMethod set>}> : (memref<1x9x128xf32>, memref<1x1152x3136xf32>, memref<1x128x3136xf32>) -> ()

Exception in gpu::mlir_op: /src/AMDMIGraphX/src/targets/gpu/mlir.cpp:731: run_backend_pipeline: MLIR backend compilation failed: Error: 'rock.gemm' op K dimensions don't match k_a = 9 k_b = 1152
Note: see current operation: "rock.gemm"(%8, %11, %12) <{aTransposed, arch = "gfx908:sramecc+:xnack-", derivedBlockSize = 256 : i32, features = #rock<GemmFeatures mfma|dot|atomic_add>, gridSize = 98 : i32, numCU = 120 : i32, params = #rock.xdlops_gemm_params<kpackPerBlock = 2, mPerBlock = 64, nPerBlock = 64, kpack = 8, mPerWave = 32, nPerWave = 32, forceUnroll = true>, storeMethod = #rock<StoreMethod set>}> : (memref<1x9x128xf32>, memref<1x1152x3136xf32>, memref<1x128x3136xf32>) -> ()

Exception in gpu::mlir_op: /src/AMDMIGraphX/src/targets/gpu/mlir.cpp:731: run_backend_pipeline: MLIR backend compilation failed: Error: 'rock.gemm' op K dimensions don't match k_a = 9 k_b = 1152
Note: see current operation: "rock.gemm"(%8, %11, %12) <{aTransposed, arch = "gfx908:sramecc+:xnack-", derivedBlockSize = 64 : i32, features = #rock<GemmFeatures mfma|dot|atomic_add>, gridSize = 196 : i32, numCU = 120 : i32, params = #rock.xdlops_gemm_params<kpackPerBlock = 4, mPerBlock = 32, nPerBlock = 64, kpack = 4, mPerWave = 32, nPerWave = 64, forceUnroll = true>, storeMethod = #rock<StoreMethod set>}> : (memref<1x9x128xf32>, memref<1x1152x3136xf32>, memref<1x128x3136xf32>) -> ()

Exception in gpu::mlir_op: /src/AMDMIGraphX/src/targets/gpu/mlir.cpp:731: run_backend_pipeline: MLIR backend compilation failed: Error: 'rock.gemm' op K dimensions don't match k_a = 9 k_b = 1152
Note: see current operation: "rock.gemm"(%8, %11, %12) <{aTransposed, arch = "gfx908:sramecc+:xnack-", derivedBlockSize = 256 : i32, features = #rock<GemmFeatures mfma|dot|atomic_add>, gridSize = 196 : i32, numCU = 120 : i32, params = #rock.xdlops_gemm_params<kpackPerBlock = 4, mPerBlock = 32, nPerBlock = 64, kpack = 4, mPerWave = 8, nPerWave = 64, forceUnroll = true>, storeMethod = #rock<StoreMethod set>}> : (memref<1x9x128xf32>, memref<1x1152x3136xf32>, memref<1x128x3136xf32>) -> ()

Exception in gpu::mlir_op: /src/AMDMIGraphX/src/targets/gpu/mlir.cpp:731: run_backend_pipeline: MLIR backend compilation failed: Error: 'rock.gemm' op K dimensions don't match k_a = 9 k_b = 2304
Note: see current operation: "rock.gemm"(%8, %11, %12) <{aTransposed, arch = "gfx908:sramecc+:xnack-", derivedBlockSize = 64 : i32, features = #rock<GemmFeatures mfma|dot|atomic_add>, gridSize = 208 : i32, numCU = 120 : i32, params = #rock.xdlops_gemm_params<kpackPerBlock = 4, mPerBlock = 16, nPerBlock = 16, kpack = 4, mPerWave = 16, nPerWave = 16, forceUnroll = true>, storeMethod = #rock<StoreMethod set>}> : (memref<1x9x256xf32>, memref<1x2304x196xf32>, memref<1x256x196xf32>) -> ()

Exception in gpu::mlir_op: /src/AMDMIGraphX/src/targets/gpu/mlir.cpp:731: run_backend_pipeline: MLIR backend compilation failed: Error: 'rock.gemm' op K dimensions don't match k_a = 9 k_b = 2304
Note: see current operation: "rock.gemm"(%8, %11, %12) <{aTransposed, arch = "gfx908:sramecc+:xnack-", derivedBlockSize = 256 : i32, features = #rock<GemmFeatures mfma|dot|atomic_add>, gridSize = 2 : i32, numCU = 120 : i32, params = #rock.xdlops_gemm_params<kpackPerBlock = 4, mPerBlock = 128, nPerBlock = 256, kpack = 4, mPerWave = 64, nPerWave = 128, forceUnroll = true>, storeMethod = #rock<StoreMethod set>}> : (memref<1x9x256xf32>, memref<1x2304x196xf32>, memref<1x256x196xf32>) -> ()

Exception in gpu::mlir_op: /src/AMDMIGraphX/src/targets/gpu/mlir.cpp:731: run_backend_pipeline: MLIR backend compilation failed: Error: 'rock.gemm' op K dimensions don't match k_a = 9 k_b = 2304
Note: see current operation: "rock.gemm"(%8, %11, %12) <{aTransposed, arch = "gfx908:sramecc+:xnack-", derivedBlockSize = 128 : i32, features = #rock<GemmFeatures mfma|dot|atomic_add>, gridSize = 4 : i32, numCU = 120 : i32, params = #rock.xdlops_gemm_params<kpackPerBlock = 8, mPerBlock = 128, nPerBlock = 128, kpack = 1, mPerWave = 64, nPerWave = 128, forceUnroll = true>, storeMethod = #rock<StoreMethod set>}> : (memref<1x9x256xf32>, memref<1x2304x196xf32>, memref<1x256x196xf32>) -> ()

terminate called after throwing an instance of 'migraphx::version_2_9_0::exception'
  what():  /src/AMDMIGraphX/src/targets/gpu/compile_ops.cpp:218: benchmark: No valid tuned compilation.
timeout: the monitored command dumped core
